checkpoint.pt (torch_old, 14914 bytes, 6 tensors)

_input_linear.weight f4 [100, 12]
0	0x3bfef040	0.007780105
1	0x3b95a740	0.004567057
2	0x3b981880	0.0046415925
3	0xbdacd3ec	-0.084388584
4	0x3e0e63cc	0.13905257
5	0x3d9df170	0.07712066
6	0x3d405360	0.046954513
7	0x3e28697c	0.16446489
8	0x3d95f8a4	0.07322815
9	0xbc553c80	-0.013014913
10	0xbe5cf2a5	-0.21576937
11	0xbe21bf3c	-0.15795606
12	0x3d9c2b4c	0.07625446
13	0x3d969694	0.07352939
14	0xbcc7b450	-0.024377972
15	0xbdbe3dc4	-0.092891246
16	0x3dc3edec	0.09566864
17	0xbe92aff5	-0.2864987
18	0xbdf02aa0	-0.1172688
19	0xbe6fd858	-0.23422372
20	0x3cd2fb50	0.0257546
21	0x3d608248	0.054811746
22	0xbd8e61fa	-0.06952281
23	0x3e0e2866	0.13882598
24	0x3e7d9f74	0.24767858
25	0xbd01ba98	-0.03167209
26	0xbe89edb9	-0.2693918
27	0x3e59d2a8	0.21271765
28	0xbdd30c58	-0.10305089
29	0xbdfe0e00	-0.12405014
30	0x3cd27f10	0.025695354
31	0xbe100fb6	-0.14068493
32	0xbc5e5d40	-0.013572037
33	0x3e5609d8	0.20902193
34	0x3e76dad8	0.2410692
35	0xbe65c896	-0.22439799
36	0xbd9ebb8d	-0.07750616
37	0x3d850059	0.06494207
38	0x3dd52ee6	0.10409336
39	0xbd13bbff	-0.03606796
40	0x3e0c922e	0.13727638
41	0xbd183e1d	-0.03716861
42	0x3c2210ac	0.00989167
43	0xbd812f9d	-0.0630791
44	0x3e04e06d	0.12976237
45	0x3e55bcdc	0.20872825
46	0x3e65ee2b	0.22454135
47	0xbc3047d4	-0.010759313
48	0xbd526b9c	-0.051372156
49	0x3e756ba8	0.23966849
50	0xbe704da7	-0.23467122
51	0xbd4625d0	-0.048375905
52	0x3cca3190	0.024681836
53	0x3e12b6e4	0.1432758
54	0xbe7119e0	-0.23545027
55	0xbdac20f6	-0.08404724
56	0xbe3aa8d2	-0.18228462
57	0x3da9a24c	0.08282909
58	0x3db9a9fc	0.09065625
59	0x3d681450	0.056659997
60	0x3e7d36ac	0.24727887
61	0x3e356256	0.17713293
62	0xbdd8a342	-0.10578014
63	0xbe5ec553	-0.2175496
64	0x3e3a9952	0.1822255
65	0x3e0379de	0.12839457
66	0xbe63c8af	-0.22244523
67	0xbca380d0	-0.019958884
68	0xbe407a0e	-0.1879656
69	0xbe24612a	-0.1605269
70	0xbdff39d4	-0.12462202
71	0xbe826e7b	-0.25474915
72	0x3a20de00	0.0006136596
73	0x3e1c8690	0.15285707
74	0x3dfa7210	0.12228787
75	0xbd05d798	-0.03267631
76	0xbda5fdf0	-0.08105075
77	0xbdd6afc2	-0.10482742
78	0x3e8b7fd0	0.2724595
79	0xbe1c7602	-0.15279391
80	0x3d2184e0	0.03943336
81	0x3e5b803c	0.21435636
82	0x3e4694ae	0.19392654
83	0xbe3f40f6	-0.18677124
84	0xbbe5e047	-0.0070152613
85	0xbe4f60a4	-0.20251709
86	0x3fad04c0	1.3517075
87	0x3f020aba	0.5079762
88	0xbe0ab09a	-0.1354393
89	0x3ea8bc38	0.329561
90	0x3ede4f5a	0.43419915
91	0x3ede32ab	0.43398032
92	0x3ef104be	0.4707393
93	0xbe1ab56c	-0.1510827
94	0x3edb2a30	0.42805624
95	0x3f30bb8b	0.6903617
96	0xbd1679e8	-0.036737353
97	0xbda62c20	-0.08113885
98	0xbe8604c2	-0.26175505
99	0x3e5b05b8	0.213889
100	0x3e741164	0.23834759
101	0xbe38842a	-0.18019167
102	0x3e5b4a54	0.21415073
103	0xbe8bbfcc	-0.27294767
104	0x3bd35640	0.006449491
105	0xbe0a148d	-0.13484402
106	0xbe8b0de0	-0.27159023
107	0xbe917683	-0.2841073
108	0xbe39b4aa	-0.18135324
109	0x3dbc35d8	0.091899574
110	0xbd3436fc	-0.04399775
111	0x3e56790a	0.2094461
112	0x3dfb50bc	0.12271258
113	0x3e2a9a70	0.16660476
114	0xbe7ee074	-0.2489031
115	0xbd69a14c	-0.05703859
116	0xbca37540	-0.01995337
117	0xbe43d0da	-0.1912264
118	0x3e14cb02	0.14530566
119	0xbd973106	-0.07382397
120	0x3ce19280	0.027535677
121	0x3e88374a	0.26604682
122	0xbc8bfe80	-0.017089128
123	0xbdc54a96	-0.09633367
124	0xbe85cce2	-0.26132876
125	0x3d3633c8	0.044482976
126	0x3d235078	0.039871663
127	0xbe81bc32	-0.25338894
128	0xbe808d41	-0.25107768
129	0x3e1d5830	0.15365672
130	0xbe2b7c9a	-0.1674675
131	0x3dfadd84	0.12249282
132	0xbe4cd91f	-0.200047
133	0xbd05d550	-0.032674134
134	0xbe87e863	-0.26544484
135	0x3e7919ec	0.24326295
136	0xbe81f18e	-0.25379604
137	0xbc90e140	-0.017685533
138	0xbe8469d1	-0.25861982
139	0xbc3e30a0	-0.011608273
140	0xbda1ba34	-0.078968436
141	0xbe17d928	-0.14828932
142	0xbe669415	-0.22517426
143	0x3e0eb218	0.13935125
144	0xbe80dd50	-0.25168848
145	0xbe8e4cd9	-0.27793005
146	0x3c4b2380	0.012398601
147	0xbd26387c	-0.04058121
148	0x3e88fd26	0.26755637
149	0x3c60afa0	0.013713747
150	0xbdc13202	-0.09433366
151	0x3d8217bc	0.06352183
152	0xbe91ccd1	-0.28476575
153	0x3e2aae0a	0.16667953
154	0xbc9e9180	-0.01935649
155	0xbe313282	-0.17304423
156	0x3d9a84ac	0.075448364
157	0xbe762195	-0.24036248
158	0x3e2b4a9e	0.16727683
159	0x3e723b28	0.23655379
160	0xbd778b4c	-0.06043558
161	0x3d8504e0	0.064950705
162	0xbe8aaff1	-0.27087358
163	0xbe7937b6	-0.24337658
164	0x3dca4c60	0.098778486
165	0x3e1acef0	0.15118003
166	0xbe39e663	-0.18154292
167	0x3e54803e	0.20752046
168	0x3df36704	0.11884883
169	0x3e1a75c2	0.15083984
170	0xbe8c5af8	-0.27413154
171	0xbdda2f92	-0.106536046
172	0xbd633830	-0.055473506
173	0xbd8f48b8	-0.06996292
174	0xbdfd08c4	-0.123551875
175	0x3e7501cc	0.23926467
176	0x3d73c940	0.0595181
177	0x3d916d3c	0.07100913
178	0x3dbf1d78	0.093317926
179	0x3e441a94	0.19150764
180	0xbe42b5ba	-0.19014636
181	0xbe8aab90	-0.27084017
182	0x3d798cc0	0.060925245
183	0xbe021077	-0.12701593
184	0x3e621464	0.22078091
185	0x3dad49a4	0.084613115
186	0xbe83888d	-0.25690117
187	0x3e3b2d52	0.18279007
188	0x3e103e1e	0.14086196
189	0xbe1b8f95	-0.15191491
190	0xbe6e2f40	-0.23260212
191	0x3dfe4290	0.124150395
192	0x3e4fe2e2	0.20301393
193	0xbdf09e9a	-0.11749001
194	0xbd6fb440	-0.05852151
195	0x3e928798	0.28619075
196	0x3e9129be	0.2835216
197	0x3d859ec4	0.06524423
198	0x3da30a0c	0.07960901
199	0x3d039e28	0.03213325
200	0x3d8ddafc	0.069265336
201	0xbe2e4990	-0.1702025
202	0xbe89be49	-0.2690299
203	0xbdc2f39a	-0.095191196
204	0x3e200b80	0.15629387
205	0x3e84f496	0.25967854
206	0xbdd2eaa4	-0.102986604
207	0x3e8a6804	0.27032483
208	0xbd2b4648	-0.041815072
209	0xbe0513a5	-0.12995775
210	0xbde22bf8	-0.110435426
211	0x3cd95b00	0.02653265
212	0xbdaf7664	-0.08567503
213	0x3e811ce4	0.25217354
214	0x3ddbb4b8	0.10727829
215	0x3e15a710	0.1461451
216	0xbe650279	-0.22364224
217	0xbe121c5c	-0.1426863
218	0x3e24a1b0	0.16077304
219	0x3e2b3672	0.16719988
220	0xbe72fe68	-0.23729861
221	0x3c929f30	0.017898172
222	0xbe8dd295	-0.27699724
223	0xbe7e5c0b	-0.24839799
224	0x3d779880	0.06044817
225	0xbd168ff0	-0.036758363
226	0xbcdee210	-0.027207404
227	0xbe012af4	-0.12614042
228	0xbe7f8cc2	-0.24956039
229	0xbd91c3a0	-0.07117391
230	0xbe42f8ae	-0.19040176
231	0x3e25ff46	0.1621066
232	0xbcb3a960	-0.02193135
233	0x3e07efb4	0.13275033
234	0x3bb9f6c0	0.005675167
235	0x3e4f6a26	0.20255336
236	0xbe87b31b	-0.26503834
237	0x3d30c710	0.04315859
238	0x3e0888b2	0.13333395
239	0x3e459910	0.1929667
240	0x3dcd2298	0.10016364
241	0xbe729708	-0.23690426
242	0xbe1af8d2	-0.1513398
243	0xbe5e395c	-0.21701568
244	0x3bb95600	0.005656004
245	0xbce01530	-0.027353853
246	0xbe1583d5	-0.14601071
247	0xbe0bc478	-0.13649166
248	0x3d89713c	0.06711051
249	0x3dade2e8	0.084905446
250	0x3cf6c3e0	0.030122697
251	0x3e092f66	0.13396987
252	0xbe5a0985	-0.21292694
253	0x3e16db08	0.14731991
254	0x3de82464	0.11335066
255	0xbd85d7c0	-0.06535292

_input_linear.bias f4 [100]
0	0x3c9e3d90	0.019316465
1	0xbdb141cc	-0.08655128
2	0xbe23e3db	-0.16004889
3	0x3cae5a02	0.021283153
4	0x3c1e1840	0.009649336
5	0xbe294a4d	-0.1653225
6	0xbc88a9a0	-0.016682446
7	0x3f3d9ab0	0.7406416
8	0xbe373080	-0.17889595
9	0xbe2709b3	-0.16312294
10	0xbe6173a8	-0.22016776
11	0x3e8b8526	0.27250022
12	0x3d86bafc	0.06578633
13	0x3e41d894	0.18930274
14	0xbe5c9905	-0.21542747
15	0xbd5faa24	-0.054605618
16	0xbb3dde00	-0.0028971434
17	0xbdb5959c	-0.08866426
18	0xbd1f359c	-0.038869485
19	0xbe1b9e4c	-0.15197104
20	0x3ca6ac00	0.020345688
21	0x3e3a639c	0.1820206
22	0x3dccadf8	0.099941194
23	0x3f0706b9	0.5274463
24	0xbc9c74e0	-0.0190987
25	0x3bdb6b80	0.0066961646
26	0x3e24f984	0.16110808
27	0xbe8234e1	-0.25430968
28	0x3e48393c	0.19553083
29	0x3b03e600	0.0020126104
30	0xbe17e9bc	-0.14835256
31	0xbc9dc7f0	-0.019260377
32	0x3cf80030	0.030273527
33	0xbddf6356	-0.10907619
34	0x3db9bce4	0.09069231
35	0x3e2cf662	0.16890863
36	0xbe4f73ac	-0.20258969
37	0x3e199c8e	0.15001127
38	0x3e839716	0.25701207
39	0x3e8bf49c	0.2733506
40	0x3e292654	0.16518527
41	0xbcfe9415	-0.03107647
42	0x3e4cb9d4	0.19992763
43	0x3e5f3788	0.21798527
44	0xbc82a4c0	-0.0159477
45	0x3cead730	0.028667063
46	0xbe90164d	-0.28142014
47	0x3dc90820	0.09816003
48	0x3ea487f4	0.32134974
49	0x3e57ec38	0.21086204
50	0xbd7768b0	-0.060402572
51	0xbe842012	-0.25805718
52	0xbcc63040	-0.02419293
53	0x3e53173e	0.20614335
54	0xbd096960	-0.03354776
55	0xbe45d8af	-0.1932094
56	0xbdc95d46	-0.098322436
57	0xbe01fb1b	-0.12693445
58	0xbe518aee	-0.20463154
59	0x3cf14650	0.029452473
60	0xbd8a8c40	-0.06765032
61	0x3f06e7e8	0.5269761
62	0xbe643832	-0.22287062
63	0x3d362798	0.044471353
64	0xbdd2d2ca	-0.10294111
65	0x3e47c3b6	0.19508252
66	0xbd92f94e	-0.07176457
67	0x3e7b605e	0.2454848
68	0x3e78a884	0.24283034
69	0x3e24d53e	0.1609697
70	0x3ead20aa	0.33813983
71	0xbe6f2fa6	-0.2335802
72	0xbe501294	-0.20319587
73	0xbcaaa840	-0.020832181
74	0xbe85dcd7	-0.2614505
75	0xbd856ab4	-0.06514493
76	0x3db7d2ad	0.0897573
77	0xbe856fa6	-0.26061743
78	0xbe1690ce	-0.14703676
79	0x3d9d4cec	0.07680687
80	0x3e918a6e	0.28425926
81	0x3bd2be80	0.006431401
82	0x3e6c6fd4	0.23089534
83	0xbd8efc30	-0.06981695
84	0xbd97c644	-0.07410863
85	0x3e937c12	0.28805596
86	0x3e478360	0.1948371
87	0x3e08f93a	0.13376322
88	0xbe3a783e	-0.18209931
89	0xbd67e8e4	-0.056618586
90	0xbe8b3dd8	-0.2719562
91	0x3e03e862	0.12881616
92	0x3e8ad4a0	0.27115345
93	0xbe53611a	-0.2064251
94	0xbdc26d31	-0.09493483
95	0xbe89bd1d	-0.26902094
96	0xbe26e79e	-0.16299292
97	0x3f052561	0.5201016
98	0xbe787fa8	-0.24267447
99	0xbe729d42	-0.23692802

_middle_linear.weight f4 [20, 100]
0	0x3b5dea00	0.0033861399
1	0xbc6a5610	-0.014302745
2	0xbd8418ba	-0.06450029
3	0x3bdaef79	0.0066813794
4	0x3dc698ef	0.096971385
5	0xbce6f114	-0.028191127
6	0xbd631510	-0.05544001
7	0xbd5f3bb3	-0.054500293
8	0xbd25598a	-0.040368594
9	0xbc9b1ea8	-0.018935516
10	0xbd32ccaa	-0.043652214
11	0x3dbd5651	0.09244979
12	0x3b4d8f00	0.0031365752
13	0xbc91f3c8	-0.01781644
14	0xbdb76d27	-0.08956366
15	0xbd37b75d	-0.044852603
16	0xbd87afc8	-0.066253245
17	0xbbc08220	-0.005874887
18	0xbdc78d28	-0.0974372
19	0xbd86bcd8	-0.06578988
20	0xbd89ee4a	-0.06734903
21	0xbd61b9dd	-0.055108894
22	0x3d2c2d8a	0.042035617
23	0x3ea6ecf5	0.3260266
24	0x3d5335f2	0.051565118
25	0x3c79f310	0.0152557045
26	0x3d7b21aa	0.0613114
27	0x3d69388e	0.0569387
28	0xbbaef8a0	-0.005339697
29	0x3cfe18f4	0.031017758
30	0xbcd886ac	-0.026431404
31	0xbd2cd5ad	-0.042195965
32	0x3d6c75de	0.057729594
33	0xbd9f54d3	-0.07779851
34	0x3d9b5579	0.07584662
35	0xbd2d89a0	-0.042367578
36	0xbdbe32cd	-0.09287033
37	0x3d2ba242	0.041902788
38	0x3d338922	0.043831952
39	0x3f13920c	0.57644725
40	0x3d941ca9	0.07232029
41	0xbcf940bf	-0.030426381
42	0x3cad2aa0	0.02113849
43	0x3d18d27e	0.037310116
44	0x3d8b4f3f	0.06802224
45	0x3ca1d280	0.019753695
46	0x3d1f9cd6	0.03896793
47	0xbdb18007	-0.086669974
48	0x3e85c606	0.26127642
49	0xbdb9a798	-0.09065169
50	0xbd7ca3c0	-0.0616796
51	0x3d3a9cb6	0.045559607
52	0x3d846eb1	0.06466425
53	0x3ec11efd	0.37718955
54	0xbd4f239d	-0.050571073
55	0x3d40064e	0.046881013
56	0x3d5b1556	0.053487144
57	0x3ccba1d8	0.024857447
58	0x3cdf7f0c	0.02728226
59	0xbda1f1da	-0.07907458
60	0x3cbff788	0.023433462
61	0xbec822c3	-0.3908902
62	0x3da104c1	0.07862235
63	0x3cde40a4	0.027130432
64	0x3d2b2ce6	0.041790865
65	0xbcab7bcc	-0.020933054
66	0xbd882a0e	-0.06648646
67	0x3d506f12	0.050887175
68	0x3d73a7f2	0.059486337
69	0x3d0a5b12	0.033778258
70	0x3e892a00	0.26789856
71	0xbcd6c2b4	-0.026215889
72	0xbd03dbf0	-0.03219217
73	0x3dbf50e1	0.09341598
74	0xbda8a935	-0.08235399
75	0xbee2bbaa	-0.442838
76	0xbd1f1b81	-0.03884459
77	0xbd70f093	-0.05882318
78	0x3dcc3387	0.099707656
79	0xbd6d1c47	-0.057888296
80	0xbb88f850	-0.004179992
81	0xbdc11872	-0.09428491
82	0xbc699568	-0.014256813
83	0x3cd41d8c	0.025892995
84	0x3dbbf3f1	0.091773875
85	0x3d81ebf9	0.06343836
86	0x3d653f7a	0.05596874
87	0x3d7ae7b2	0.061256118
88	0xbd8a9b3d	-0.067678906
89	0x3d255d1a	0.04037199
90	0x3c65da28	0.014029063
91	0xbd9325fd	-0.0718498
92	0xbd80a395	-0.06281201
93	0xbdacfe20	-0.08446908
94	0xbea00474	-0.31253397
95	0xbd75aa47	-0.059976842
96	0x3c2cfb90	0.010558024
97	0x3f2d31de	0.67654216
98	0xbd745f17	-0.059660997
99	0xbd302fa0	-0.04301417
100	0x3d915795	0.07096783
101	0x3cb547f4	0.022129036
102	0xbd538143	-0.051636945
103	0x3ca45f8d	0.020065093
104	0xbca5a088	-0.020218149
105	0x3cd0d8c4	0.025493987
106	0xbdc5e05a	-0.09661932
107	0x3d45b213	0.048265528
108	0xbd12f2c4	-0.03587605
109	0x3cb96558	0.022631332
110	0xbd8a170d	-0.06742678
111	0xbd83b8e4	-0.064317495
112	0x3d1f3c42	0.038875826
113	0x3dbfbcdf	0.09362196
114	0xbcb8a960	-0.022541702
115	0xbc81f294	-0.01586274
116	0xbbf1c320	-0.007377997
117	0x3da7d5ff	0.081951134
118	0x3d0692ba	0.032854773
119	0xbb0d2600	-0.0021537542
120	0x3c713528	0.014722146
121	0xbbdf7f60	-0.006820604
122	0x3c845920	0.01615578
123	0x3e1489a2	0.14505628
124	0xbc7971d8	-0.015224896
125	0xbdc32a92	-0.09529604
126	0xbd8b17a4	-0.067916185
127	0x3bdffad0	0.006835319
128	0xbdc9d6ca	-0.09855421
129	0xbdb52e72	-0.08846749
130	0x3d054256	0.032533966
131	0x3da5b479	0.08091063
132	0xbd93d6fb	-0.07218739
133	0x3d5234b2	0.051319785
134	0x3d7e81a2	0.062135346
135	0x3cfb471c	0.030673556
136	0xbd5532b0	-0.052050292
137	0xbd68acc0	-0.056805372
138	0xbd62fe60	-0.055418372
139	0xbf4e0dab	-0.80489606
140	0x3d6ec9e2	0.058298
141	0x3e41e8fa	0.1893653
142	0x3cb589a0	0.022160351
143	0x3d912935	0.07087938
144	0xbdb6581d	-0.08903525
145	0xbce28de8	-0.027655557
146	0x3c1b63b0	0.009484217
147	0xbdad3a58	-0.08458394
148	0x3e95bc7e	0.2924537
149	0x3d887c4f	0.06664335
150	0xbd7c2450	-0.061558068
151	0xbce7fdac	-0.028319202
152	0x3dbd08d9	0.09230203
153	0x3ed3828e	0.41310543
154	0xbc0fbce8	-0.008773066
155	0x3d605706	0.054770492
156	0x3d63f09e	0.055649392
157	0x3bf15850	0.007365264
158	0xbd475803	-0.04866792
159	0x3dcb17ff	0.09916686
160	0x3dbcd391	0.092200406
161	0xbeb0b875	-0.3451573
162	0x3c50a0b0	0.012733623
163	0xbdb45b43	-0.08806469
164	0xbd886655	-0.06660143
165	0x3c5a7380	0.013333201
166	0x3d84acbb	0.06478258
167	0x3f75b682	0.9598161
168	0xbc898654	-0.016787685
169	0x3dc7851f	0.09742188
170	0x3f0bc951	0.5460406
171	0x3ab37880	0.0013692528
172	0x3d7357ee	0.05941003
173	0xbc201900	-0.009771585
174	0xbd5e73b3	-0.054309558
175	0x3f315672	0.6927253
176	0xbdfc2182	-0.123110786
177	0x3c6bc500	0.01439023
178	0xbcf0ab78	-0.029378638
179	0x3d703972	0.058648534
180	0x3d2083f6	0.039188348
181	0xbdcb2162	-0.09918477
182	0x3dba4eeb	0.09097084
183	0x3d4de2b2	0.05026502
184	0xbd8becac	-0.06832251
185	0x3d461fda	0.04837022
186	0x3d358a8e	0.04432159
187	0x3db40f11	0.08791936
188	0xbd985e33	-0.07439842
189	0x3d954a84	0.07289603
190	0xbd64a24a	-0.055818833
191	0xbc599dd0	-0.013282254
192	0x3db1d26b	0.08682712
193	0xbc7f2cd8	-0.015574656
194	0xbe7bc8f3	-0.24588375
195	0x3d1f9136	0.038956843
196	0xbdc6b0ad	-0.09701667
197	0x3f4d1ba7	0.8012032
198	0x3d940059	0.07226629
199	0xbda45746	-0.080244586
200	0xbdc39bc7	-0.095511965
201	0xbd98c743	-0.07459881
202	0x3da4cca7	0.08046847
203	0x3e0e4b61	0.13895942
204	0xbd5f532a	-0.05452267
205	0xbc2f80e8	-0.010711886
206	0x3d49ace2	0.04923714
207	0xbede338b	-0.433987
208	0xbc3331e8	-0.010937192
209	0xbd65697d	-0.056008805
210	0x3c5ce050	0.013481215
211	0xbd2df6b0	-0.042471588
212	0xbc75a128	-0.014992036
213	0xbdb85107	-0.0899983
214	0xbdc390f3	-0.09549131
215	0xbdbe6e67	-0.09298401
216	0xbda48698	-0.08033484
217	0x3d192f82	0.037398823
218	0x3d5bb8c6	0.05364301
219	0xbb779940	-0.0037780553
220	0x3cf6b8dc	0.030117445
221	0xbd652660	-0.0559448
222	0x3d81516d	0.06314359
223	0x3e7e1865	0.24813993
224	0xbd007330	-0.03135985
225	0x3d9c831d	0.076421954
226	0xbd8fd48d	-0.07022963
227	0x3d688e6a	0.05677644
228	0x3db9e701	0.090772636
229	0xbd613b8a	-0.05498842
230	0xbdc6ec9f	-0.09713101
231	0xbd916505	-0.07099346
232	0x3c84d5a0	0.016215146
233	0x3d9d3b61	0.07677341
234	0xbc5319e8	-0.0128845945
235	0xbc2a4670	-0.01039277
236	0xbdb8a47a	-0.090157464
237	0xbd909f7d	-0.0706167
238	0xbd0e9cc6	-0.03481748
239	0x3ec09132	0.37610775
240	0xbd0600a6	-0.032715462
241	0xbd3e7d15	-0.046506006
242	0x3d520756	0.051276527
243	0xbd5d88b7	-0.05408546
244	0xbd851a96	-0.064992115
245	0x3dc123d3	0.09430661
246	0xbd56117d	-0.052262772
247	0x3d8ef941	0.06981135
248	0x3e3c8704	0.1841088
249	0xbb67ab60	-0.003534995
250	0xbdc33c6d	-0.0953301
251	0xbdbb81f3	-0.09155645
252	0x3d740612	0.0595761
253	0xb943adac	-0.00018661347
254	0x3d3f11ae	0.04664772
255	0xbd36178a	-0.044456042

_middle_linear.bias f4 [20]
0	0xbd3273b8	-0.04356739
1	0x3e22ee76	0.15911278
2	0xbe01eb19	-0.12687339
3	0x3dfacc0d	0.12245951
4	0xbb1bdbcc	-0.0023782132
5	0x3de0163a	0.109417394
6	0x3e7e5c98	0.24840009
7	0x3dd0f5a7	0.102031045
8	0x3e6323e7	0.22181664
9	0xbbc28554	-0.005936304
10	0x3ddc2365	0.107489385
11	0x3d693da1	0.05694354
12	0x3d931375	0.071814455
13	0xbd90c33d	-0.07068489
14	0x3d96d77d	0.0736532
15	0x3df1dc9e	0.118096575
16	0xbc8ea20c	-0.017411254
17	0x3dbe9af0	0.09306896
18	0x3dfdf562	0.12400319
19	0x3c62048d	0.01379503

_output_linear.weight f4 [6, 20]
0	0xbe1ae555	-0.15126546
1	0xbd6f091d	-0.0583583
2	0x3e0654f7	0.13118349
3	0xbe098af3	-0.13431911
4	0xbe3df9a9	-0.18552269
5	0x3db00110	0.08593953
6	0xbf16f15e	-0.5896205
7	0xbe80142c	-0.2501539
8	0x3ecffc7e	0.40622324
9	0xbd4d7c4c	-0.050167367
10	0xbe00451e	-0.12526366
11	0x3e8a5344	0.27016652
12	0x3e7fbc3a	0.24974146
13	0x3eb1e017	0.3474128
14	0xbdfa1279	-0.12210555
15	0x3ebe332c	0.37148416
16	0xbd4f8dc7	-0.05067232
17	0x3ce25d22	0.0276323
18	0xbd7c8c7d	-0.061657418
19	0x3de6e642	0.11274387
20	0x3d9e97c1	0.077437885
21	0x3e064947	0.1311389
22	0x3e5ed393	0.21760397
23	0xbe92480b	-0.2857059
24	0xbddc543b	-0.10758253
25	0xbd5dd0f7	-0.054154363
26	0xbdef02f1	-0.11670483
27	0xbd0748b8	-0.033028334
28	0xbea08556	-0.31351727
29	0x3c84255c	0.016131096
30	0x3d81d3a4	0.06339195
31	0x3e8cb721	0.27483466
32	0x3e01d7e1	0.12680008
33	0xbdfe16cf	-0.12406694
34	0x3e0cd7f2	0.13754252
35	0xbe86fd10	-0.26364946
36	0x3df4900a	0.11941536
37	0xbe0efa9e	-0.1396279
38	0xbdc715da	-0.09720965
39	0xbe07f023	-0.13275199
40	0x3c819992	0.015820298
41	0x3d97dd4d	0.07415257
42	0x3dd651b5	0.10464803
43	0x3db76a8f	0.08955871
44	0xbd03b11d	-0.03215133
45	0xbebc9f16	-0.36840123
46	0xbdd03226	-0.10165815
47	0x3e317fec	0.17333955
48	0xbd2488a4	-0.040169373
49	0xbea6a770	-0.3254962
50	0x3e493b88	0.19651616
51	0x3d8cdbd5	0.06877867
52	0x3e8ccd31	0.275003
53	0x3de6616e	0.11249052
54	0xbd467a3e	-0.048456423
55	0xbdc203f9	-0.09473414
56	0x3d0c2cb7	0.03422233
57	0xbe18d6c6	-0.1492568
58	0x3db3fb4e	0.08788167
59	0x3e375759	0.17904414
60	0xbeb56568	-0.3542893
61	0x3dd306a6	0.103040025
62	0xbe30f13a	-0.1727952
63	0xbd3e13aa	-0.04640547
64	0xbe1714a6	-0.1475397
65	0xbbabfc69	-0.0052485955
66	0x3d38636e	0.0450167
67	0x3d95635c	0.07294342
68	0x3e1d9e69	0.1539246
69	0x3ea4812b	0.32129797
70	0xbe5fafbe	-0.21844384
71	0x3e202d7b	0.1564235
72	0xbe438f87	-0.1909772
73	0x3de494fe	0.111612305
74	0xbd8c00a0	-0.06836057
75	0xbe1c06b5	-0.15236934
76	0xbdfe595b	-0.12419387
77	0xbe8d4df1	-0.27598527
78	0x3ee65629	0.4498761
79	0x3de22054	0.11041322
80	0xbd7b28ca	-0.061318196
81	0xbbd38fb1	-0.0064563383
82	0xbe085269	-0.13312687
83	0xbeea44c6	-0.45755595
84	0x3ec3aefb	0.38219437
85	0x3e0298ad	0.12753554
86	0x3c7e5c7a	0.015524978
87	0x3e903797	0.28167412
88	0xbe3d8743	-0.1850863
89	0xbe85a453	-0.26101932
90	0xbdd04be2	-0.101707235
91	0xbeb1d0f0	-0.3472972
92	0x3e7b6629	0.2455069
93	0x3e7d3fef	0.2473142
94	0x3e594dfe	0.21221158
95	0x3ea39df6	0.31956452
96	0x3e70aa4e	0.23502466
97	0xbe3223f3	-0.17396526
98	0x3e4efd77	0.20213877
99	0x3e340107	0.17578517
100	0xbc6ec3a4	-0.014573012
101	0x3ee4dd45	0.44700065
102	0xbcc1d8b2	-0.023662899
103	0xbc958386	-0.018251192
104	0x3df5afae	0.11996399
105	0xbe60630d	-0.21912785
106	0xb9cd775f	-0.00039189585
107	0xbebae104	-0.36499798
108	0xbe2be161	-0.16785194
109	0xbd8b3678	-0.067974985
110	0xbe983439	-0.29727343
111	0xbe858df4	-0.26084864
112	0x3d9e5a5e	0.0773208
113	0x3d374374	0.044742063
114	0xbee1c488	-0.44095254
115	0x3df43b6a	0.11925395
116	0x3ea04cb1	0.3130851
117	0x3edabfc9	0.42724445
118	0xbdcd3f9e	-0.100219
119	0x3d1ac790	0.037787974

_output_linear.bias f4 [6]
0	0x3e9de70d	0.3084034
1	0xbe1b3807	-0.15158091
2	0xbcdee2cc	-0.027207755
3	0x3da4fbfa	0.08055873
4	0xbcf1dbd1	-0.029523762
5	0x3ca5e552	0.02025095
