test_Controller.pt (torch_old, 661157 bytes, 6 tensors)

_input_linear.weight f4 [400, 5]
00000000: e224 e03d c000 e93c 56b0 cf3c 403e 85bb
00000010: 94fe 71bd 09ed 7c39 2255 9f37 fa57 63b9
00000020: 4631 cdb9 3a25 8ab8 b62e ceb5 9dc9 adb5
00000030: a1ee 3bb5 5803 0cb6 433b aa36 0a3a edb0
00000040: 7d54 6931 3f4c 9231 0b7e 97b0 0876 1c31
00000050: f680 c1bd 4762 0cbe 0a82 abbc b76e aa3c
00000060: b825 04be cc05 4031 b233 0c31 3910 44b1
00000070: 1064 baae 3e17 a630 4119 0930 9ee8 29af
00000080: 3289 9baf 96eb a32f 228d a9af b62f 08ae
00000090: ae63 a12f cb26 a6af 9ba4 96af 2d55 ee2f
000000a0: 72e9 8935 1f7d e8b5 a4e8 5db5 48c8 bb35
000000b0: 4205 f435 ede8 e2b1 12bc 45b2 1c32 ad31
000000c0: d52a 6732 f7ff 1db3 6df5 5b3f eb03 4b3f
000000d0: 94d4 9d3f b98c a23f d33f 20bf beb6 413a
000000e0: e852 8bb8 b696 bcb9 61b0 05bb 034d 473b
000000f0: a564 7eb2 e22e 4f32 ff69 acb2 a64b be30
00000100: 2374 64b3 89dc 0031 9d65 f4b0 a0cb c1b0
00000110: 329b 0631 60df e0af 7257 9fb1 ee79 dcb0
00000120: 2a05 0fb0 28d0 8eb1 a994 1b32 733a 5eb2
00000130: a83a 5d32 c050 2a31 62aa 95b1 ffaa 9032
00000140: 6deb e138 c096 9bb9 929c 7c37 3ca5 f4b8
00000150: 51d7 07b9 94eb 83b2 07f8 0cb2 48c0 7c2f
00000160: f859 64af f6cb 5532 5904 18b8 8db3 08b8
00000170: b5a1 77b7 57e3 c138 1bfe 47b8 e22b 37b2
00000180: cca2 fc33 fea6 0db3 fbca 38b2 68a1 dbb3
00000190: f67c 67bf 9333 63bf 8593 b6bf 99b3 78be
000001a0: c1c0 b53d 8a9f f43a 36aa 87bd f98f a23d
000001b0: d0ae c9bf a4b6 52bf 9ffe 9ab2 90e4 84b2
000001c0: d219 ccb0 b03d 73af de88 2132 b877 1caf
000001d0: f82f 04af 9c31 802d 1813 42ad d224 202f
000001e0: 7f45 1a3f 109a 283f 1918 dabf 78ec c33f
000001f0: 8b75 65bc a343 1030 f51a bbb0 9044 0db0
00000200: 97a1 2830 7976 75b0 8a5f 8a32 890a 2532
00000210: c035 182f 588f ff31 1569 0db3 4310 b5b0
00000220: d0a3 fb30 623f a42e d05e 0fb1 32e6 41b0
00000230: c4af e7af 9cc0 1e31 93f6 a632 d5b8 31b2
00000240: cdb8 fdb0 4c02 1239 e2d8 3e3a 11f3 843c
00000250: bee5 e5bb 00ec a2bc 298d c8b3 796d 70b3
00000260: fcf1 ba31 9e2d 99b3 fe3c 4934 d59b d3bc
00000270: 49ab 88bc 36f4 0bbc 6a17 7cbc ad82 2c3d
00000280: 3e66 0530 3fbe da30 55f8 c4af f4ea 0bb0
00000290: 90e1 ca2e 4854 e9b4 69b8 9b33 b49a 8d32
000002a0: ed5e 5d33 febc 71b3 7f75 44bf 5641 3fbf
000002b0: 8224 b5bf ff0c dbbf a8ca adba 6b1a f23c
000002c0: d2fd 17be 25c4 2bbd 5a22 663f 5afe b03e
000002d0: f049 432e 370a 0a2e c4bd 6a2d 5c3c 152c
000002e0: 629b 95ae 20b2 a531 d08b 6e33 1b85 5234
000002f0: 49fc 69b4 e679 0cb4 e6df 12af 6940 8faf
00000300: fdd5 52ae f635 b92d 9004 9a2f 8f74 6db3
00000310: 876a 5eb3 5c8b 2732 6087 2731 d943 0d34
00000320: c74c 7dbf 68cf 73bf 9351 6d3e 028b 9a3f
00000330: 7c44 fc3c 99b7 db2f 3d47 dfae ec15 be2f
00000340: 6cc4 13af e95b b8af da81 28b0 d262 19ae
00000350: 3593 3130 c208 4baf 5c34 fa2f faf1 c030
00000360: a230 53b0 4732 382f 0523 b230 60ee 43ad
00000370: da7c d7b4 0369 d834 19de 2b35 00b2 d931
00000380: 7808 c7b4 e245 fbb3 c390 3133 6b56 99b3
00000390: 4f53 1d34 961b c4b2 e854 5f3d 8ec8 743c
000003a0: 981d d2bc 84d4 c5bd ab3d b03d 8afb 16bb
000003b0: e974 223b 0659 f739 d559 e2ba b03a b9b9
000003c0: fe14 81b5 ea0b 3134 85b6 38b4 a451 3434
000003d0: 7056 8bb5 94fe 4e30 5ba3 3caf 901a 95ae
000003e0: c8ad 772f 968d d0af 2671 87ae 7f51 fc2f
000003f0: 2780 7baf 4802 b9af 9592 4330 5969 7034
0.10944535 0.02844274 0.025352638 -0.0040662587 -0.059080675 0.00024120895 1.899392e-05 -0.00021681181
-0.00039137359 -6.587287e-05 -1.5361791e-06 -1.2948182e-06 -7.001018e-07 -2.0863572e-06 5.073294e-06 -1.7260515e-09
3.3953989e-09 4.2578274e-09 -1.102252e-09 2.276808e-09 -0.094484255 -0.13709365 -0.02093603 0.020804746
-0.12905014 2.7942972e-09 2.0402067e-09 -2.8530975e-09 -8.4760754e-11 1.2084695e-09 4.98762e-10 -1.5453103e-10
-2.829182e-10 2.981692e-10 -3.0841202e-10 -3.0965196e-11 2.9356556e-10 -3.0222788e-10 -2.74018e-10 4.335247e-10
1.0275237e-06 -1.7321762e-06 -8.266745e-07 1.3990875e-06 1.8180947e-06 -6.6039463e-09 -1.1509671e-08 5.0406594e-09
1.34557085e-08 -3.678721e-08 0.85921365 0.79302853 1.2330499 1.2699195 -0.6259739 0.00073895964
-6.643479e-05 -0.00035970443 -0.002039932 0.0030410893 -1.480763e-08 1.2059646e-08 -2.0071637e-08 1.384582e-09
-5.3191012e-08 1.8751811e-09 -1.7782217e-09 -1.4100472e-09 1.9587785e-09 -4.090408e-10 -4.6374504e-09 -1.6041761e-09
-5.2030436e-10 -4.1564086e-09 9.055989e-09 -1.29353905e-08 1.287723e-08 2.4784157e-09 -4.355841e-09 1.6841566e-08
0.000107726875 -0.0002967622 1.5056825e-05 -0.00011665604 -0.00012954815 -1.5357536e-08 -8.205467e-09 2.2987579e-10
-2.0768443e-10 1.2444607e-08 -3.6243673e-05 -3.2592146e-05 -1.4759998e-05 9.2453025e-05 -4.768195e-05 -1.066198e-08
1.1764277e-07 -3.2981e-08 -1.0756362e-08 -1.0227342e-07 -0.9042505 -0.8875057 -1.4263769 -0.24287261
0.088746555 0.0018663269 -0.06624262 0.07937617 -1.5756474 -0.8230994 -1.8043748e-08 -1.547076e-08
-1.4850292e-09 -2.2122637e-10 9.402553e-09 -1.423065e-10 -1.2022372e-10 1.4573946e-11 -1.1031863e-11 1.4564996e-10
0.6026229 0.6586008 -1.7038604 1.530654 -0.014005075 5.248301e-10 -1.3613702e-09 -5.1392934e-10
6.1347677e-10 -8.929884e-10 1.610876e-08 9.6066595e-09 1.3843415e-10 7.437773e-09 -3.2924692e-08 -1.3174105e-09
1.8309212e-09 7.4691156e-11 -2.0863133e-09 -7.054012e-10 -4.2143544e-10 2.3101512e-09 1.9437072e-08 -1.0344782e-08
-1.8460696e-09 0.000139245 0.0007280243 0.016229184 -0.007015913 -0.019887924 -9.3389026e-08 -5.597892e-08
5.440823e-09 -7.1329154e-08 1.8741773e-07 -0.025831142 -0.016683238 -0.008542111 -0.015386442 0.04211681
4.8530413e-10 1.5915659e-09 -3.5828643e-10 -5.0901794e-10 9.2259644e-11 -4.3460955e-07 7.251294e-08 1.6484911e-08
5.1541907e-08 -5.6284073e-08 -0.76741785 -0.7470907 -1.4151766 -1.7113341 -0.0013259249 0.029553613
-0.14842919 -0.041935105 0.89896166 0.34569055 4.4403536e-11 3.138664e-11 1.33434964e-11 2.120768e-12
-6.803337e-11 4.8223825e-09 5.5540852e-08 1.9606198e-07 -2.1791597e-07 -1.3082862e-07 -1.3358167e-10 -2.6057315e-10
-4.793853e-11 2.1056028e-11 2.801568e-10 -5.5286872e-08 -5.178529e-08 9.752366e-09 2.437865e-09 1.3156331e-07
-0.9894528 -0.9523835 0.2317565 1.2073672 0.030794375 3.9966322e-10 -1.01535204e-10 3.4576375e-10
-1.3439355e-10 -3.353471e-10 -6.1302574e-10 -3.4875942e-11 6.460142e-10 -1.8465854e-10 4.551194e-10 1.4038612e-09
-7.6830464e-10 1.6752565e-10 1.2961158e-09 -1.11373966e-11 -4.0137712e-07 4.030954e-07 6.402566e-07 6.3357675e-09
-3.70728e-07 -1.170081e-07 4.1342684e-08 -7.140337e-08 1.4652072e-07 -2.2829948e-08 0.054524332 0.014940394
-0.025648877 -0.09659675 0.08605512 -0.0023038113 0.0024788922 0.0004717784 -0.0017269204 -0.00035329675
-9.617359e-07 1.6488744e-07 -1.7202736e-07 1.6793507e-07 -1.0381464e-06 7.530414e-10 -1.7156536e-10 -6.780454e-11
2.2526259e-10 -3.7935582e-10 -6.1591884e-11 4.589644e-10 -2.2873846e-10 -3.3652925e-10 7.114889e-10 2.2390067e-07

_input_linear.bias f4 [400]
00000000: 2009 3f3d 4806 75b7 dd59 2836 e1e9 28b1
00000010: 5cb2 e0bd b6ef 8d31 9174 0930 22a5 b4ae
00000020: d3e8 7935 5ac3 abb1 f43b e63e b321 3d3b
00000030: 09ae c2b2 3671 0931 66a9 0231 1b09 24b2
00000040: 3e26 c838 754a 9c31 b95d ffb8 e6e7 b733
00000050: 330a 1c3f df60 3c3f 77fe 31b2 7fdf e5ad
00000060: 0b56 97be 62e3 8330 567c 8a32 18ab 28b1
00000070: 4c92 3930 574c a43c 5a34 2a33 9c4a 7b3c
00000080: 3e9b 102e c9d0 d2b2 e884 d63f ae72 37bf
00000090: 9cbf 40ad c93c 17b4 22af cc2e d932 2f33
000000a0: 88ee 0cbe 00e4 712f 596d 07b0 35cb cd30
000000b0: 0cf2 5935 22ca 12b4 1a97 7a3d 19ad 8cbb
000000c0: 8c14 1eb5 1da4 8030 6722 9cae ac30 1f34
000000d0: e51b 24b0 6c44 662e d7fd 3b3c d7a2 263e
000000e0: 085f 4c32 b32f 87b0 fa93 ceb0 20e7 b6bd
000000f0: 5775 142e 78ec 62b3 024b 0332 550b 7fba
00000100: ff5c d62b 3cc1 2eb5 c082 06c0 6503 f2be
00000110: 1cf2 86b4 5c87 6e33 f5a9 00bc d8a5 13b1
00000120: 3058 dab1 445b bf31 86e8 f93e d35a 5137
00000130: 0446 542d 3cea 433a 0245 7cb1 d04d d13e
00000140: aa5f b33b 7222 5632 afa5 d231 c895 a0ad
00000150: 5671 7d31 9c74 7b2e 6522 7b3d 8792 88af
00000160: 1992 2ab4 0d0a 4231 43cc 7533 e201 b135
00000170: 6a13 9b36 ffd4 c9bd 7457 07b3 63ee ac2f
00000180: a8ab 50bd 4b73 ffb0 e0e1 663d 38d1 57bc
00000190: 7eab 0fbf 5a88 bf31 a081 0ab9 d4a1 2739
000001a0: d2ad 1633 bc7f 73b1 0257 b4bc 6856 15b0
000001b0: 1d8c 5fb4 b74f 412e f81c b931 6c91 76b7
000001c0: b6e0 b6b4 ee40 f63b 404f 96b0 b7f2 8739
000001d0: 65ac feaf c2b2 8b3f ff18 66af f825 c432
000001e0: e40b b230 ef9f c1af 0796 55b5 f7b0 b8af
000001f0: 9c0e fd3a 6810 3fbb 94d1 8cb3 8efd 0630
00000200: 39c0 28af 4109 1bb3 fd4e 8e31 7271 1fb8
00000210: d68b 81b8 2aa3 e0b2 f59d 27af ad9e 0bb3
00000220: 5a1f d3b1 3a56 8933 49d9 763d a452 91b1
00000230: 86aa 652d c3d9 3b3f e740 2e2f a92d fa32
00000240: 87f1 f033 b558 4b32 3d94 b42e 2ad3 f639
00000250: 3b07 a03b 5804 8db5 44e2 7d31 7b63 3f31
00000260: 17ef b334 be87 1f32 0453 1f34 c6f5 dab0
00000270: 3c1d 4334 a7c5 65b2 1e09 472f 78bb 783f
00000280: 2ad8 d1ae 56ac 9031 91ea f538 f986 50b2
00000290: 968a 852f b10a 04b2 4456 bfb6 2963 1633
000002a0: 98ad 82ae b820 af2b 6f76 eeaf 84b0 c93b
000002b0: ef6a 03bc fcbf 6c31 40c1 eb31 06a0 70b0
000002c0: 8f14 1f31 1548 50bf ed36 9abc 8659 ae30
000002d0: f811 fe32 149d a332 eb05 992e 56fa 9dbf
000002e0: a88a 31bb 9cef 0930 a3d3 513c 0a83 0c31
000002f0: 2529 b7b0 c57c 07bd c845 6e3a 33d3 40bc
00000300: 1c58 0bbb 3174 21b0 274d 05af b47f 333c
00000310: 5370 6d30 86e8 f8b6 a001 2e3d 355f a0ad
00000320: 265f b430 1edc 07ae b9e0 92bc 1244 11b1
00000330: a16e e3ae b540 d332 62d8 a931 ec0e edb3
00000340: 389c debb b6db de38 0b83 34bd e0f8 f7b2
00000350: c923 833b ae08 7e33 41db 20bd 6d55 fc34
00000360: 5f99 7bae 82bf f735 e0e7 66b1 91df 4bbc
00000370: 7043 4e30 09a6 4ab8 88ef f73d 18f5 b1ae
00000380: 8e7a ee30 bd17 b130 72ed b7bc 8281 9f3a
00000390: d9af 5530 1c1a 05b0 2a76 9d35 69c2 6cb2
000003a0: d992 1031 30d2 0535 8a83 2e30 c009 93b0
000003b0: de64 1fb1 3068 a72d 583c 2a3c ce9a a22e
000003c0: 4569 4732 4da4 39bc a15e 653f 3ad3 f7b6
000003d0: 6a49 b6ba c076 d42d c00e f9b0 667f 4b32
000003e0: 0c1c a8b1 8087 3eb0 2957 81b7 14b7 c2af
000003f0: 3150 fa30 925b 192d 2d61 01b4 6258 a03d
0.04663956 -1.46046e-05 2.5086258e-06 -2.4580162e-09 -0.10971519 4.130892e-09 5.000596e-10 -8.214786e-11
9.309853e-07 -4.998964e-09 0.44967616 0.0028859198 -2.2663714e-08 2.0000477e-09 1.9013782e-09 -9.548127e-09
9.543866e-05 4.5486623e-09 -0.00012176805 8.5637836e-08 0.6095306 0.73585314 -1.0360615e-08 -2.6133538e-11
-0.29557833 9.596131e-10 1.6121856e-08 -2.4544473e-09 6.751051e-10 0.020055933 3.9628823e-08 0.0153376125
3.2879692e-11 -2.4542162e-08 1.675931 -0.7165936 -1.0956482e-11 -1.4085084e-07 9.307956e-11 4.079161e-08
-0.13762867 2.1999824e-10 -4.9268106e-10 1.4973468e-09 8.1191024e-07 -1.3670845e-07 0.061179258 -0.004293096
-5.8889486e-07 9.35987e-10 -7.10017e-11 1.4825736e-07 -5.9702493e-10 5.2356716e-11 0.011474094 0.16273056
1.189597e-08 -9.8361e-10 -1.503053e-09 -0.08930802 3.3755523e-11 -5.2834793e-08 7.642258e-09 -0.00097291666
1.5231426e-12 -6.5101244e-07 -2.1017303 -0.47268215 -2.5135603e-07 5.5536802e-08 -0.007853021 -2.1485587e-09
-6.354661e-09 5.5692073e-09 0.48810214 1.2478517e-05 1.2066351e-11 0.00074735633 -3.6710053e-09 0.4087968
0.0054740505 1.2464271e-08 6.1306404e-09 -1.825641e-11 3.688077e-09 5.7174362e-11 0.061312098 -2.484237e-10
-1.5885634e-07 2.8236429e-09 5.7229283e-08 1.3188076e-06 4.62162e-06 -0.09855079 -3.1511675e-08 3.1456002e-10
-0.050944954 -1.858646e-09 0.056367755 -0.01317244 -0.5612105 5.574333e-09 -0.00013208995 0.00015986647
3.5082685e-08 -3.5433763e-09 -0.022014145 -5.4328675e-10 -2.0819466e-07 4.395392e-11 5.387502e-09 -1.4696601e-05
-3.406364e-07 0.0075150644 -1.0936461e-09 0.00025930043 -4.6324825e-10 1.0913928 -2.0927259e-10 2.283467e-08
1.2954584e-09 -3.5220135e-10 -7.9567e-07 -3.3595146e-10 0.0019306722 -0.0029154066 -6.55738e-08 4.910924e-10
-1.5347802e-10 -3.6097166e-08 4.141724e-09 -3.801421e-05 -6.177246e-05 -2.615123e-08 -1.5244679e-10 -3.2507774e-08
-6.1444725e-09 6.395244e-08 0.060265813 -4.2294506e-09 1.3055007e-11 0.73379153 1.5848266e-10 2.9124594e-08
1.12198045e-07 1.1836325e-08 8.211785e-11 0.00047078106 0.0048836744 -1.0506583e-06 3.6944963e-09 2.7850706e-09
3.351531e-07 9.285882e-09 1.483823e-07 -1.5931441e-09 1.8171426e-07 -1.3374495e-08 1.8102184e-10 0.97161055
-9.542618e-11 4.210544e-09 0.00011726202 -1.2137883e-08 2.429103e-10 -7.685842e-09 -5.702286e-06 3.5014782e-08
-5.942552e-11 1.2443579e-12 -4.33761e-10 0.0061550755 -0.0080211 3.445165e-09 6.86137e-09 -8.75389e-10
2.3149231e-09 -0.8135999 -0.018825019 1.268561e-09 2.9577663e-08 1.9047128e-08 6.958686e-11 -1.2342021
-0.0027090702 5.0180815e-10 0.012806806 2.0447168e-09 -1.3326696e-09 -0.033077974 0.00090893777 -0.011769104
-0.0021262234 -5.8736577e-10 -1.212369e-10 0.01095574 8.637972e-10 -7.4180452e-06 0.04248202 -1.8232174e-11
1.3123767e-09 -3.089095e-11 -0.017929422 -2.113897e-09 -1.03424165e-10 2.4593058e-08 4.9431472e-09 -1.1038887e-07
-0.006793525 0.00010626709 -0.044070285 -2.886776e-08 0.0040020687 5.9146878e-08 -0.039271597 4.7000813e-07
-5.7207013e-11 1.845867e-06 -3.360121e-09 -0.012443439 7.50382e-10 -4.8315185e-05 0.12106234 -8.0925655e-11
1.7351611e-09 1.2885192e-09 -0.02245209 0.0012169334 7.7738843e-10 -4.842222e-10 1.1731802e-06 -1.3781212e-08
2.1038231e-09 4.9852224e-07 6.348776e-10 -1.0698429e-09 -2.3194882e-09 1.903197e-11 0.010390364 7.394406e-11
1.160726e-08 -0.011330676 0.8959752 -7.3857636e-06 -0.0013907377 2.4154345e-11 -1.8121327e-09 1.1845122e-08
-4.892632e-09 -6.9314154e-10 -1.5418585e-05 -3.541848e-10 1.8212686e-09 8.717376e-12 -1.2049414e-07 0.07829358

_middle_linear.weight f4 [400, 400]
00000000: 1848 5abc ba55 b03c 802d ea3b 356e 173d
00000010: 9e58 1dbd c163 033d 61ee 163d f73a b8bc
00000020: 65f5 15bd 5429 16bc 69a7 463d ecee 1abc
00000030: fa31 b2bc 48e2 0a3c f060 ebbc 120a b03c
00000040: 3274 903c 4095 baba b383 b7bc b44a 61bc
00000050: 01d0 203d c85f 65bc d4c2 183c 2732 c0bc
00000060: fd7b 36bd d011 8abc 24c2 8dbc b87e 04bc
00000070: 9aac a53c 1ab6 d6bc b948 393d 9886 b93b
00000080: c98a 263d 78f9 1bbd 5dfb 25bd a205 b53c
00000090: b021 bf3b 7bf8 20bd 1438 47bc 5bc2 0f3d
000000a0: 4055 95ba 2226 8a3c 5602 eb3c 59a7 223d
000000b0: 8076 3e3b bc3e 5d3c a021 9aba b8e3 43bd
000000c0: 7287 4cbd 995d 163d 5a61 c73c d0e5 92bb
000000d0: 6042 6fbc 4273 db3c 7deb 183d 3a4e 88bc
000000e0: 165c 0ebd 9c53 89bc 7839 10bc 669d 1bbd
000000f0: e070 553b a654 8d3c 536a 293d d7a7 413d
00000100: f8ee 17bc d8e2 70bc 80f9 373a fe09 b93c
00000110: a8dc 18bc 77d8 493d 94b2 5dbc b31d 2cbd
00000120: 60a9 e4ba c089 30bd f7fe 493d fc28 5a3c
00000130: e095 0fbd 8059 1c3a ca7b 1fbd c2e5 b63c
00000140: 3886 53bc b14c 013d ea6e 92bc b660 903c
00000150: 4035 9bbc d03f ec3b 9e7d d63c fb0c 2abd
00000160: d5ca 133d 53a7 febc 6ab3 0ebd ae6d 20bd
00000170: 298a 3c3d 2994 173d 6878 46bd bf62 393d
00000180: 4a5b 983c bf6c 043d e972 083d c0b6 13ba
00000190: f292 d23c 81e0 213d 29a8 2c3d 6b86 1b3d
000001a0: aa48 37bd 067a f93c 7651 d93c d048 bbbc
000001b0: b3d3 42bd 7936 2e3d 145c 723c 9023 08bd
000001c0: 6824 01bc 54c7 443c 709e aa3b 9c5d 693c
000001d0: cddb 3a3d fd2a 05bd d8dd 37bc 5243 b63c
000001e0: 6012 e03a 7824 44bc 13f7 fabc a3b1 abbc
000001f0: 2a4f 98bc 564d 8dbc 1468 043c 9151 203d
00000200: 103a d9bc 993f 003d 50b6 cc3b d8ce a9bb
00000210: 74dc 7bbc 77e4 d0bc f04d 4bbd f1c7 023d
00000220: 0686 c33c d65b ce3c b751 1a3d a849 20bc
00000230: 806d 063a c009 023c eb88 063d c821 26bd
00000240: ebf2 46bd 501e f3bc 1f3a 493d 9066 c4bb
00000250: 0aee acbc 802c 2e3b 0802 6abc 8c06 3abc
00000260: 1d5b 3f3d c910 373d b068 0d3b d1c2 043d
00000270: 509a 6a3b 5376 47bd ce8a 2cbd ceb4 1dbd
00000280: ecd0 4c3c 9d34 f1bc 7822 163c e875 bbbb
00000290: c0f1 f1bc fc5b 723c acb7 6b3c 7e3f dc3c
000002a0: 0962 1f3d adf7 02bd c886 73bc 99cc 0a3d
000002b0: 9aa3 07bd 4c5d 01bc c7ab 35bd 48b7 18bd
000002c0: 80ba a2b9 2225 10bd 82a1 eb3c 4051 833b
000002d0: f093 febc c0e3 cc3b ec0c 00bc 9e2c 23bd
000002e0: 8e8f 17bd db70 43bd 9014 d9bb 4e50 db3c
000002f0: de97 11bd 3fef 423d 301c f3bc c865 4dbc
00000300: a044 4ebb c0e3 f5bb bd7a ffbc ca03 05bd
00000310: 20b8 20bd 7683 ba3c a635 d53c 3058 ed3b
00000320: ac83 103c 80d9 b0b9 3dba b0bc 89da 263d
00000330: 107d edbb fb17 2a3d 5049 b1bc 353f 0dbd
00000340: e0dc 60bb bae9 cb3c 00b8 48b9 2d28 183d
00000350: d5c1 0fbd 26f7 c23c a09c 433c 1d90 bebc
00000360: 721f f53c 6db8 2dbd aad1 bb3c 94ed 443c
00000370: 0516 243d 1089 87bb 7455 123c b6e1 11bd
00000380: 1029 9cbc 8440 5d3c 80d0 e6bb f411 3fbc
00000390: de01 eb3c e103 1b3d 98b1 31bc 76f6 ac3c
000003a0: 76ef 2bbd f6eb e13c 804d 9439 b041 f03b
000003b0: 1052 dc3b e16d 043d e7af 2c3d 405d 71ba
000003c0: b05a e3bc 580d 23bd 387f 0bbd a2c8 c13c
000003d0: 0081 66bb 00a2 c23a 20b5 5ebc a1d2 283d
000003e0: 315e 373d 4eaf e53c 5243 af3c 52bd 883c
000003f0: 03e3 003d 10d1 98bb 4645 99bc 7e6d b03c
-0.013322853 0.021525253 0.0071465373 0.036970336 -0.03841459 0.032077555 0.03684843 -0.022489054
-0.03661098 -0.009165127 0.0484995 -0.0094563775 -0.021752346 0.008476801 -0.028732747 0.021489177
0.017633531 -0.0014235154 -0.022401666 -0.013750721 0.039260868 -0.013999887 0.009323794 -0.023461415
-0.04455184 -0.016854197 -0.017304488 -0.008086853 0.020223904 -0.02620988 0.04523537 0.005661797
0.0406597 -0.03807971 -0.04052292 0.022097412 0.0058328733 -0.03929947 -0.012159366 0.03509746
-0.0011393204 0.016863886 0.028687637 0.039710376 0.002906233 0.013503727 -0.0011759289 -0.04782459
-0.04993386 0.036710355 0.024338413 -0.004482962 -0.014603227 0.026788358 0.037333954 -0.016638864
-0.03475579 -0.0167635 -0.008802764 -0.037991904 0.00325685 0.017252278 0.041361164 0.047279205
-0.009273283 -0.014702521 0.00070180744 0.022587772 -0.009329952 0.049278703 -0.013531346 -0.04202051
-0.0017445497 -0.04310012 0.04931542 0.0133154355 -0.03505504 0.0005964264 -0.038936414 0.022326354
-0.012910418 0.03156728 -0.017875154 0.01762424 -0.01894629 0.0072097555 0.026182946 -0.041516285
0.036082108 -0.031085646 -0.03483907 -0.0391671 0.046030197 0.03700653 -0.048454672 0.045260187
0.018598218 0.03233027 0.033312712 -0.0005634837 0.025704835 0.039520744 0.042152558 0.037969988
-0.044747032 0.030453693 0.026528101 -0.022861868 -0.047565173 0.042532418 0.014792461 -0.03323704
-0.007882215 0.012010414 0.0052068755 0.01424351 0.045619775 -0.0325117 -0.011222325 0.022248898
0.001709532 -0.011971585 -0.030635392 -0.020958727 -0.018592436 -0.01724879 0.008081455 0.039140288
-0.026516944 0.03131065 0.0062473193 -0.0051821284 -0.015372384 -0.025499566 -0.049634874 0.03192896
0.023867618 0.025190275 0.037675586 -0.009783186 0.0005128011 0.007936895 0.03284542 -0.04055956
-0.04857151 -0.02967754 0.049127694 -0.0059936717 -0.0211096 0.0026576817 -0.014282711 -0.0113541
0.04671775 0.044693742 0.0021577291 0.032412354 0.0035797544 -0.048696827 -0.042124562 -0.038502507
0.012500983 -0.029444033 0.009163491 -0.0057208426 -0.02953422 0.014792439 0.0143870525 0.026885744
0.038911853 -0.031974483 -0.014863677 0.033886526 -0.033115007 -0.007895779 -0.044353273 -0.037284166
-0.00031038 -0.035191663 0.028763536 0.0040074885 -0.031076401 0.006252736 -0.007815581 -0.039837472
-0.03700214 -0.04771505 -0.0066247657 0.02677169 -0.035545222 0.047591444 -0.029676527 -0.012536474
-0.003147401 -0.0075039566 -0.031186456 -0.032474317 -0.039238095 0.022767764 0.026026558 0.007243179
0.0088204555 -0.00033731386 -0.02157318 0.040735755 -0.0072475746 0.041526776 -0.021641403 -0.034484107
-0.003431134 0.024891723 -0.00019142032 0.03714769 -0.035096962 0.02379949 0.011939198 -0.023262078
0.02992222 -0.04241221 0.022927124 0.012019534 0.040060062 -0.004136212 0.008931506 -0.035615645
-0.019062549 0.013504151 -0.007043898 -0.011661995 0.028687414 0.037845496 -0.010845564 0.021113615
-0.041976415 0.027578335 0.00028286502 0.0073320493 0.00672365 0.03233135 0.04215994 -0.0009207316
-0.027753204 -0.039807647 -0.034056872 0.02365524 -0.0035172105 0.0014849305 -0.013592988 0.041216496
0.044767562 0.028037693 0.021394406 0.016691837 0.031466495 -0.004663594 -0.01870979 0.021536585

_middle_linear.bias f4 [400]
00000000: 16a1 e03c 6aba d23c 4af2 b0bc 36ff 86bc
00000010: 42f5 af3c 78c2 26bd 73f9 10bd 6a44 b0bc
00000020: a8da abbb f093 cebc ac67 8cbc 2c4b 123c
00000030: 4c27 13bc b6cd 86bc 8a06 833c aaa7 a7bc
00000040: 2a2b 8bbc e733 f6bc ed1e 433d 60c9 a93a
00000050: fa65 43bd 36c9 c13c 6f5d 403d 5db2 aabc
00000060: 4d51 c5bc 15c2 1bbd 902b fd3b 0ea7 1cbd
00000070: 5bea 31bd 64fe 86bc e8c9 73bc e290 a23c
00000080: d837 45bd e677 b53c 80ed 0f3c 543d 133c
00000090: 2320 263d c94b 003d 8500 413d 9477 343c
000000a0: 8771 abbc 903f 04bd 05be 143d a7b1 2b3d
000000b0: ae05 1bbd 6a0b 953c 5bb4 223d 9450 53bc
000000c0: d43c 8fbc 7282 34bd 6c31 8cbc b3d9 adbc
000000d0: f19c 003d 8219 e93c 3883 28bc c676 913c
000000e0: 5529 1c3d 64f2 603c 33fd 013d 6a3d cc3c
000000f0: 5827 14bc f5b0 40bd ecfb 22bc 009a febc
00000100: f0f5 d4bc 4a74 e0bc 823d c03c 03be 373d
00000110: d3dd ffbc e33f eebc 39c1 433d 28c1 d53b
00000120: 64de 783c 7a85 d83c d896 083c 4ad3 a5bc
00000130: a05c ebbc b40c 88bc 6736 183d 6b32 493d
00000140: e7c7 2c3d 901e 96bb 3b04 21bd 4460 6f3c
00000150: 9e2c a03c d668 07bd a31d a9bc 0ec3 de3c
00000160: d6a1 d53c d098 773b dfc0 123d bede 1dbd
00000170: 120b 36bd 6013 ce3a 80d9 3fba cc2f 5b3c
00000180: 7f75 2fbd f386 aabc 29de 483d 0d37 483d
00000190: 69eb 463d f9af 2e3d e2cd c43c 428d 06bd
000001a0: 305f 2bbb fbd9 31bd eea1 b63c d5f4 24bd
000001b0: 17d4 cdbc cf0f 263d 4017 58ba bbe6 2fbd
000001c0: e0a7 f3bc 1e00 b63c 8069 263b f9f6 203d
000001d0: d0b5 89bb ba3e 08bd c05b a33a e862 40bc
000001e0: 87a1 fabc e889 7ebc f0c9 30bd 302d f63b
000001f0: 3f57 4cbd b69b fe3c fded 3bbd e07c 99bc
00000200: 0597 303d 26d2 1dbd 40d4 0cbd 00f3 4fbb
00000210: b9a4 243d 8a19 07bd b36d 39bd c0f5 8d3b
00000220: d4be 28bc 80ee 5bba 670c 1c3d ed00 a1bc
00000230: dd32 40bd 395a 083d b0cf 4b3b 560a f23c
00000240: d232 803c 8096 24bd 0027 8fb9 078f ccbc
00000250: 1ff8 0c3d 98a6 c3bb 27e0 36bd e872 ba3b
00000260: 79c8 2a3d aead f63c 7ed2 c23c 60d3 28bd
00000270: b059 87bc 4dcf afbc 426b af3c 50c6 18bb
00000280: 8093 4abc 23ca acbc 6005 4f3b 20fd 41bc
00000290: 520c cb3c 19ca 4a3d 1a1c a2bc 60fd 2d3b
000002a0: 9fb1 0c3d 41a9 213d 809b cc3b 1e6c 05bd
000002b0: 16f9 92bc 58df 473c 17d9 1c3d e0e3 f3bc
000002c0: b6d4 923c 7af6 a0bc 30f4 7cbb d428 97bc
000002d0: 5026 c7bb 46b2 85bc a5e9 2b3d 590b 2e3d
000002e0: 4749 053d c292 be3c 0c9d 5a3c 84b1 543c
000002f0: a8db ae3b 747e 193c c0df a9bc 7e43 2bbd
00000300: 60b9 843a 0ade bd3c 7769 32bd be1d f83c
00000310: 3ab1 c7bc 8ba8 15bd 20d0 6bbb 5b0b 26bd
00000320: 18f9 903b 60a2 0b3b c13d 393d 3ec7 d83c
00000330: 9bee 12bd df27 4a3d 58ba c43b 6a9d 903c
00000340: e35b 9dbc 6d6c bebc 0749 c3bc 998d 1a3d
00000350: 4964 3e3d 62b3 21bd 7762 273d 5375 243d
00000360: c05e 1cbc c88d 12bc 8ac1 e73c c32f 11bd
00000370: ac46 37bc 018b 053d 4f04 0a3d a7c7 dabc
00000380: c398 013d e0cf 79bc 101c ddbc de9a b33c
00000390: 0c24 593c b765 46bd e8c5 303c 68e4 a53b
000003a0: d4c2 7a3c 6271 a13c c649 903c 806d 6c3b
000003b0: a600 1ebd 1650 93bc b238 28bd 9062 983b
000003c0: 64eb 5a3c 50af 97bc 207e 703b f058 c3bb
000003d0: c0f6 f03b 68bc 2bbc 7f59 44bd 7a1f 0abd
000003e0: f8f6 75bc dd7e b5bc 861c f23c 3dd8 243d
000003f0: 8236 fd3c 751d 0b3d f0ff d4bc 1f07 48bd
0.027420562 0.025723655 -0.021599907 -0.016479116 0.021479253 -0.040712804 -0.035394143 -0.021516997
-0.0052445717 -0.025217026 -0.017139278 0.008929055 -0.008981537 -0.016455512 0.015994329 -0.02046569
-0.016988356 -0.030054046 0.047636915 0.0012953691 -0.047704674 0.023655515 0.046964105 -0.020837003
-0.024086619 -0.038026888 0.0077261403 -0.038245253 -0.04343639 -0.016478725 -0.014879681 0.019844476
-0.04814896 0.022151899 0.008784652 0.00898679 0.04055799 0.031322274 0.047119636 0.011014838
-0.020928157 -0.03228718 0.03631403 0.04191747 -0.037847213 0.01819392 0.03972278 -0.012897629
-0.01748506 -0.044069715 -0.01711341 -0.021221971 0.03139967 0.028454546 -0.010285191 0.01775683
0.038125355 0.013729665 0.03173561 0.024931628 -0.009042583 -0.04704376 -0.009947758 -0.031079292
-0.025996178 -0.027399201 0.02346683 0.044858944 -0.031233704 -0.029083198 0.047791693 0.00652327
0.015189741 0.026430834 0.008336745 -0.020242352 -0.02873069 -0.01660762 0.037161257 0.049120348
0.04218283 -0.00458128 -0.039310675 0.014610354 0.019552525 -0.033058964 -0.020644015 0.027192619
0.026078146 0.0037780292 0.035828467 -0.0385425 -0.04444415 0.0015722327 -0.0007318482 0.013378095
-0.042836662 -0.020816302 0.049039993 0.048880626 0.04856435 0.04264829 0.024023954 -0.032849558
-0.0026149265 -0.043420773 0.022294011 -0.040272553 -0.025125546 0.04054242 -0.00082432106 -0.04294465
-0.029743135 0.022216853 0.0025392473 0.03929803 -0.004202582 -0.033262946 0.0012463257 -0.011742331
-0.0305946 -0.015535809 -0.043161333 0.007512711 -0.04988789 0.031080108 -0.04588126 -0.018736303
0.043112773 -0.03853049 -0.034382105 -0.0031730533 0.040196154 -0.03298334 -0.045270633 0.004332274
-0.010299403 -0.0008389726 0.038097765 -0.019653762 -0.046923507 0.033289168 0.0031099133 0.029545944
0.015649233 -0.04018259 -0.00027304143 -0.024970545 0.034416314 -0.0059707873 -0.044647362 0.0056899674
0.041695092 0.030112114 0.023782011 -0.041217208 -0.016522259 -0.021461153 0.02141345 -0.0023311563
-0.012364268 -0.02109248 0.0031588897 -0.011840135 0.024786148 0.04950914 -0.01978879 0.0026548728
0.03434908 0.039468054 0.006244123 -0.03257381 -0.017941039 0.012199245 0.03829297 -0.029771745
0.017923694 -0.01964878 -0.0038597696 -0.018452086 -0.0060775653 -0.016320359 0.041970868 0.04249129
0.032540586 0.023263339 0.013343107 0.012981776 0.0053362437 0.009368528 -0.020736575 -0.041812412
0.0010126047 0.023177166 -0.04355761 0.03028762 -0.0243765 -0.03653769 -0.0035982206 -0.040538173
0.0044242255 0.00213065 0.04522491 0.026462194 -0.035872083 0.04935443 0.006003659 0.017653186
-0.019208854 -0.02324506 -0.023838533 0.037732694 0.046482358 -0.039477713 0.040865388 0.04015095
-0.009544075 -0.008944936 0.028290529 -0.03544594 -0.011186283 0.032603268 0.033695515 -0.02670653
0.031639826 -0.015247315 -0.02699092 0.021924432 0.013253223 -0.048436847 0.010789372 0.0050626285
0.01530524 0.019707385 0.017613303 0.003607601 -0.038574837 -0.017982524 -0.041069694 0.0046504214
0.013361786 -0.018516213 0.003669627 -0.00596153 0.0073536336 -0.010481931 -0.047936913 -0.033721425
-0.015012495 -0.02215522 0.029554617 0.040245283 0.03090978 0.03396364 -0.026000947 -0.048834916

_output_linear.weight f4 [5, 400]
00000000: f968 46bc 1c18 5b38 a22f 1935 63f8 4db1
00000010: 5ab7 093d 8bdb cc30 1709 8b2f cf08 e3ae
00000020: 19ec 1035 4673 72b1 0075 063d 35b8 c5b9
00000030: 2af2 4331 e041 f130 e43c d6b0 dc8e a1b1
00000040: c09c 15b5 d48e 5bb0 5e90 0d38 5b4a 2db3
00000050: 59b4 c2bd 7a2c 2cbd 48a4 0f31 f421 d92d
00000060: c64f c23d f003 6230 1309 2fb1 e1c6 58b0
00000070: 59ba 52b2 4f05 edbb 9c48 08b2 f49b ef3a
00000080: d30b 5faf 3e4f 6732 fdf5 f53d 20d6 ea3a
00000090: f701 5cad d125 36b4 886f b42e e7f5 01b2
000000a0: 4b4c 00be 17d4 f9ae fd40 e2af 6d0a 7130
000000b0: 8ccb 45b5 12dd f033 6038 58ba 09c6 0abb
000000c0: be6f feb3 c065 832f 286c 4eae 2dd7 eab2
000000d0: 5002 13b0 be9f e7ad d2d7 a43b a089 0cbd
000000e0: ab05 b42f 987c 6ab0 e3f7 3cb1 f130 dc3d
000000f0: d416 28af 178d e0b1 8e7b c232 1ba7 cc39
00000100: 9c59 37ac 3ef1 90b4 27bb b73d c214 4d3e
00000110: de80 3b33 07e2 3133 f063 d63b b439 acb0
00000120: b0f7 70b1 1f85 adb1 a62a 953d fa6c 14b6
00000130: 0caa 32ab 6a93 3838 a394 8631 fbd2 663e
00000140: 52ac 3d3b bf02 a831 69c3 ef30 9754 6bae
00000150: b6ea fd31 6499 18af 4776 3dbe a681 56b1
00000160: 7090 4ab1 babf 44b1 7bff 91b2 f82c 74b4
00000170: 22ec 5d37 c3a3 0bbc 3f17 2032 9629 0730
00000180: 1cff ae3a 3303 b12f c2bf 4c3d c8f6 29bc
00000190: 4308 d53b c57c 0e31 5692 7738 b0ec 24b8
000001a0: 889e 6c31 6b89 01b1 28e3 10ba a625 e1af
000001b0: 60a5 13b4 8493 1f30 7a26 35b1 8a03 4737
000001c0: 255b 1eb4 ff32 3d3c 9cd7 0eb1 0d94 09b9
000001d0: d668 6aaf 0270 74be 8c96 a1ad d3f9 f731
000001e0: f6ac 32b1 f6db c6af 3500 f4b4 9592 8d2e
000001f0: 5969 d53a 2c40 da3b fbce 8cb2 8902 1f2f
00000200: 3a82 fcae 6f79 87b2 c00a 8aaf 0c34 1d37
00000210: 8659 1fb9 f2e5 58b2 5398 31af ceac 2332
00000220: 9776 9031 f0e0 24b3 7f77 473c d2b6 ea30
00000230: c0c7 382d afc7 4f3d 04f3 0b2f 0047 21b1
00000240: 986f c932 bfc9 1931 82b3 abad dcc9 a7b9
00000250: 2bc5 633b d25e a535 a593 c731 f37f 9f30
00000260: 59aa 98b3 80a4 6baf 65a2 98b2 740f f9af
00000270: d28d fb32 4099 6931 dae6 622e 985e 2abb
00000280: 9627 f0ac 5905 9a31 94b3 5db8 f36f 8a32
00000290: 1c7b a82f 4eb0 38b1 2f03 8c35 06e5 f0b2
000002a0: ac00 06ae 009b 122e d1ce 20b0 1217 23ba
000002b0: d8f6 fdba 84d8 99af 1994 0432 c19e 3b32
000002c0: 28ee 2530 5e88 5bbe b4ca 30bc 5d93 9f2f
000002d0: 9201 a3b3 eef3 4631 38a6 2d2e 60f2 223f
000002e0: 3e0c 9f3a 046e 162f f576 9ebb ecd5 64b0
000002f0: 3b7a 42b0 c17b b73b fd18 88ba 37ac 223c
00000300: f742 9fb9 16d5 4eb0 a48b 97ac 5a78 423d
00000310: 9060 112f 31d0 6336 76f7 4bbf fd34 f6ac
00000320: 8979 1030 a8f7 eead 07dc 97bc b391 d430
00000330: 4aaf 4f2c 4ef6 34b1 7c58 a530 5247 4c35
00000340: 0016 b9b9 9d00 05b8 3c17 d83c ead3 fcb2
00000350: bf09 26ba f8fc 2c33 3abf b5ba ace8 d032
00000360: 224e 55ae 10a1 a434 6dd7 a2b1 37b1 093c
00000370: b92b b531 ef77 d536 a8c9 73bb 6e52 0b30
00000380: f6c8 0831 9354 0630 04cf 373b 648e 133d
00000390: c678 a030 083f b42f a5b2 f234 94ea 3fb1
000003a0: ae14 c030 eedb 8135 d7d8 8530 95bd 1b32
000003b0: 0a45 94b0 3974 a1af f325 8d3d 02eb 6aaf
000003c0: 6ca2 5531 8486 ba3a a103 003e 88f5 b934
000003d0: 4bc0 6e39 3184 71b1 d636 432e 8020 3db0
000003e0: d284 beb1 2ef4 0530 1e4c 41b5 dce9 92af
000003f0: a96f 5eb0 4116 222c 1407 34b3 1e4b 783c
-0.012109988 5.2236122e-05 5.7066256e-07 -2.9972618e-09 0.033622123 1.4905351e-09 2.5290411e-10 -1.03243296e-10
5.398775e-07 -3.528116e-09 0.032826424 -0.00037712013 2.851389e-09 1.7553781e-09 -1.5587855e-09 -4.701958e-09
-5.5734927e-07 -7.9874707e-10 3.3751472e-05 -4.0347327e-08 -0.09507055 -0.042034604 2.0902622e-09 2.4685122e-11
0.09487872 8.2223917e-10 -2.547101e-09 -7.8862966e-10 -1.2265979e-08 -0.007233299 -7.932751e-09 0.0018280731
-2.0285933e-10 1.3463987e-08 0.12009809 0.0017916597 -1.2505988e-11 -1.6963828e-07 8.205264e-11 -7.5647e-09
-0.12529103 -1.1360884e-10 -4.1155337e-10 8.7690105e-10 -7.368442e-07 1.1216083e-07 -0.00082481466 -0.0021175167
-1.18481225e-07 2.390106e-10 -4.693504e-11 -2.7339036e-08 -5.3481575e-10 -2.63326e-11 0.0050306106 -0.034310937
3.2745837e-10 -8.530576e-10 -2.7498508e-09 0.10751522 -1.5287621e-10 -6.535298e-09 2.2640759e-08 0.00039034415
-2.6055607e-12 -2.6997617e-07 0.08971243 0.2002745 4.3656534e-08 4.1416595e-08 0.006542675 -1.2531047e-09
-3.506539e-09 -5.050097e-09 0.07283525 -2.2117151e-06 -6.347429e-13 4.400631e-05 3.9168113e-09 0.2254142
0.0028941822 4.8897557e-09 1.7445078e-09 -5.3507945e-11 7.3899526e-09 -1.3878815e-10 -0.1850215 -3.1214795e-09
-2.9476972e-09 -2.8630738e-09 -1.69964e-08 -2.274063e-07 1.3227605e-05 -0.008522931 9.318511e-09 4.917181e-10
0.0013351175 3.2198386e-10 0.049987562 -0.010373779 0.006501229 2.0734643e-09 5.9025675e-05 -3.932108e-05
3.4432635e-09 -1.8850084e-09 -0.0005527013 -4.0954012e-10 -1.3750605e-07 5.8053495e-10 -2.6360838e-09 1.1862148e-05
-1.4748055e-07 0.011547803 -2.078628e-09 -0.00013120491 -2.1319421e-10 -0.23870853 -1.8370437e-11 7.217048e-09
-2.6000726e-09 -3.6172282e-10 -4.5448692e-07 6.437976e-11 0.0016282006 0.006660482 -1.6392269e-08 1.4461866e-10
-1.1482766e-10 -1.577129e-08 -2.5109692e-10 9.370047e-06 -0.00015196772 -1.2625138e-08 -1.6152173e-10 9.52714e-09
4.2044337e-09 -3.8388805e-08 0.012174486 1.7077701e-09 1.05035425e-11 0.050727542 1.2728313e-10 -2.3468942e-09
2.3450227e-08 2.237911e-09 -1.9520167e-11 -0.0003200312 0.0034754972 1.2321054e-06 5.8084475e-09 1.1605138e-09
-7.1090376e-08 -2.1431568e-10 -1.7768977e-08 -4.5303816e-10 2.9284738e-08 3.3993075e-09 5.1591488e-11 -0.0025996324
-6.825605e-12 4.482598e-09 -5.285775e-05 1.6116223e-08 3.0646496e-10 -2.6875742e-09 1.0431739e-06 -2.8043825e-08
-3.046867e-11 3.3334224e-11 -5.8501565e-10 -0.0006221394 -0.0019375933 -2.7984381e-10 7.717085e-09 1.0920929e-08
6.036509e-10 -0.21438739 -0.010790516 2.902664e-10 -7.5905646e-08 2.895145e-09 3.9483278e-11 0.63651085
0.0012134386 1.3681506e-10 -0.004835958 -8.324992e-10 -7.075049e-10 0.0055994694 -0.0010383424 0.0099287545
-0.00030376736 -7.5245177e-10 -4.3071813e-12 0.047478057 1.3221979e-10 3.394682e-06 -0.7967447 -6.9976234e-12
5.2559607e-10 -2.7167449e-11 -0.018537534 1.546644e-09 2.9513774e-12 -2.6333455e-09 1.2030479e-09 7.6099707e-07
-0.0003530234 -3.1710242e-05 0.026378267 -2.9433028e-08 -0.000633385 4.0276944e-08 -0.0013866194 2.4320194e-08
-4.849999e-11 3.066457e-07 -4.7393116e-09 0.008404068 5.272764e-09 6.361857e-06 -0.0037199054 5.0685045e-10
1.9904838e-09 4.8869103e-10 0.0028046975 0.036024466 1.1675858e-09 3.2786596e-10 4.5205994e-07 -2.79275e-09
1.3975716e-09 9.675257e-07 9.738653e-10 9.065293e-09 -1.0788039e-09 -2.936831e-10 0.06892004 -2.1365668e-10
3.1087906e-09 0.0014230763 0.12501384 3.4637583e-07 0.00022769083 -3.5145258e-09 4.438657e-11 -6.8803985e-10
-5.5448277e-09 4.873212e-10 -7.200887e-07 -2.6723412e-10 -8.092181e-10 2.3033938e-12 -4.1915953e-08 0.015154628

_output_linear.bias f4 [5]
00000000: d247 c0bd 0a20 49be 263c 793e 15d9 27be
00000010: cee6 2fbc
-0.09388699 -0.19641128 0.24339351 -0.16391404 -0.0107361805
