data/MTMR_28002/real/uniform/N5/D5/dual/result/model/KDNet_Serial_PHL_MLSE4POL.pt (torch_old, 9042 bytes, 10 tensors)

K_Linears.0.weight f4 [20, 5]
0.0050854385 0.0027538813 0.43578032 -0.36983332 0.037226167 0.028279148 -0.01396852 0.7517512
-0.6825754 -0.01398785 0.56366974 -0.02151603 -0.002824762 -0.02682914 0.036233768 -0.00010346049
-0.00015026118 -1.1934516e-06 4.3739087e-06 1.1268863e-06 -0.029063411 0.039020892 -0.6065076 -0.19199854
-0.11994748 -9.891307e-07 -4.8384663e-06 -4.8508998e-26 -1.4155771e-20 1.4011428e-10 -0.046600737 -0.018003661
-0.24651992 0.009605167 0.0028495295 -0.23375924 -0.19869088 0.006984629 -0.12866162 -0.0003039726
0.0012370939 -0.03365416 -0.4590658 0.02582638 0.0715778 -0.03838678 0.02143897 0.61138463
0.3877168 0.0056743976 -0.21376947 -0.15293556 0.022759983 0.06365238 -0.021139687 0.3093012
0.30064625 0.0033939064 -0.00096948136 -0.028180739 -0.017478587 -0.028943093 0.51429987 0.44041488
-0.034936994 -0.025758892 -0.1625265 0.028760858 -0.13064374 0.016317744 -0.3538631 -0.009555182
0.006139763 -0.011165427 -0.008957143 -0.019716075 -0.03323233 -0.08308632 -0.40165615 -0.011409181
-0.018969296 -0.041356955 0.24052411 -0.18143028 -0.066827886 0.061715394 0.05746683 -0.6889964
0.07930466 -0.0011881316 -1.3231897e-05 -2.1583149e-10 1.40380575e-14 3.0589935e-25 4.6359377e-14 0.17969209
0.15016994 -0.04015314 -0.07619397 -0.018756924
00000000: c0a3 a63b 767a 343b 991e df3e cb5a bdbe
00000010: 777a 183d aca9 e73c 38dc 64bc c472 403f
00000020: 43bd 2ebf 4c2d 65bc a94c 103f 6342 b0bc
00000030: a41f 39bb c9c8 dbbc dc69 143d edf8 d8b8
00000040: 6e8f 1db9 af2e a0b5 97c3 9236 853f 9735
00000050: 6416 eebc 5fd4 1f3d 1544 1bbf 449b 44be
00000060: 06a7 f5bd 46c2 84b5 1c5a a2b6 7634 7095
00000070: 8eb2 859e aa0e 1a2f 6ae0 3ebd 6a7c 93bc
00000080: b86f 7cbe fe5e 1d3c 2cbf 3a3b 955e 6fbe
00000090: 9f75 4bbe 51df e43b dfbf 03be 835e 9fb9
000000a0: fc25 a23a f2d8 09bd ac0a ebbe d891 d33c
000000b0: 6297 923d 753b 1dbd c7a0 af3c b483 1c3f
000000c0: d182 c63e 4cf0 b93b 62e6 5abe 249b 1cbe
000000d0: 2573 ba3c 2e5c 823d 232d adbc ba5c 9e3e
000000e0: 4eee 993e 4d6c 5e3b cb24 7eba 4bdb e6bc
000000f0: 412f 8fbc 111a edbc 28a9 033f 0f7e e13e
00000100: 181a 0fbd 5004 d3bc 596d 26be e49b eb3c
00000110: 79c7 05be caac 853c 8b2d b5be 578d 1cbc
00000120: 1130 c93b 32ef 36bc fbc0 12bc 9b83 a1bc
00000130: a01e 08bd 2929 aabd e0a5 cdbe 93ed 3abc
00000140: 7f65 9bbc e965 29bd f44b 763e dcc8 39be
00000150: 0fdd 88bd 48c9 7c3d 5762 6b3d 1162 30bf
00000160: 7b6a a23d 15bb 9bba 91fe 5db7 2a4f 6daf
00000170: 1de3 7c28 b057 bd16 b9c8 5029 3401 383e
00000180: 26c6 193e 9e77 24bd 960b 9cbd 1fa8 99bc

K_Linears.0.bias f4 [20]
-0.45332018 0.32720613 0.002119063 -0.0007108321 0.22272362 -2.1207945e-06 -0.13562891 0.23993827
0.23195848 0.42023304 0.1404188 0.38776758 -0.4487732 0.64478683 0.017951114 -0.111552715
0.41389158 -0.31779745 -2.721282e-06 -0.1213347
00000000: 9519 e8be 9087 a73e fadf 0a3b 2257 3aba
00000010: a911 643e f952 0eb6 4ee2 0abe 61b2 753e
00000020: 8686 6d3e c928 d73e f2c9 0f3e 7989 c63e
00000030: 9ac5 e5be c010 253f 370e 933c c075 e4bd
00000040: 99e9 d33e 59b6 a2be 459f 36b6 547e f8bd

K_Linears.1.weight f4 [21, 20]
-0.39457697 -0.51087385 -0.7636735 -3.4235985e-20 -0.47427237 -5.1436425e-24 -0.012573193 -0.29515332
-0.4625189 -0.79257506 -0.3256332 -0.5356295 -0.0008383703 -0.52246237 -0.19566648 0.041461136
-0.39603162 -0.015737051 -1.9657453e-24 -0.15806447 -0.0008857975 0.028230611 -0.03917231 -1.1691446e-06
-0.06661082 -2.2688266e-25 -0.0009276299 -0.078640856 -0.0057175155 -0.011232364 -0.030485168 -0.017089168
0.00019305437 -0.08615505 0.0020858303 -0.0042140284 -0.038521223 -0.0058290125 4.9748877e-07 0.005913434
0.45223844 0.7086019 0.61610764 3.484987e-07 0.080795296 -9.477566e-05 -0.53441435 1.0627708
0.68151647 1.3383238 -0.35984084 0.5037632 -0.6310281 -2.4100184 -0.83930314 -1.0673345
-0.3292402 0.3983856 -0.00017981407 -1.9783714 -1.1852258 0.7525219 -0.056761242 3.4988185e-25
0.063851245 -4.7969843e-05 -0.7946734 -0.92467684 0.15266135 0.64782125 0.39396966 -0.6779977
-0.3158321 0.73832464 0.28093147 -1.0137619 -3.5191424 -0.4996711 -0.00042531703 0.60506403
0.2349348 -0.5619887 0.5380049 1.3528357e-07 1.2373569 2.0933257e-05 -0.8177499 -0.5423298
-0.21318318 0.43343237 1.5838661 0.4285024 -0.92901015 -1.4627151 -0.73908895 2.0603561
-0.4658853 0.9936487 -8.369767e-05 -0.5030061 -0.003531119 0.04710231 -0.023662861 1.2781348e-07
-0.03079539 2.0519309e-07 -0.0073937117 -0.05394855 -0.027756521 -0.05471723 0.049384296 -0.03690267
-0.00036161937 -0.102790095 -0.0039200485 -0.0113442475 -0.04599844 -0.0019148564 1.1345915e-07 0.006141398
-0.45091173 0.24493143 -0.3777652 -9.211987e-06 -0.97477496 -0.00030131338 0.13737105 0.20550424
0.51710415 0.06217831 -1.9406698 0.6477205 -0.7491373 0.7923364 0.67035687 -1.1721793
0.04898435 -0.07673698 1.28264655e-05 2.9053304 2.2007039 -0.97044766 -0.26755783 -9.296113e-08
0.12759441 -7.001177e-05 -0.716136 -0.43094927 -0.40779957 -1.5349504 -1.1405495 0.74852026
-0.50419044 0.5927478 0.56447715 -1.9115077 1.0543132 -0.03537021 8.9177935e-05 1.3551903
-0.0381936 0.039691962 -0.03343976 2.895327e-06 -0.12749355 -8.674836e-06 -0.029730542 -0.020299254
-0.102621846 -0.19448228 -0.06801325 -0.13064092 -0.0036923522 -0.09510198 -0.054478794 0.016197106
-0.12913159 -0.036508236 -2.5291345e-07 0.003316385 -0.087088354 -0.1760725 -0.015195207 3.316327e-24
-0.19339657 -1.0489896e-20 -0.003912365 -0.03005366 -0.03153088 -0.1884054 -0.13034758 -0.00023048247
-0.017244922 -0.1816961 -0.049447775 -0.02383924 -0.039747007 -0.056752745 1.1569182e-15 -0.012162371
-0.006831802 -0.04807166 0.062060583 1.688638e-08 -0.11012227 1.133745e-06 -0.013655884 -0.026911955
-0.08582854 -0.07230875 0.013266386 -0.10601045 -0.021232516 -0.14805473 -0.023640435 -0.013263404
-0.07939344 -0.010575163 -2.3806114e-13 0.00026308134 -0.22156158 0.2898116 0.63632375 -5.775799e-06
0.91336143 -0.00026667354 0.19731578 -0.4257028 -0.2406302 0.58069307 0.50819093 -0.5369295
0.13902894 0.2795053 -1.8545167 0.16601957 -0.15936865 -0.09046667 -0.0008453183 -0.9910904
0.010213885 -0.64179677 0.1720537 -1.5426313e-18 -0.22564241 -1.924168e-05 0.7992881 0.7821083
0.75066006 -0.72229904 -0.2319372 0.15375946 -0.6605526 -0.11858828 -0.07861486 -2.5230172
00000000: fe05 cabe a1c8 02bf 1b80 43bf c4ac 219f
00000010: d4d3 f2be 2bfc c698 cbff 4dbc 561e 97be
00000020: 47cf ecbe 33e6 4abf 65b9 a6be 041f 09bf
00000030: 14c6 5bba 18c0 05bf cb5c 48be 27d3 293d
00000040: a8c4 cabe fdea 80bc 9917 1898 a7db 21be
00000050: dd34 68ba e243 e73c 2573 20bd 81eb 9cb5
00000060: 416b 88bd fe6e 8c96 302c 73ba 750e a1bd
00000070: ff59 bbbb f307 38bc 08bc f9bc 95fe 8bbc
00000080: a36e 4a39 0f72 b0bd 6db2 083b d515 8abb
00000090: 6ec8 1dbd 4d01 bfbb 2b8b 0535 7bc5 c13b
000000a0: cc8b e73e ef66 353f 3bb9 1d3f 4c19 bb34
000000b0: 0178 a53d 4cc2 c6b8 61cf 08bf e008 883f
000000c0: dd77 2e3f 324e ab3f 0f3d b8be a0f6 003f
000000d0: 0f8b 21bf be3d 1ac0 92dc 56bf 6b9e 88bf
000000e0: 2c92 a8be 33f9 cb3e 798c 3cb9 463b fdbf
000000f0: 7bb5 97bf 46a5 403f 7a7e 68bd fe90 d816
00000100: 71c4 823d 3a33 49b8 b76f 4bbf 9fb7 6cbf
00000110: 4253 1c3e 9dd7 253f 64b6 c93e 4291 2dbf
00000120: bfb4 a1be d802 3d3f 40d6 8f3e f3c2 81bf
00000130: a139 61c0 e4d4 ffbe 16fd deb9 7ae5 1a3f
00000140: c092 703e 7ede 0fbf b0ba 093f 7742 1134
00000150: b661 9e3f d499 af37 0f58 51bf 20d6 0abf
00000160: b14c 5abe d9ea dd3e 20bc ca3f ab64 db3e
00000170: 9cd3 6dbf 403a bbbf ef34 3dbf e0dc 0340
00000180: 8588 eebe c35f 7e3f d886 afb8 02c5 00bf
00000190: 596a 67bb 5aee 403d 9ed8 c1bc 1a3d 0934
000001a0: 9d46 fcbc 0c53 5c34 f346 f2bb 28f9 5cbd
000001b0: a561 e3bc 2d1f 60bd 3047 4a3d 4127 17bd
000001c0: bb97 bdb9 9d83 d2bd c073 80bb 39dd 39bc
000001d0: dc68 3cbd ebfb faba d4a6 f333 c83d c93b
000001e0: e7dd e6be 4ecf 7a3e 716a c1be 2f8d 1ab7
000001f0: da8a 79bf 99f9 9db9 ffaa 0c3e b46f 523e
00000200: f060 043f afae 7e3d de67 f8bf 03d1 253f
00000210: 76c7 3fbf 8fd6 4a3f 829c 2b3f f909 96bf
00000220: d0a3 483d 4728 9dbd 4031 5737 eff0 3940
00000230: 55d8 0c40 426f 78bf 57fd 88be eca1 c7b3
00000240: 1ca8 023e 48d3 92b8 b054 37bf 62a5 dcbe
00000250: 1bcb d0be 4179 c4bf 87fd 91bf 069f 3f3f
00000260: a012 01bf 52be 173f 9381 103f 49ac f4bf
00000270: bcf3 863f 5ae0 10bd 0a05 bb38 e076 ad3f
00000280: e470 1cbd 0a94 223d 21f8 08bd 574d 4236
00000290: ab8d 02be 238a 11b7 778d f3bc 9f4a a6bc
000002a0: 672b d2bd 5d26 47be 884a 8bbd bcc6 05be
000002b0: 64fb 71bb d4c4 c2bd 2825 5fbd cbaf 843c
000002c0: 123b 04be a989 15bd 29c8 87b4 b557 593b
000002d0: 615b b2bd 594c 34be 51f5 78bc 504b 8018
000002e0: c009 46be 0626 469e 4c33 80bb 1833 f6bc
000002f0: 8626 01bd 58ed 40be d679 05be abad 71b9
00000300: 3945 8dbc 8b0e 3abe c089 4abd 834a c3bc
00000310: c2cd 22bd 9175 68bd bfba a626 ae44 47bc
00000320: 4fdd dfbb cae6 44bd 3d33 7e3d 8b0d 9132
00000330: c987 e1bd 2e2b 9835 eebc 5fbc 7676 dcbc
00000340: e0c6 afbd 9c16 94bd 425b 593c 021c d9bd
00000350: d0ef adbc a99b 17be 96a9 c1bc c04e 59bc
00000360: 0799 a2bd 7343 2dbc 3a04 86aa 2eee 8939
00000370: 0ae1 62be 3062 943e 1de6 223f bccd c1b6
00000380: 0ed2 693f 51d0 8bb9 260d 4a3e b8f5 d9be
00000390: c367 76be 4da8 143f cd18 023f 3674 09bf
000003a0: 9a5d 0e3e 521b 8f3e ce60 edbf 0901 2a3e
000003b0: 8931 23be 9746 b9bd 5a98 5dba 1ab8 7dbf
000003c0: 2458 273c cb4c 24bf d82e 303e f6a6 e3a1
000003d0: ce0e 67be 3169 a1b7 259e 4c3f 4038 483f
000003e0: 422b 403f 97e8 38bf f280 6dbe 1f73 1d3e
000003f0: fa19 29bf 6ade f2bd d400 a1bd 1d79 21c0

K_Linears.1.bias f4 [21]
-0.60360765 -0.023419602 0.18937692 1.172752 0.69357604 -0.039579973 -0.16275893 0.41027522
-0.07067935 -0.097820826 -0.04533293 0.4780165 0.46951103 -0.23438497 -0.0009709155 -0.62300164
-0.1069924 -0.60681254 -0.39870209 -0.012682341 0.327726
00000000: 0886 1abf 77da bfbc 06ec 413e bd1c 963f
00000010: 338e 313f 9c1e 22bd 47aa 26be 980f d23e
00000020: 56c0 90bd 4956 c8bd 06af 39bd 94be f43e
00000030: c063 f03e 9d02 70be 0985 7eba 097d 1fbf
00000040: d51e dbbd 1158 1bbf ae22 ccbe 98c9 4fbc
00000050: b4cb a73e

D_Linears.0.weight f4 [20, 21]
-3.823618e-21 1.3843282e-24 -1.084787 -0.9057923 -0.9475351 5.673863e-24 -0.88574356 -0.68121934
-7.2699833e-25 1.3648079e-24 -1.5264859e-24 -0.96419036 -0.45141196 -0.17199382 2.1942723e-25 -0.16873276
-2.435161e-24 -0.69878715 -0.9387202 2.3607858e-24 -0.29703996 3.728057e-21 -4.8778536e-24 -0.60042274
-0.3600885 -0.19391495 8.2836044e-20 -0.4542985 -0.10484549 3.620853e-24 1.2087932e-07 -4.4912486e-23
-0.6633932 -0.019891944 -0.00032775474 -3.9339196e-24 -0.019127736 8.3120314e-05 -0.2969102 -0.59527516
-1.9830087e-23 3.2339853e-05 5.256313e-19 3.757535e-22 0.0008812469 0.0029235752 2.3976638e-05 -3.6160753e-24
-0.002896039 -1.3760807e-06 8.389195e-25 -2.1477523e-24 -4.429946e-25 -9.266834e-05 -0.0022176628 0.0011260712
8.884867e-25 -0.003245169 -5.876411e-07 -0.0051594754 0.0037185105 -7.2268344e-24 -0.006517712 0.1160386
4.5863988e-14 0.8405599 -0.41865158 -1.1047308 -7.524815e-24 0.743087 -0.9942353 -9.414821e-13
1.3329028e-23 1.333899e-23 0.017120546 7.2077226e-11 -0.61900055 -1.3445283e-24 -0.22021344 0.0055273515
0.38598245 0.28680938 -4.7740785e-24 -0.25353834 3.0063776e-19 1.7310827e-22 -1.3009903 -1.1554594
-1.5350069 -7.6672744e-24 -1.4820809 -0.95948184 1.6437108e-24 -4.655054e-24 2.424471e-24 -1.3178631
-0.96801245 -1.2521999 2.8395954e-24 -1.1107341 6.803854e-16 -1.3770138 -1.4569412 4.6407827e-24
-1.2071983 0.15122673 -3.9207022e-13 -0.17075658 0.7748814 -0.9216377 1.1257407e-18 0.20198736
1.1597773 -2.3963077e-13 -2.4695266e-09 -8.071716e-24 -0.10821621 -1.0472498 1.1353248 -4.077691e-24
-0.23694605 0.00448974 0.8761727 0.22942081 -1.0628713e-24 0.3490599 -0.016129112 2.2876993e-23
0.47359315 -0.035368666 0.95376396 1.1104792e-18 -0.13450575 0.04992449 8.7216563e-14 1.500886e-07
1.8434817e-22 -0.13379703 0.44653803 -0.76003855 -1.0051127e-24 -0.41998634 -0.002136764 -0.398591
-0.44006926 1.8004875e-23 0.056069892 1.2930518e-13 -1.5786456e-23 7.779543e-23 -0.015326368 -0.004654942
-4.2841642e-20 -2.8870235e-07 -0.00600366 -4.0730876e-24 3.1680932e-07 3.7711306e-24 -0.011369711 0.015662428
-1.5504154e-25 -1.6670384e-24 -0.010946481 1.856331e-05 -8.084569e-07 -7.331327e-07 1.0279693e-23 -7.551308e-20
-2.101298e-09 9.4452885e-20 -0.27822483 -1.3536621 0.38281375 4.7091215e-22 -0.4509843 -0.85457677
2.7649644e-13 -2.9365364e-11 1.9003519e-23 -0.18946561 -0.12448782 0.15833062 5.363021e-24 -0.9487971
1.2599679e-05 0.2992722 0.8686683 3.4034792e-24 -1.5095656 0.056335304 -8.0110024e-23 0.43798077
0.44322854 0.13795756 -2.6052761e-17 0.86993545 0.14505348 7.605605e-13 0.00016274212 3.3517832e-23
-0.07936869 -0.80933017 0.018965047 -2.2821397e-24 -0.6514218 -0.009978248 -0.27896386 0.46877137
-8.7646814e-23 0.7232193 -0.0019686683 1.6669525e-22 0.08606202 0.5648333 0.72585636 8.09351e-15
-0.7354686 0.14238022 7.09721e-14 0.00080149964 -2.6084623e-10 0.17559546 -0.47043186 -0.19795619
1.3196639e-24 0.89459723 0.011864767 0.1220067 -0.4780895 -4.3861588e-23 0.880414 -1.00004656e-19
1.1293609e-22 -9.849585e-24 -4.568641e-17 -2.3063428e-15 -6.481395e-24 -0.0003775292 1.7841066e-22 5.539019e-24
-4.344693e-24 2.5249884e-24 -7.536624e-22 -9.624511e-17 -3.164961e-11 -1.9126187e-24 -1.333503e-13 6.481555e-22
-2.1996721e-10 -9.816531e-05 -5.2142834e-24 7.5196593e-25 -1.6346962e-23 7.1020185e-24 4.342576e-09 2.9868061e-09
00000000: c473 909d e436 d617 4dda 8abf 01e2 67bf
00000010: a991 72bf 387f db18 17c0 62bf 6464 2ebf
00000020: befe 6097 9c31 d317 5636 ec97 2ed5 76bf
00000030: 781f e7be 261f 30be a2d1 8716 48c8 2cbe
00000040: 5569 3c98 b7e3 32bf f84f 70bf 2ea8 3618
00000050: 9f15 98be 8ed7 8c1d ecb3 bc98 4eb5 19bf
00000060: 855d b8be a491 46be 5197 c31f d099 e8be
00000070: 3bb9 d6bd 3113 8c18 0ecb 0134 f72e 599a
00000080: 23d4 29bf 6ef4 a2bc 7fd6 abb9 a72f 9898
00000090: c5b1 9cbc e150 ae38 9d04 98be f463 18bf
000000a0: ebc8 bf99 a7a4 0738 9423 1b21 0a21 e31b
000000b0: 7a03 673a 7499 3f3b 7021 c937 e0e3 8b98
000000c0: 79cb 3dbb c6b1 b8b5 06d1 8117 9e2c 2698
000000d0: a619 0997 f056 c2b8 3556 11bb ae98 933a
000000e0: 967c 8917 e7ac 54bb 64be 1db5 d110 a9bb
000000f0: 41b2 733b 8dc9 0b99 8892 d5bb a5a5 ed3d
00000100: 948d 4e29 ef2e 573f 8059 d6be d267 8dbf
00000110: 148d 1199 f33a 3e3f 3486 7ebf 7880 84ab
00000120: 13e9 8019 bd01 8119 6340 8c3c df7f 9e2e
00000130: d276 1ebf 410e d097 a27f 61be c91e b53b
00000140: 7e9f c53e aed8 923e 2fb0 b898 c7cf 81be
00000150: 1877 b120 6a46 511b da86 a6bf 18e6 93bf
00000160: 1b7b c4bf 814e 1499 d4b4 bdbf 9aa0 75bf
00000170: 185a fe17 6c15 b498 9895 3b18 bdaf a8bf
00000180: aacf 77bf 1648 a0bf fbb3 5b18 892c 8ebf
00000190: 951b 4426 fd41 b0bf 0d7d babf 1688 b318
000001a0: 7985 9abf 2edb 1a3e 46b7 dcaa d0da 2ebe
000001b0: a15e 463f 73f0 6bbf 4821 a621 c6d5 4e3e
000001c0: 9573 943f 6fe6 86aa 5fb4 29b1 3421 1c99
000001d0: 76a0 ddbd 480c 86bf 5352 913f 7fbf 9d98
000001e0: fca1 72be ab1e 933b db4c 603f 4aed 6a3e
000001f0: ac78 a497 fbb7 b23e 3321 84bc b140 dd19
00000200: cd7a f23e bcde 10bd e029 743f b8e0 a321
00000210: e0bb 09be 9f7d 4c3d ed64 c429 0a28 2134
00000220: ffdc 5e1b 1702 09be a2a0 e43e e391 42bf
00000230: 9e88 9b97 7308 d7be f308 0cbb 1f14 ccbe
00000240: c250 e1be e921 ae19 8ba9 653d ae95 112a
00000250: 5fad 9899 0a19 bc1a 721b 7bbc 7c88 98bb
00000260: 5e50 4a9f f3fe 9ab4 5aba c4bb e891 9d98
00000270: f115 aa34 78e3 9118 0648 3abc 7e4e 803c
00000280: a0ee 3f96 19fb 0098 de58 33bc 68b8 9b37
00000290: bc04 59b5 7fcc 44b5 93d6 4619 db4c b29f
000002a0: 6d66 10b1 4405 df1f 7c73 8ebe cd44 adbf
000002b0: 2a00 c43e 1053 0e1c 6ae7 e6be 8bc5 5abf
000002c0: 56a7 9b2a 7626 01ae 6fca b719 4603 42be
000002d0: 78f3 febd 6c21 223e ca78 cf18 5ee4 72bf
000002e0: 3663 5337 353a 993e 0c61 5e3f 6daa 8318
000002f0: 7239 c1bf d9bf 663d b4b1 c19a 043f e03e
00000300: daee e23e bf44 0d3e 584b f0a3 17b4 5e3f
00000310: e688 143e 2914 562b c1a5 2a39 1115 221a
00000320: 0d8c a2bd 4330 4fbf 965c 9b3c 6f92 3098
00000330: 94c3 26bf ce7b 23bc 5ad4 8ebe cd02 f03e
00000340: c0ea d39a e624 393f c604 01bb ae85 491b
00000350: 4941 b03d ea98 103f b9d1 393f bacc 1128
00000360: ac47 3cbf 1fcc 113e a1d0 9f29 bb1b 523a
00000370: d866 8faf 4ccf 333e 72dc f0be 07b5 4abe
00000380: 4635 cc17 5304 653f 7164 423c a6de f93d
00000390: 26c8 f4be 041a 549a d062 613f 1b21 ec9f
000003a0: 0788 081b c884 3e99 feb0 52a4 8430 26a7
000003b0: a1bc fa98 1def c5b9 6daf 571b ca47 d618
000003c0: c113 a898 8c5c 4318 cec7 639c 16ed dda4
000003d0: 4b32 0bae 51fb 1398 9b23 16aa 9ae4 431c
000003e0: 44db 71af 19de cdb8 c3b7 c998 e1b8 6817
000003f0: 1e19 9e99 7e5f 0919 b435 9531 7340 4d31

D_Linears.0.bias f4 [20]
-0.9530741 -0.6111692 -0.004534121 -0.5824534 -1.4706175 -0.4404451 0.41003567 -0.007298071
0.35237524 0.18756063 -0.40144873 -0.00018050271 9.823988e-10 -0.005229499 -0.10121994 -0.0414679
1.7071052 -0.011123946 0.6025982 0.3353697
00000000: aafc 73bf 9675 1cbf f792 94bb ab1b 15bf
00000010: 323d bcbf 0582 e1be 32f0 d13e a824 efbb
00000020: 876a b43e e50f 403e b08a cdbe 5445 3db9
00000030: 1605 8730 385c abbb 664c cfbd 3fda 29bd
00000040: 6c82 da3f 3641 36bc e043 1a3f 94b5 ab3e

D_Linears.1.weight f4 [20, 20]
0.4723729 -0.0024158931 -0.00092019816 -0.58820844 0.5868272 -0.098985836 -0.39726228 -8.5167197e-23
-0.5432967 1.0845016 0.7951066 -5.3081303e-24 3.2963323e-09 4.0852618e-05 -0.42637405 0.004698804
-0.14890528 -0.00091770553 -0.2729358 0.59407246 -0.027167143 -0.0009683573 -0.001083953 -0.0881106
0.0019251928 -0.76065654 0.06500767 0.023500035 -0.012831863 -0.60238695 0.6163597 -9.738916e-09
-3.345315e-10 -6.522057e-17 0.0399522 0.00076064456 0.14850096 7.0914544e-23 0.55495995 -1.2908512
0.26479685 -0.046608794 -0.00083869457 0.14697582 0.7324855 -0.5732025 -0.27789095 -2.4241199e-05
-0.45974702 0.56271595 -1.1827604 -5.964927e-24 -6.59087e-10 4.1385176e-14 0.12444313 0.00018252997
-0.32681942 -1.7403933e-21 1.208162 -0.047129165 0.6037349 -0.11139476 -0.00042868446 0.8469008
-0.7855863 -0.80602473 0.743268 -1.222732e-21 0.9727729 0.5312218 0.0500527 8.411765e-22
3.0104076e-24 -1.138013e-11 -0.6211597 3.2935142e-07 -0.23528583 -7.174514e-20 -0.9581448 0.30621907
2.9946466e-07 -0.07521264 0.0018062935 -0.33958608 -0.07319696 -0.02732765 -0.75845623 0.0011646597
0.11330146 0.26889896 -0.014453976 4.3061964e-24 -2.01868e-09 -0.00012309082 0.21427406 -9.986392e-12
-0.9068488 6.865851e-10 -0.09139553 0.48542082 -4.526084e-11 -3.8500794e-24 -5.1245146e-23 -0.3013582
-2.0917172e-23 -0.44650823 -0.25467268 4.037158e-24 -0.07401416 -0.36083823 -0.47545695 1.09930536e-23
-6.4137105e-24 -2.5051414e-24 -0.03660171 -4.6178312e-24 -0.5921823 -1.1199882e-24 -0.39825967 -0.13607767
0.2587703 -0.028157903 5.567547e-05 -0.8113299 0.29835188 -0.9458286 0.43914992 0.0060988218
0.32458034 0.083636574 0.24401765 -1.3754564e-15 3.768255e-23 -3.0521167e-16 -0.1703495 -1.3721584e-05
-0.49360105 8.3302244e-24 -0.29724205 -1.2990596 1.3099464e-24 -1.5316546e-08 2.56225e-24 -0.0014533873
-5.4024035e-25 1.2773446e-14 -0.0014163466 -2.7637833e-07 1.1012258e-13 -0.008244979 -0.00015139216 1.0175711e-24
2.1354867e-24 -5.0671214e-24 -2.0707478e-15 5.8296888e-24 -0.00014269509 4.129439e-24 -0.00072769856 -2.7788663e-15
-2.951929e-24 -7.318537e-24 4.0339755e-24 -0.004110223 -2.643386e-25 0.0003304935 -0.07538427 2.6972056e-24
0.009862622 -0.06776721 -0.033175934 3.4016727e-24 -1.3599086e-24 7.6791215e-24 -0.005837836 -8.639538e-22
-0.0001433504 -3.4313515e-19 -0.09004497 -0.0073147733 1.4664052e-24 -6.818115e-10 -2.4786007e-22 4.105938e-22
-5.2871935e-24 -2.7674534e-24 -4.787791e-09 -1.0439171e-05 -3.114512e-08 1.7497361e-23 -5.1182116e-08 5.0856604e-24
-4.1604236e-24 8.738259e-24 4.3456005e-20 -7.4772447e-25 3.1740873e-21 5.1953338e-24 -9.002093e-07 -5.2402207e-19
-9.760887e-07 -0.25374955 -0.001792005 -0.28146222 0.7339244 0.41478834 -0.17874172 -0.0056437794
0.0717157 0.59185094 -1.1327121 3.4261488e-23 1.6376633e-09 1.7584108e-06 0.3402484 0.0046791486
0.2738078 3.2119203e-06 0.78778416 0.73294204 0.06293126 -0.005022937 0.00024926383 -0.91715884
-0.9022614 -0.45151517 -0.61874616 1.1374767e-17 0.05324102 -0.20812473 -0.25709766 -9.647728e-25
1.4157585e-09 -0.004651316 -0.534371 3.5219052e-12 0.7046785 4.7044924e-07 -0.03870969 -0.10038329
-0.32927647 -0.0048881196 0.00020416957 0.01586644 -0.87571025 0.9876018 -0.23778431 -0.0012328643
0.6434039 0.59504724 -0.43036017 1.036944e-22 -1.2748261e-22 -0.0041226074 0.044913888 0.0001371401
00000000: dcda f13e f653 1ebb 7439 71ba d494 16bf
00000010: 4f3a 163f 16b9 cabd f665 cbbe f1eb cd9a
00000020: 7e15 0bbf f3d0 8a3f 1b8c 4b3f 2d59 cd98
00000030: b185 6231 2a59 2b38 b34d dabe 6df8 993b
00000040: a07a 18be 2d92 70ba 3ebe 8bbe 2215 183f
00000050: a18d debc 5cd9 7dba 6d13 8eba 5573 b4bd
00000060: c056 fc3a 63ba 42bf be22 853d 2583 c03c
00000070: bc3c 52bc 0836 1abf c0c9 1d3f 3550 27b2
00000080: 20e9 b7af 6e63 96a4 eba4 233d fe65 473a
00000090: a310 183e fa75 ab1a db11 0e3f 9d3a a5bf
000000a0: 7493 873e dde8 3ebd d7db 5bba d480 163e
000000b0: 2b84 3b3f 66bd 12bf b947 8ebe 9459 cbb7
000000c0: f663 ebbe 270e 103f b164 97bf c7c1 e698
000000d0: 202b 35b0 dc61 3a29 0adc fe3d 8465 3f39
000000e0: e054 a7be 1a80 039d 0da5 9a3f 830a 41bd
000000f0: 5f8e 1a3f f022 e4bd 0ec1 e0b9 7ece 583f
00000100: 2f1c 49bf a357 4ebf d046 3e3f 27c6 b89c
00000110: a507 793f 27fe 073f 0f04 4d3d e13a 7e1c
00000120: 44eb 6818 8d33 48ad 5204 1fbf b7d1 b034
00000130: c5ee 70be 4767 a99f fa48 75bf bfc8 9c3e
00000140: 1cc6 a034 1609 9abd 27c1 ec3a 3ade adbe
00000150: 4ae8 95bd 3cde dfbc 302a 42bf 7fa7 983a
00000160: 990a e83d 20ad 893e 5fd0 6cbc 8196 a618
00000170: feb8 0ab1 f111 01b9 a96a 5b3e b6ae 2fad
00000180: 3e27 68bf 22ba 3c30 942d bbbd 1489 f83e
00000190: 2d0f 47ae 57f1 9498 6bce 779a 9f4b 9abe
000001a0: 694c ca99 ba9c e4be 7564 82be 142e 9c18
000001b0: bc94 97bd cabf b8be 186f f3be f7a2 5419
000001c0: 501e f898 70d3 4198 adeb 15bd c9a4 b298
000001d0: 4299 17bf 4e4f ad97 b1e8 cbbe f257 0bbe
000001e0: 8a7d 843e 67ab e6bc 1585 6938 51b3 4fbf
000001f0: 94c1 983e d321 72bf 42d8 e03e a0d8 c73b
00000200: 652f a63e a749 ab3d c3df 793e 6239 c6a6
00000210: bd38 361a 4bf1 afa5 1970 2ebe c135 66b7
00000220: 47b9 fcbe 4621 2119 1c30 98be 9647 a6bf
00000230: 53b4 ca17 7191 83b2 973e 4618 967f beba
00000240: 4032 2797 1f1b 6628 b5a4 b9ba 2661 94b4
00000250: 58f9 f729 f315 07bc 06bf 1eb9 2576 9d17
00000260: ac39 2518 5706 c498 8e36 15a7 7186 e118
00000270: 6ca0 15b9 fcbf 9f18 06c3 3eba 093d 48a7
00000280: fa64 6498 a48f 0d99 8f0e 9c18 0daf 86bb
00000290: 209e a396 1646 ad39 1163 9abd a9af 5018
000002a0: d696 213c 89c9 8abd 7de3 07bd 8998 8318
000002b0: 886f d297 2b89 1419 514b bfbb 988e 829c
000002c0: 5450 16b9 1e8d caa0 7f69 b8bd c4b0 efbb
000002d0: 4bea e217 386a 3bb0 7dd2 959b 5030 f81b
000002e0: d489 cc98 101f 5698 db81 a4b1 e623 2fb7
000002f0: 6cc4 05b3 5e39 a919 55d3 5bb3 f1bd c418
00000300: d7f2 a098 c305 2919 1637 4d1f d668 6797
00000310: c7d3 6f1d 18fc c818 e9a5 71b5 fda9 1aa1
00000320: 2702 83b5 76eb 81be b6e1 eaba d11b 90be
00000330: 78e2 3b3f 235f d43e 1208 37be 74ef b8bb
00000340: aedf 923d 8b83 173f b6fc 90bf abad 251a
00000350: 2814 e130 8902 ec35 0a35 ae3e 8b53 993b
00000360: 8930 8c3e 5f8c 5736 39ac 493f 17a2 3b3f
00000370: 1be2 803d 7397 a4bb a0af 8239 ecca 6abf
00000380: 9afa 66bf ff2c e7be 2666 1ebf d2d3 5123
00000390: 4113 5a3d a61e 55be 4ea2 83be 974a 9597
000003a0: 9394 c230 116a 98bb 8acc 08bf 01d5 772c
000003b0: cf65 343f 0d92 fc34 0d8e 1ebd c195 cdbd
000003c0: ed96 a8be 852c a0bb 5a16 5639 56fa 813c
000003d0: 8c2e 60bf 79d3 7c3f bb7d 73be 1098 a1ba
000003e0: 1eb6 243f 0455 183f 2b58 dcbe bab7 fa1a
000003f0: f51d 1a9b f016 87bb a0f7 373d 44cd 0f39

D_Linears.1.bias f4 [20]
0.027790863 -0.30259454 0.09875602 -0.8687426 1.579004 -0.6045182 0.04499715 -0.0038472603
-0.12708515 -6.66983e-05 -0.26877755 0.88746226 -1.0253744 0.901267 -3.4972328e-07 -0.51968646
0.6382212 0.111352615 -0.10090753 -0.6977138
00000000: aaa9 e33c aced 9abe 9940 ca3d ea65 5ebf
00000010: ce1c ca3f b4c1 1abf ee4e 383d 5122 7cbb
00000020: 9c22 02be 61e0 8bb8 369d 89be ba30 633f
00000030: 783f 83bf 6fb9 663f 9ac1 bbb4 2c0a 05bf
00000040: 7762 233f d70c e43d 9ba8 cebd 5f9d 32bf

D_Linears.2.weight f4 [5, 20]
-0.44980764 0.5358312 0.40226394 -0.18474434 0.5035535 0.03152651 0.23429367 -0.00073837565
0.018355034 -6.686227e-24 -0.4031852 -0.35549256 0.004064803 -0.3776407 -3.1226238e-16 -8.960883e-10
-0.35178888 0.38385656 0.010599056 0.23608838 -0.22669537 0.26469618 -0.06187356 -0.19617324
-0.6844121 0.27611163 -0.44531628 0.00044722162 0.020801648 2.492572e-23 0.17533995 -0.4553158
-0.16967419 -0.3064369 2.098183e-17 -0.13910605 -0.117768705 0.55812466 0.015844831 0.35453984
-0.3814109 0.3678075 -0.25759366 0.22539902 0.4744005 0.44130754 -0.46549198 0.004232973
-0.007878299 -2.4789009e-22 0.15930451 0.10361543 0.88179106 -0.45027724 3.2478142e-23 0.017574796
0.9322381 -0.049221613 0.0075553274 -0.1122617 -0.040077176 0.25193805 -0.13071738 -0.97379977
0.14147784 -0.13264264 -0.44596577 0.0017762533 -0.035124145 -3.297996e-24 0.16163112 -0.42335004
0.55624974 0.98677444 1.0537417e-23 3.8543393e-13 -0.4372796 -0.16047159 0.021279624 0.7736373
0.820937 0.21168104 0.71252465 -0.41927335 0.03434024 0.19720428 0.021053843 -9.0664034e-05
-0.0026282505 -1.9027118e-23 0.58676 -0.5016455 -0.36827496 -0.059537977 8.470009e-22 0.09284074
-0.045940936 0.28262466 -0.0046952143 -0.38985208
00000000: 304d e6be 3c2c 093f 8af5 cd3e 9f2d 3dbe
00000010: e2e8 003f f121 013d aeea 6f3e 8d8f 41ba
00000020: 4c5d 963c 9854 0199 4a6e cebe 1f03 b6be
00000030: 0a32 853b 1f5a c1be cb01 b4a5 9c50 76b0
00000040: ac1d b4be d988 c43e aaa7 2d3c 27c1 713e
00000050: d522 68be 4286 873e 216f 7dbd a3e1 48be
00000060: a235 2fbf 815e 8d3e 7f00 e4be 1279 ea39
00000070: 3868 aa3c 1811 f119 518c 333e 271f e9be
00000080: 12bf 2dbe 4ce5 9cbe f285 c123 d171 0ebe
00000090: b830 f1bd 42e1 0e3f 05cd 813c 3f86 b53e
000000a0: 4a48 c3be 4451 bc3e 51e3 83be 00cf 663e
000000b0: 9fe4 f23e 10f3 e13e f754 eebe c0b4 8a3b
000000c0: fb13 01bc 22d7 959b b920 233e 5434 d43d
000000d0: 0fbd 613f bd8a e6be fe0d 1d1a 05f9 8f3c
000000e0: 28a7 6e3f 9a9c 49bd ae92 f73b 76e9 e5bd
000000f0: f727 24bd 06fe 803e c7da 05be f14a 79bf
00000100: 91df 103e 79d3 07be a055 e4be 2cd1 e83a
00000110: 56de 0fbd 8a2b 7f98 a182 253e 56c1 d8be
00000120: 6266 0e3f 409d 7c3f c3d2 4b19 e2fa d82a
00000130: 1de3 dfbe aa52 24be 9b52 ae3c 180d 463f
00000140: ed28 523f eac2 583e 0468 363f ffaa d6be
00000150: 5aa8 0c3d ebef 493e 1c79 ac3c e222 beb8
00000160: ba3e 2cbb dd04 b899 e735 163f d76b 00bf
00000170: 898e bcbe 18de 73bd 85fd 7f1c 4923 be3d
00000180: 902c 3cbd 2eb4 903e 50da 99bb b19a c7be

D_Linears.2.bias f4 [5]
0.26773477 0.5123876 -0.7594346 -0.79631525 -0.6413636
00000000: 8814 893e d52b 033f 4e6a 42bf 51db 4bbf
00000010: 6830 24bf
