data/MTMR_28002/real/uniform/N5/D5/dual/result/model/ReLuNet_KD_MLSE4POL.pt (torch_old, 11374 bytes, 8 tensors)

linears.0.weight f4 [30, 5]
00000000: d236 16be 2e74 56be d077 693f dee4 a4be
00000010: 9649 313e be05 4c3e 765e 453e 5747 693f
00000020: dbf1 4ebf cad4 333c cb28 033e ec2a 0a3e
00000030: cf6e 323d 7393 7fbf e8d1 f6be 412b 992f
00000040: c40e afb0 6372 b8b2 e20a e926 1c9d 2f2c
00000050: 2d97 ac3e c925 9d3e e595 d4bf 9bcc 2d3e
00000060: 12ee 58bc 23a0 003e cd15 aa3d c58a 83be
00000070: 9346 483f 9d0c 06bf e277 a039 7f87 1d36
00000080: d4e7 e9b6 bf3b 3536 6dcc 8833 a5b7 073f
00000090: 3834 f43e afd1 81be c7d3 6ebf 78f4 c03d
000000a0: 6e86 813e 0f33 573e 579c 87be c7a9 543f
000000b0: 8608 af3e 8982 b73e 0a81 bf3e 98c9 d7be
000000c0: b235 a93f 240d 2e3d 7c56 0e3e ef9d 053e
000000d0: 4c17 893e 828d 753f a3da c0be 82e7 74bf
000000e0: 4fdb d83d 4454 553d e8d9 123c c463 7fbc
000000f0: 4a12 a6be 8bfc a0be f411 6fbf 8f23 39be
00000100: ca28 1b3c fcd3 b9be 3ba1 b0be 697c 003f
00000110: 0b69 c23f f449 ad3c eea8 f8be bc58 abbe
00000120: 22b3 7dbf 2bd9 08be 526f 27be 35ef 8cbe
00000130: d062 adbe fb0d a4bf 1fcc a33e 824c 5e3c
00000140: 7c21 17bf 864a 13bf d1aa 7c3f 9773 883e
00000150: f575 f8bd 8add 41bd a286 ae3a 92c5 0e3d
00000160: 1f03 d2bf e8d4 b73c c429 d1bd ac0a 90bd
00000170: f84f 293e 16db 33bf 6f78 fa3e b4df d43e
00000180: ad8a c33e 4cee a23f 4633 5d3e 8fc6 fcbc
00000190: 7b14 d73e 6669 c93e ffbe 713d 95fb 1a3f
000001a0: 9591 f9bd a2ad 843e 972d 863e e42b 86bf
000001b0: 7991 b53e bbe5 27be ecb6 31bf d5b1 1ebf
000001c0: 8504 7d3e 7660 dcbc 9682 3a3d ef06 713e
000001d0: f26f 5d3e 35fc 2e3f f690 2dbf 7fe4 3abd
000001e0: 8614 563c bbb7 333b 2107 86bf d530 85bf
000001f0: e2e3 4cbd 32bd df3e 3b19 aabd b0e7 e0bc
00000200: ded4 9bbc a0b6 3c3a cf85 d939 f777 f5b9
00000210: d185 e4b8 697d 0238 9cfb f236 c004 76be
00000220: f478 81be 1456 1d3e bed4 87bf d6ac 923c
00000230: 293f e13e 46a2 e43e 8033 67bf 1c16 8ebe
00000240: 8a08 be3d 45e5 443d aa73 6a3d b776 15be
00000250: a932 793f 217c bb3e
-0.1466935 -0.20942757 0.91198444 -0.32205862 0.17313227 0.19924065 0.19274315 0.9112448
-0.8083779 0.010976026 0.1280853 0.13492936 0.043562707 -0.99834365 -0.4820702 2.7861272e-10
-1.2737122e-09 -2.1472436e-08 1.6170573e-15 2.495621e-12 0.33709088 0.3069289 -1.6608244 0.16972582
-0.013240354 0.12561087 0.083049394 -0.2569181 0.7823269 -0.52362996 0.00030606898 2.3473692e-06
-6.9709295e-06 2.7005879e-06 6.370178e-08 0.53014594 0.4769609 -0.25355288 -0.93291897 0.09421629
0.25297874 0.21015571 -0.26486465 0.8307156 0.3418619 0.35841778 0.37403136 -0.4214599
1.3219512 0.042493 0.13900179 0.13048528 0.26775587 0.9591905 -0.37666807 -0.9566575
0.10588705 0.052082315 0.008963086 -0.015587751 -0.32435828 -0.31442675 -0.9338677 -0.18079971
0.009470174 -0.36294544 -0.3449801 0.50189835 1.5188307 0.021153428 -0.48566383 -0.33466136
-0.9910146 -0.13364093 -0.16351059 -0.2752625 -0.3386445 -1.2816767 0.3199167 0.013568046
-0.5903547 -0.5753559 0.98698145 0.26650688 -0.121318735 -0.047330417 0.001331527 0.034856386
-1.6407202 0.022440389 -0.10213044 -0.070332855 0.16534412 -0.70256174 0.4892001 0.41576922
0.3819174 1.2728972 0.2160159 -0.030856399 0.42007813 0.39338225 0.05902004 0.60540134
-0.12185971 0.2591372 0.26206657 -1.0482144 0.3546255 -0.16396229 -0.6941974 -0.619901
0.24708755 -0.026901465 0.045534693 0.23537801 0.21624735 0.6835359 -0.6779932 -0.045628067
0.013066417 0.0027422744 -1.0470926 -1.0405527 -0.050022013 0.43699032 -0.083055936 -0.027454227
-0.019022401 0.0007198844 0.0004148916 -0.00046819422 -0.000108968125 3.1111213e-05 7.241453e-06 -0.2402525
-0.25287592 0.15364867 -1.0611799 0.01790468 0.439935 0.44655055 -0.9031296 -0.27751243
0.092789724 0.04807021 0.057239212 -0.14596067 0.97342926 0.3661814

linears.0.bias f4 [30]
00000000: 0369 54bf 7e48 c6be 4d6b 06bf d255 6fb6
00000010: 0dd7 09c0 3aad 423c 12c9 6aba a576 a6bf
00000020: 4788 abbf 8640 a0bf 2cda 67bf f084 22bf
00000030: aa86 d13e 0132 dcbf 9b97 b9bf f0ee d93d
00000040: d010 46bf 1fb0 c4bf b3e2 9abc 8863 23bf
00000050: 93e4 9ebf d906 28be 52e5 5dbf c120 45bf
00000060: b583 91bf 63d3 8e3e ed45 29bb 841f 2e3e
00000070: 5953 483f 4bc6 143e
-0.82972735 -0.38727182 -0.5250748 -3.566373e-06 -2.1537507 0.011882121 -0.00089563534 -1.3004957
-1.3400964 -1.2519691 -0.9056728 -0.63484097 0.40923053 -1.720276 -1.4499391 0.10641277
-0.77369404 -1.5366248 -0.018906927 -0.6382375 -1.2413505 -0.16408862 -0.8667804 -0.77003103
-1.1368319 0.2789565 -0.0025829033 0.1700421 0.7825218 0.14528768

linears.1.weight f4 [30, 30]
00000000: 2f37 0080 71a0 0180 a439 0100 a713 0b00
00000010: d233 0180 e7d4 c09a 826a 0000 5a5a 0100
00000020: fd66 0000 ab0b 0000 f00e 0200 25ff 0000
00000030: be85 47ae a0cb 0080 9bf2 0000 a28b baad
00000040: d90f 0100 002a 0200 c228 0080 5d33 0200
00000050: b6f1 0000 4b3c f4ae bf95 0080 3dbf 0000
00000060: de15 0080 5c4b 0180 ff9e 0080 21c3 0080
00000070: d3e4 83b1 40f8 7487 dfb9 21bd ec55 9d3c
00000080: 19f2 473d 9078 32a4 7800 1dbd 86d0 1e39
00000090: 4913 0100 f716 a53c bfb7 31bd 281b c1bb
000000a0: bb40 5b3d e8c0 933f 421e 1e3c dc27 03bd
000000b0: 2812 643d b135 4ebd 287c f5bc c556 21bd
000000c0: 9c3a c63c 6e3e 753d c5af 233d 10f5 b43b
000000d0: c969 183d 8f11 073c 2d7c 05bd 785e 87bf
000000e0: 05bf 3a36 6c99 7abb 2393 e33d 408b 5a3d
000000f0: 19cc 7bbe dad9 12bf 855f b43d 1d18 0325
00000100: 9b68 2fbc 0de4 1f3f a42b 0000 4761 b189
00000110: 4fe0 8e3d d9cd 8f3e 56a9 853d b468 163d
00000120: 412e ed3d 249d 4c3e e1ea a9bc a939 8dbe
00000130: b805 2abe eb55 7abd b9f4 a4be 3568 283e
00000140: 86a1 a73d 7c83 20bf ce1b 09bf d8dc 87be
00000150: 18bb 593b d2f3 aebc 4b30 de30 6827 cabd
00000160: adb9 56bf 21d4 013f 9dc9 4d0e 4758 45af
00000170: 71d5 d216 7010 ac00 b55c 3783 88f0 9187
00000180: 6951 0000 b345 7884 d6a5 f281 2883 da03
00000190: 4ed4 ab02 8020 de84 e3b2 5eb5 ec85 0003
000001a0: 5fb0 8683 5fdf d4b0 7bbc 0c08 e8e9 7905
000001b0: 444b 81af 38dc 5298 13fe 6283 54e2 b0a8
000001c0: a469 5904 e2d9 ac9e 81c9 0d12 ad34 439f
000001d0: 9676 0000 49f6 2eb7 19ca 86b8 b69e a511
000001e0: 4898 06a4 da37 3dba b5ad 76be f890 cea2
000001f0: 3384 383f ca1e 84be f378 2730 67a9 ddbe
00000200: 7ef2 183f 7ae2 f23e 7eb9 08bf bae2 aebc
00000210: baba 34be a985 97be 7fe4 a43f 50da 6e3e
00000220: 4fc7 cfbe d430 94bd a4bf f0bc c0db 9ebe
00000230: 94c9 763d eaa2 e43e 76fd b13e 8907 0000
00000240: a6dd 76be f0c4 deba 15c0 e935 eb51 8cbe
00000250: c696 853e 5e35 9f3e 4be9 c9ab 5ac8 492e
00000260: fa78 90b8 109b 9521 30fd feae 05d3 35bd
00000270: 522a 0280 d625 f5b7 8abd 912b d3e4 c4b9
00000280: c2c1 7ead 22c5 a1b7 883e b8be 3839 e32d
00000290: 6c60 632e 44b6 bbbe 2ea2 af2d c4f8 a62e
000002a0: 9674 ffb4 2855 ff2d 1c73 b02c ea4b 5abe
000002b0: 6ec0 6c2c 1dad 442d 061e 83bb d684 b9bc
000002c0: 0f98 0100 455b 07bd 96dc 0fbf 56de 95bd
000002d0: 12c9 35bd 82b5 1f3f d461 b23d 6d0f 92a4
000002e0: bb61 083d ff4a 4ebe 21c8 8daa af4a 55be
000002f0: 68da 933b 4c0f 05bf 5ee6 77be a0b6 21b9
00000300: 5ec6 19bf 37aa 2c3f 3bc5 a128 210d 5ebe
00000310: 35ee 4a3c f927 9dbe 7840 753d 516b 4c3f
00000320: 4aad 0cbe 73cb 64be 62eb c23e bb92 343f
00000330: b65f c0be 92bc 4e3d 1f9e 0080 79d9 d2be
00000340: d9a3 aa3e 423f 03bf 898d 0080 7c36 0100
00000350: c339 0080 412c 0280 5667 0000 a3a1 14a7
00000360: 4d48 0080 3f1c 0200 e36d 0080 3512 3310
00000370: fe9c bb9a 583c 0080 243d 0000 cb0f 0000
00000380: 5151 0100 cf10 0080 e809 0000 d018 0200
00000390: 0662 0080 4f48 f10d 3723 0000 6790 35a5
000003a0: 57f8 0100 8049 0180 2abf 0080 ba8f 1c00
000003b0: 9b35 0200 3f5b 0080 30c1 c09e 9fc0 44af
000003c0: 0004 0bbf 4567 253d c32b ecbe 818a 25a4
000003d0: 1e5a c03d b668 de3e 4c19 671e bf77 27bd
000003e0: d02c 79be 46aa 19bf d9e8 043e e0ca 303c
000003f0: 4425 0d3f b939 92bf a4ef a8be 359f 163e
-1.9796e-41 -1.49391e-40 1.12513e-40 1.01724e-39 -1.10425e-40 -7.97533e-23 3.8208e-41 1.24248e-40
3.6945e-41 4.186e-42 1.8903e-40 9.1529e-41 -4.536615e-11 -7.3047e-41 8.703e-41 -2.1207761e-11
9.752e-41 1.98738e-40 -1.4621e-41 2.02097e-40 8.671e-41 -1.11065455e-10 -5.3719e-41 6.8603e-41
-7.844e-42 -1.1887e-40 -5.7037e-41 -6.9999e-41 -3.838616e-09 -1.8429474e-34 -0.0394839 0.01920601
0.048814867 -3.8699718e-17 -0.038330525 0.00015145735 9.8754e-41 0.020152552 -0.043388125 -0.00589313
0.05352853 1.1543245 0.009650769 -0.032020435 0.055681378 -0.050344173 -0.029966429 -0.03938939
0.024197869 0.05987399 0.03996255 0.005522378 0.03721026 0.008243932 -0.032589126 -1.0575705
2.7827348e-06 -0.003823842 0.111120485 0.053355455 -0.24589576 -0.57363665 0.088072814 1.1370609e-16
-0.010706092 0.6245735 1.5655e-41 -4.270268e-33 0.06976377 0.28086737 0.06526439 0.036720946
0.11581088 0.1998182 -0.020741882 -0.27583054 -0.16603744 -0.061117094 -0.3221796 0.16446002
0.08185105 -0.6270063 -0.5355805 -0.26535678 0.0033223089 -0.021356497 1.6166352e-09 -0.098707974
-0.8387707 0.5071431 2.5365274e-30 -1.7948408e-10 3.406203e-25 1.5801602e-38 -5.388529e-37 -2.1958547e-34
2.9204e-41 -2.9184264e-36 -8.9134723e-38 1.2843e-36 2.5248049e-37 -5.2221796e-36 -8.296176e-07 3.7769554e-37
-7.916305e-37 -1.5488516e-09 4.2351275e-34 1.17508855e-35 -2.3518443e-10 -2.7253046e-24 -6.6707094e-37 -1.963808e-14
2.5556735e-36 -1.8301323e-20 4.474013e-28 -4.133643e-20 4.254e-41 -1.0428551e-05 -6.4272615e-05 2.6130223e-28
-2.9185605e-17 -0.00072181004 -0.24089701 -5.5989904e-18 0.7207672 -0.2580474 6.0926125e-10 -0.43293306
0.59745014 0.47438413 -0.5340804 -0.021348346 -0.17649356 -0.29594162 1.2882231 0.23325467
-0.40581748 -0.07235876 -0.029388256 -0.3102703 0.060250834 0.44655544 0.34763688 2.703e-42
-0.2410799 -0.0016995948 1.7415756e-06 -0.27406248 0.26091594 0.31095403 -1.4346661e-12 4.5880057e-11
-6.888989e-05 1.0137677e-18 -1.1595558e-10 -0.044390697 -1.98853e-40 -2.9223895e-05 1.0355477e-12 -0.0003755452
-1.4481251e-11 -1.9284493e-05 -0.35985208 2.5832322e-11 5.1699464e-11 -0.36662495 1.9967219e-11 7.592996e-11
-4.758228e-07 2.902796e-11 5.0150006e-12 -0.21318021 3.3644437e-12 1.1179749e-11 -0.004001382 -0.022646349
1.46384e-40 -0.033046026 -0.5619596 -0.07317798 -0.04438121 0.62386334 0.087100655 -6.334354e-17
0.033296328 -0.20145796 -2.51855e-13 -0.20829271 0.00451212 -0.51976466 -0.24208972 -0.0001542219
-0.6006831 0.6744723 1.7960126e-14 -0.21684696 0.012385895 -0.3069456 0.059875935 0.7985125
-0.1373798 -0.22343235 0.38070208 0.7053639 -0.37573022 0.050472803 -5.6723e-41 -0.41181543
0.3332813 -0.512684 -5.0773e-41 1.11381e-40 -2.0721e-41 -1.99546e-40 3.707e-41 -2.062675e-15
-2.5937e-41 1.93804e-40 -3.942e-41 3.5315552e-29 -7.759502e-23 -2.1647e-41 2.1933e-41 5.665e-42
1.21006e-40 -6.03e-42 3.554e-42 1.92572e-40 -3.5164e-41 1.4870179e-30 1.2633e-41 -1.5748173e-16
1.80923e-40 -1.18202e-40 -6.8577e-41 2.622953e-39 2.02901e-40 -3.2733e-41 -2.0408691e-20 -1.7894529e-10
-0.5430298 0.04038169 -0.46127138 -3.589599e-17 0.093921885 0.43439263 1.22342694e-20 -0.040885683
-0.24333501 -0.6002544 0.1297945 0.010790557 0.5513499 -1.1423866 -0.3299533 0.1470917

linears.1.bias f4 [30]
00000000: 2794 2daa b3ad 7a3f bbd4 0b3f 8b92 f4b7
00000010: 22a4 80bf 59b6 b3be 4a63 013e 1f39 7caa
00000020: 2199 0c3f 3c2d 4aba 5cbc 713d 6aec c1ad
00000030: 1acc fc3d af05 a43e 85f1 37bf c435 77be
00000040: d138 4097 68ab 8ebf 58d9 ed98 fc39 c63d
00000050: f9f9 35bf cd9e 2ebe 5519 0a3b 5ac2 98be
00000060: 03a1 17bf 3554 8cb7 247f 513f f6fe 93bf
00000070: 0dcc 2ebf 4467 5abe
-1.5416887e-13 0.97921294 0.54621476 -2.9155306e-05 -1.0050089 -0.35100058 0.12635532 -2.2401914e-13
0.54921156 -0.0007712429 0.059017524 -2.2046549e-11 0.12343617 0.32035586 -0.71852905 -0.24141604
-6.211026e-25 -1.1146059 -6.1482525e-24 0.096790284 -0.71084553 -0.17052765 0.0021072228 -0.29835778
-0.5923006 -1.6728512e-05 0.81834626 -1.1562183 -0.68280107 -0.21328455

linears.2.weight f4 [30, 30]
00000000: 9b6c 0080 42c0 2a3c 90f6 8bbe f8ea 0ab8
00000010: 03d7 b5bd 4f9d 0bbb d01a c03e e108 0000
00000020: e2e4 c7be f500 919e b9ea 40bd 0afa 4c80
00000030: 2c1f bbbe ad48 0c3f 7a0a 75bd bd31 dabe
00000040: 5a15 0000 13fa 24be ee24 0080 3af3 c6be
00000050: 3f89 5e3f 1e76 80b9 747e 02be e6dc 56be
00000060: 8e4d 06be 722a 34aa 8ef4 ef3c 4865 f53e
00000070: 657c 063f 0282 15be 1e95 1bb8 43a5 b5b4
00000080: 9cf4 0000 0e21 d42c 592b 0080 7f24 0200
00000090: 5ef2 63a3 79ed 0000 c482 0080 f13a 0100
000000a0: 68bd 4b00 a19c 0180 0c45 0180 e943 0100
000000b0: b504 0280 83ac 0000 663e 0180 e20c 0100
000000c0: 0786 0000 563f 0000 c564 e2ac d539 0a00
000000d0: 2138 0180 aaeb 33af 0eb7 42a3 0a0b 0080
000000e0: c987 f1b5 b75d 251f 51a4 0100 7410 d603
000000f0: ab59 0000 5fd3 38bd e5db 7dba 5980 0700
00000100: 45b4 46ab 69f8 7d96 fc06 33bd 6dd9 0180
00000110: 2157 05bd 2482 0080 32a2 9a2d 0425 0180
00000120: 2cd2 e5b9 b89e b5b8 594c 7fb8 9f34 9d2b
00000130: f164 0080 5b2e b6b1 dec9 0100 069c abbc
00000140: 831c 92b6 18eb 1d1f 8472 46bd 86a5 89b8
00000150: 0999 8dab ae83 1326 0a05 83bd 089a 52a2
00000160: 557b 57a8 f2c2 d7bd 6138 1233 be42 22bd
00000170: 77e1 a23d a220 d2bb 7475 0a3f c7d9 82bf
00000180: 3410 2cbf bfed 0100 3a88 593f 3ba3 dbac
00000190: fdef 0b3e aca6 3c8b 1321 903e b28e 60bf
000001a0: 0cad debe d915 743e c32e ea9f 04a8 ce3a
000001b0: a9ab a188 fb4b 113f 7560 093f 2852 6cbb
000001c0: f88a 0dbe 9287 113e 8d5d 67be 4df5 6f36
000001d0: c81b c13e fb92 5f3d 7e2f 2abe 03d2 2bbd
000001e0: b4b6 40a9 62bb bebe 0e4e 80be a26c f82d
000001f0: 430a 27be a8d4 29aa e762 97be d479 d5b7
00000200: 5d69 0fbf fc7c 20b0 e68b e3be ad76 1480
00000210: 3255 93be 6c76 57be 0744 293e 8901 51bd
00000220: a42a 0200 3797 0ebd 0c50 b5b3 f3da 9bbe
00000230: d5b8 c3bd 94a6 042c 0c9e debe 9d0b 5bbe
00000240: 30e1 bebd 786f 3c39 8693 e6be 1311 5b39
00000250: 421e c73e e0fa 7cbe 8da2 0000 a0ab 87bd
00000260: f62d 6abe fece 782f d2e6 1bbf 478b 373b
00000270: f379 31bd bb18 0000 00ab bebe ad9e e326
00000280: 5092 e03e f812 5500 5b48 823e 21b9 013f
00000290: be6b 043d f02c 97bd 447f 0180 ff3d b6bd
000002a0: 6c22 0000 b0de d1bd 5d01 eabe c61f 0dbb
000002b0: a5dd 053f ffa1 0bbe 5d15 583f 772c 7cab
000002c0: 7086 b0bb c9e9 77be 50b5 5ebe 8bd4 53be
000002d0: ee7f 0080 d04d 433d 6d2a 28bf 80e1 df0a
000002e0: 746c 9cbf d0f9 42ba 3b35 b83e 4d56 0000
000002f0: 236f 1d3f 6407 0080 2184 0d3e db70 2800
00000300: 255e 8f3e 4f4b 8dbd 2e6b 2c3f 7c04 52bd
00000310: 5864 0180 9ed5 133e 3124 0000 ae2e 67be
00000320: e451 8cbe c8bc 253a 2ae4 3cbb c0bb e3be
00000330: ae5a 20bf 6aeb 8da9 1e6c 8cbe 0b31 ccbd
00000340: 6335 ae3e e4d9 0bbf 77c5 0000 3c26 4db8
00000350: 7a74 dab8 7556 0b80 7c2e 0080 a91d 0280
00000360: 9bb7 8db7 e6a4 0000 9059 37b7 eae8 0080
00000370: 1173 8a33 7249 0180 f6a0 0100 4e10 28af
00000380: 2161 3684 b1de 0000 5d24 0100 71fc 0bb8
00000390: 8c7c 0000 cd51 05a7 2520 90a1 d659 0000
000003a0: 9f54 8dba d69d 7db4 0e49 088e fd8f 0080
000003b0: 5b08 fab8 a1ca 0080 0a9b 0080 8ea5 efa7
000003c0: 99ee 0000 8646 3cbd ed80 1eb6 3710 8e00
000003d0: ca61 0cb3 0cf4 6734 21a4 91b9 acb7 3535
000003e0: 26d4 87b5 6322 0080 8054 a58b d383 1b80
000003f0: 64bb 22ba 805e bcb1 62b0 d1b7 dff3 0087
-3.896e-41 0.010421814 -0.2733655 -3.3120596e-05 -0.08878901 -0.002130348 0.37520456 3.185e-42
-0.3904181 -1.5352868e-20 -0.04709885 -7.069195e-39 -0.3654722 0.54798394 -0.059824444 -0.42616072
7.66e-42 -0.1611102 -1.3248e-41 -0.38857442 0.8692817 -0.00024502067 -0.1274355 -0.20982704
-0.13115522 -1.6001938e-13 0.029291417 0.47928834 0.5253356 -0.14600375 -3.7093756e-05 -3.383412e-07
8.775e-41 6.029072e-12 -1.555e-41 1.96763e-40 -1.2357018e-17 8.5189e-41 -4.691e-41 1.1298e-40
6.955608e-39 -1.48023e-40 -1.16605e-40 1.16197e-40 -1.8536e-40 6.1886e-41 -1.1422e-40 9.6457e-41
4.808e-41 2.272e-41 -6.434494e-12 9.39101e-40 -1.11971e-40 -1.636368e-10 -1.0555524e-17 -3.96e-42
-1.7995418e-06 3.5017628e-20 1.50781e-40 1.2581567e-36 3.2167e-41 -0.045123454 -0.0009683951 6.88891e-40
-7.0593905e-13 -2.0515562e-25 -0.043707833 -1.69833e-40 -0.032553796 -4.6686e-41 1.7579802e-11 -1.05114e-40
-0.00043834874 -8.660316e-05 -6.0867842e-05 1.1170126e-12 -3.6211e-41 -5.302167e-09 1.64252e-40 -0.020948421
-4.3544583e-06 3.3440508e-20 -0.048449054 -6.5635e-05 -1.0061128e-12 5.117933e-16 -0.063974455 -2.854185e-18
-1.1961641e-14 -0.1053523 3.404455e-08 -0.03961443 0.0795316 -0.0064125815 0.5408547 -1.022271
-0.67212224 1.77123e-40 0.8497349 -6.2424766e-12 0.13665767 -3.6332873e-32 0.28150234 -0.87717736
-0.434914 0.23836459 -9.9180216e-20 0.0015766625 -9.730192e-34 0.5675656 0.53662807 -0.003605971
-0.13822544 0.14211872 -0.2259428 3.575656e-06 0.37716508 0.05458353 -0.1661968 -0.04194833
-4.2791034e-14 -0.37252337 -0.2505955 2.8242578e-11 -0.16312508 -1.5083995e-13 -0.29567644 -2.544831e-05
-0.56020147 -5.8385274e-10 -0.44442672 -1.879283e-39 -0.28775936 -0.21041268 0.16529857 -0.051026855
1.98968e-40 -0.03481218 -8.44303e-08 -0.30440482 -0.09556738 1.8850798e-12 -0.43479955 -0.21391149
-0.09320295 0.00017970602 -0.45034426 0.00020891828 0.38890272 -0.24705076 5.8312e-41 -0.06624532
-0.22869095 2.2629007e-10 -0.6089908 0.00280066 -0.04332919 8.872e-42 -0.37239838 1.5794298e-15
0.43861628 7.812822e-39 0.25445828 0.5067311 0.032329313 -0.07381618 -1.3749e-40 -0.088985436
1.2348e-41 -0.102475524 -0.45704165 -0.002153383 0.5229133 -0.13636015 0.844076 -8.959009e-13
-0.00538712 -0.24210276 -0.21748853 -0.20686547 -4.5893e-41 0.04768163 -0.65689737 2.1558943e-32
-1.2220597 -0.00074377377 0.35978112 3.0959e-41 0.61497706 -2.651e-42 0.13819934 3.713905e-39
0.28001514 -0.068991296 0.67351043 -0.051273808 -1.27832e-40 0.14436957 1.2983e-41 -0.225764
-0.27406228 0.0006322381 -0.002882252 -0.4447918 -0.62638366 -6.302496e-14 -0.27426237 -0.09970292
0.34025106 -0.5462935 7.0837e-41 -4.8911417e-05 -0.000104167455 -1.041205e-39 -1.6675e-41 -1.94311e-40
-1.6894008e-05 5.9154e-41 -1.0928503e-05 -8.3554e-41 6.447056e-08 -1.18183e-40 1.49577e-40 -1.5285304e-10
-2.1438597e-36 7.9887e-41 1.0488e-40 -3.3375287e-05 4.4679e-41 -1.8501802e-15 -9.766328e-19 3.2227e-41
-0.0010782665 -2.3619882e-07 -1.6798469e-30 -5.1653e-41 -0.00011922485 -7.269e-41 -5.5618e-41 -6.651532e-15
8.5593e-41 -0.045965694 -2.361888e-06 1.3046457e-38 -3.268523e-08 2.1602335e-07 -0.0002777884 6.769503e-07
-1.0120027e-06 -1.2336e-41 -6.368283e-32 -2.526848e-39 -0.0006207733 -5.4822635e-09 -2.4996876e-05 -9.701317e-35

linears.2.bias f4 [30]
00000000: 8f13 07bf 0dc3 e7b1 069e 29be 2255 6b3f
00000010: 8c2b e6be 426a a13e 920c 913f 785a 92b9
00000020: f8c4 afbd c98d a2bf 6047 da3a 8ecf 0bbf
00000030: 784e bab9 da6f 4dbc 41c3 69b7 e29f 5cbf
00000040: ea6b 683f f132 b0be 0371 49bf b6d5 313e
00000050: 885e cb3e ba3f eabb 5ee5 5bbe 90a4 15bb
00000060: 3979 e9b1 7cfd 55bf 25ec aabe 259d 4fbf
00000070: a698 c23f 2e2f d8bd
-0.5276422 -6.7451595e-09 -0.16564187 0.9192678 -0.449551 0.3152638 1.1331961 -0.00027914695
-0.08582491 -1.2699519 0.0016653351 -0.5461358 -0.00035535148 -0.0125388745 -1.3933343e-05 -0.8618146
0.90789664 -0.34413865 -0.7868807 0.1736668 0.3972056 -0.00714871 -0.21474215 -0.0022833683
-6.794974e-09 -0.8358991 -0.3338329 -0.8109916 1.5202835 -0.10555874

output_layer.weight f4 [5, 30]
00000000: 2214 223d 846b 0180 5449 0aba 515f acbc
00000010: c897 eb3e f3cc 01bd 532c 6f3d 82b5 3f37
00000020: db81 1abd 8175 f63d c2cf 12bf 1476 603c
00000030: 7fc0 6839 2707 58b9 a206 afb6 35e4 02bd
00000040: 77c5 4fbe cbdb ac3e ccc7 7a3d bb4d a5bd
00000050: a25e d63e 1d92 d6b7 f0fa dc3c cc2a f2ba
00000060: cc91 a228 fd37 46bd 5e2f 26bb 82fe 66bf
00000070: 7f0f c6be e5f3 5fbe 8988 843d 2c11 050b
00000080: acd1 04ba 437d 4abc c384 a83e d947 35bd
00000090: 1ded d43d cc73 a0b5 305c a2be c36e 283e
000000a0: 2219 743e 203b d7be f295 0eba bb7e 9339
000000b0: b66e 0bb6 ee9a e7bc 4577 77be e09f c73e
000000c0: 30cc 6d3d 65db 97bd 87b8 e73e 5810 ba37
000000d0: 764b 853e 48f5 8aba b56e 9228 7813 98bd
000000e0: 46aa 67b7 9bfe 90bb a023 f2be 79d2 96be
000000f0: c8c3 563d 84c6 a532 1789 ba38 8a94 87bd
00000100: a38e a8be c643 293d cd17 bd3e 4157 38b7
00000110: 9839 c03e fee5 94be 043c 41bd b673 89be
00000120: a4a0 23bb 4b87 49ad 9413 9335 f782 923d
00000130: 5dd1 a1be 205a 063f aeb3 d1be c523 be3e
00000140: 89b0 8c3d a33a ccbc 7d66 3abe eb87 39bc
00000150: 365f 4634 60a3 0e3e 756e 313c b7a4 6a3e
00000160: 23d1 f13e 4f55 59be 9269 633e a691 e685
00000170: d696 133f 391a 0dbe 5149 c03d 8e0a 1a3e
00000180: ccea 25bf accc 633a a39e 6fbe 9515 a3bd
00000190: 5c28 cbbb 8c72 39bf 71c3 1438 b95b 083e
000001a0: dc97 e8b5 a30e 623f 8fdf 383f 98e1 cb3c
000001b0: 4102 0ebf 3eff 1c3f c8a5 063f f31a 3d3b
000001c0: c90d 173c be4d 48b9 1e99 f0a6 770e 99be
000001d0: 6472 fbbc 2744 5b3f 5c0f 0ebc e12f 28bf
000001e0: 6fd3 14bf b9e8 cc18 6255 cb3e 6dcb 42bf
000001f0: 9084 a43d e887 073f c1b4 e03c be28 0b39
00000200: 1b4e 813e e653 0d3f 1d8b 403d 7ff0 8cbe
00000210: d788 3b39 7d93 a3bd 0b63 8f35 8b99 073e
00000220: 6a31 a4bb 9bc6 48be 3140 86bd f6cd 453c
00000230: eee5 88bd 101d 93b7 cbdc ad3e fba3 84b8
00000240: a389 15b4 b0a5 07bf 09f2 f03b ba58 adbe
00000250: 3c61 5ebd bc07 933d
0.03956998 -1.30405e-40 -0.0005275209 -0.021041544 0.46014237 -0.031689595 0.05839188 1.1426748e-05
-0.037721496 0.12034131 -0.57348263 0.013700027 0.00022196955 -0.0002060203 -5.2161786e-06 -0.031955916
-0.2029017 0.3376144 0.061225697 -0.080714665 0.41869074 -2.5578827e-05 0.026975125 -0.0018475889
1.8048842e-14 -0.04839324 -0.0025357823 -0.902321 -0.38683698 -0.21870382 0.064713545 2.5627787e-32
-0.0005066644 -0.012358966 0.3291379 -0.044257972 0.10396788 -1.195463e-06 -0.31710958 0.16448502
0.23837712 -0.42037296 -0.0005439214 0.00028132446 -2.0777056e-06 -0.028272118 -0.24166591 0.38989162
0.058056056 -0.07414893 0.4525797 2.2180539e-05 0.26034135 -0.0010601664 1.6257268e-14 -0.07425588
-1.3808318e-05 -0.0044248826 -0.47292805 -0.29457453 0.052432805 1.9298803e-08 8.894706e-05 -0.066201285
-0.32921323 0.0413244 0.3693222 -1.098757e-05 0.3754394 -0.2908172 -0.047176376 -0.26846093
-0.0024967575 -1.1455568e-11 1.0958051e-06 0.07153886 -0.31605044 0.5248127 -0.40957397 0.37136665
0.06869609 -0.024930304 -0.18203159 -0.011323909 1.8474825e-07 0.1392951 0.010829558 0.22914396
0.4722987 -0.21223949 0.2220824 -2.1682599e-35 0.5765203 -0.13779534 0.09388984 0.15043089
-0.64811397 0.0008689861 -0.23400359 -0.07963101 -0.0061998796 -0.7244041 3.546797e-05 0.1331624
-1.7329544e-06 0.88303584 0.72216123 0.024887845 -0.5547219 0.6132697 0.5259671 0.0028855174
0.009219595 -0.00019102448 -1.6694848e-15 -0.29893848 -0.030694194 0.8565087 -0.008670654 -0.6569806
-0.5813512 5.2967754e-24 0.3971358 -0.76091653 0.08033097 0.5294175 0.02742994 0.0001327125
0.25254902 0.55206144 0.04700767 -0.27527234 0.00017884687 -0.079871155 1.0683156e-06 0.13242166
-0.0050107734 -0.19607012 -0.06555212 0.012073031 -0.066844806 -1.7537299e-05 0.33957514 -6.324794e-05
-1.3926778e-07 -0.52987194 0.0073530716 -0.33856755 -0.05429195 0.071792096

output_layer.bias f4 [5]
00000000: 578a 383f e764 7bbe b030 a9be 8307 22bf
00000010: e2c0 8d3f
0.7208609 -0.2455021 -0.33044958 -0.6329271 1.1074488
