data/MTMR_28002/real/uniform/N5/D5/dual/result/model/SingleHd_KDNet_PHL_MLSE4POL.pt (torch_old, 9042 bytes, 10 tensors)

K_Linears.0.weight f4 [20, 5]
00000000: a7c7 878c 1b31 0f24 1c25 8a06 352c 0200
00000010: a389 7529 d186 8ebd 4a75 6cbd 45a0 713d
00000020: 2276 64bf e316 b93e e4f0 c7ba 6cd9 8538
00000030: 92f8 29bc b697 0e3c 08fd b339 5028 1cbf
00000040: faf6 0abf 5ee0 aa3e 5aa6 07be dd7c 993c
00000050: 2936 ca3e 3632 ea3e 83c7 9e3f 670d 00bf
00000060: 6e71 683d 415c 833e 3e3a 903e e74f 7dbf
00000070: 55bf 5b3f 365e 933d cdbc d03e 02b1 56bd
00000080: a4aa 913c ff96 0f3c 987b 53bc 1075 743e
00000090: 26c0 453e 3a39 193f bd69 d4be 5cf6 a73e
000000a0: 3142 d93e 70ae cd3e 45f2 0a3f 79ca a73f
000000b0: 9150 2b3c 4ea8 afbe b865 c0be 9e94 b3bf
000000c0: b86b 073f 546a 37bd 36bc 86be 8d04 98be
000000d0: 6494 a43f 74ad d3be 6088 30bc d872 993c
000000e0: 3465 883c 7d98 4abf c7f5 2ebf 0b14 2cbd
000000f0: 1eb3 873b d1ec 4d3d 6910 8e3e ea61 babf
00000100: c9e6 b83c 9af6 a23c cb86 913d d3a7 23be
00000110: f33d 3d3f 29e3 c83e 7d8b 703e d4ea 6a3e
00000120: 4e2a 5dbe 0371 7cbf 3e10 9bbe eeac e33e
00000130: 5cf4 eb3e 89cf 84bf 21e4 973e b507 e6bc
00000140: 34c5 e8bc 123b f7bc 77c0 13bc 48c6 6a3f
00000150: 3d12 9fbe 7680 a8bd c8c7 b2bd 2084 693f
00000160: 4c2e bb3f 484c 49ba 4c13 0639 502d 8039
00000170: 2aec d9b0 0ff5 0fb7 61a9 0731 7612 55bf
00000180: 7850 553d 114e d3bb 18d6 05bd de19 333b
-2.0920205e-31 3.1049776e-17 5.196436e-35 1.9953e-40 5.452031e-14 -0.06959308 -0.057729043 0.058990736
-0.89242756 0.36150274 -0.0015254286 6.382432e-05 -0.010374205 0.008703163 0.00034330063 -0.6099901
-0.54283106 0.33374304 -0.13247052 0.018736297 0.39494446 0.45741433 1.2404636 -0.5002045
0.0567488 0.25656322 0.28169435 -0.98950046 0.85838825 0.07195704 0.40769044 -0.0524149
0.017781563 0.008764028 -0.012907885 0.23872781 0.1931158 0.59852946 -0.41486922 0.32805145
0.42433313 0.40172148 0.54275924 1.3108665 0.01045622 -0.34308094 -0.37577605 -1.4029729
0.5289874 -0.044779137 -0.2631547 -0.29690972 1.2857785 -0.41343272 -0.010774702 0.01873152
0.01664982 -0.7913893 -0.68343776 -0.042011302 0.0041412255 0.050274674 0.27746895 -1.4561131
0.022570984 0.01989298 0.07105788 -0.15981989 0.7392265 0.3923581 0.2349071 0.22941142
-0.21598169 -0.9860994 -0.3028583 0.44467872 0.4608487 -1.0375835 0.29666236 -0.028079847
-0.028414346 -0.030179534 -0.009018055 0.91708803 -0.31068602 -0.08227627 -0.087295115 0.9121723
1.4623504 -0.00076789083 0.00012786424 0.00024447823 -1.585595e-09 -8.580521e-06 1.9741366e-09 -0.83231294
0.052078694 -0.006448515 -0.03267488 0.002732865

K_Linears.0.bias f4 [20]
00000000: ac43 3bad 131b 34bf 9d0c eebd 82c4 0fbf
00000010: bc7e f33d 1e7a b1bf 8b7e 743e 8b27 71bf
00000020: 36c7 debe 2264 61be 8bbb 65bf f44a 40bf
00000030: b92d 68bf 55d5 d63e 1541 8bbe 24ba f73e
00000040: 49e7 1a3e 095c afbf c85e 31bb 1f78 02bf
-1.06447455e-11 -0.7035381 -0.116234995 -0.5615922 0.11889407 -1.3865392 0.23876397 -0.9420096
-0.4351136 -0.22010854 -0.8973929 -0.7511437 -0.9069477 0.41959634 -0.2719809 0.48384202
0.15127291 -1.3699962 -0.002706455 -0.5096454

K_Linears.1.weight f4 [21, 20]
00000000: e4ce 0580 d137 3ca0 0631 488c 1756 01a1
00000010: 3c92 92b0 88b2 b19e 639c c720 97eb 7f9f
00000020: 366a af28 686b 8026 ee97 c3a0 36f4 699f
00000030: 947b 051e adca f520 7c82 8e9f 7461 0621
00000040: d32d 67a1 c5c4 fb1f 0031 4282 c845 c7a0
00000050: 5fcf 0080 4910 8096 b864 0080 88d8 1896
00000060: 6ab8 02ba d74e 8595 df79 6fb4 2ad9 0915
00000070: 5c3b 0fbc 904e 7723 799e 7416 f6c0 f894
00000080: d33b 1f97 7a68 a0ba 05e6 7997 d16f c4ba
00000090: e81b 2ab9 d561 2ab5 9c83 0880 060c fe96
000000a0: d468 0000 5057 f4b8 00ba 3727 4a8f 5b39
000000b0: b003 b3bb 3ffa edbb cf0f fbbb bece 133a
000000c0: c564 2abc 2c21 c0bb a87f fb3a 70c9 40bb
000000d0: 79ab 96ba 2b92 96bb 0c8d cabb dd49 f5ba
000000e0: 2d96 a3bb d19e 75bb 3cb6 8c2d c323 8b3a
000000f0: 8c69 0b80 8922 0580 6f47 0500 37f0 4000
00000100: ecdc 62ac a77a 0480 5cff 1882 8e03 1c80
00000110: 2155 32af d35e 7f83 8916 2080 0deb 1400
00000120: 322a 2080 a664 90a1 7000 0200 ce55 aca2
00000130: 30d5 961c 920b 3188 df6d 0000 eacd 5580
00000140: 35d8 0180 f88e 88b6 b032 f092 5e71 582a
00000150: 2c2d dfba 0489 252e 149f 98b9 f475 07aa
00000160: 4a28 bbb6 7a55 9ebd 2016 a4aa ab9f 46ba
00000170: 10cd 96ba 772b 1abd c810 8ebc b752 5fbe
00000180: 6289 d6ba 49c8 3eaa 0c5a 1d17 05fd 1c2e
00000190: 3331 0000 a87f 443c eb6e 853a b15e 0abf
000001a0: e8a7 c23e 6c3b 2dbd fb5f 553c c649 9abd
000001b0: ebf2 923e 00f2 d0bd 3fc1 823f fd62 b53d
000001c0: 0510 9e3e cdcd 9fbe 3881 14bf c83b 1dbf
000001d0: 5ee5 c13e 7b43 2ebf 801c 99ad 1b54 bebd
000001e0: d924 0180 d4ba 8abe c78f f8b9 05d9 2dbf
000001f0: 882b 06bf ddad 3cbf a204 05bd f940 cb3c
00000200: b927 5fbe d4a3 753f fe10 b13e 52d0 233d
00000210: 9336 013e 5fb5 d63e 6230 6ebd ba4e 043e
00000220: 0f42 263d dea8 5f3e c25d e1af 662a a9bd
00000230: 3a83 0000 27d3 1abf fb97 97ba 7b5e 5fbe
00000240: da1f 273f d8ed 99be a759 773b 569d 46bf
00000250: be6d 09bf 2a15 29be 6198 793e 2f0d 82be
00000260: c338 1e3d 5c6a 163f e3fe ec3e cc70 d8bd
00000270: cb8f 15bf 17f3 cdbd a473 00b1 f213 163d
00000280: 0c24 0280 e3ef f83c 970a cc3a c5e2 81be
00000290: a201 a7be 32d3 753d 977a c6bc 645d ad3e
000002a0: ea7c 0c3f e8cb 993e c74b a63e d1be 2f3f
000002b0: 9c47 5f3f d10c 2dbe 07e4 153f df61 1a3f
000002c0: fdac 69be 04cf 59bf a6f1 cb30 426d 343d
000002d0: a703 0200 a8ef f33d 835c f1ba 801f 533e
000002e0: e7ec 2fbe 157b b1bf 9fbb 1ebd 7f3f 473e
000002f0: 6aaa 10bf 4eb3 90be 2bef 0c3f 135c d4be
00000300: 3022 06bf c808 efbd f863 113e 04ea 7c3f
00000310: 0271 28be ea85 803e ba7b bbb6 fc89 db3b
00000320: ff33 0180 9b93 6bbe d17e e0ba 7d96 efbc
00000330: 6042 d63c 57e1 3cbf e779 813d 3c50 f6be
00000340: 9ba7 773f 048b c9be bb01 6fbe 9aba de3e
00000350: ef1d 99bd 02b3 203e 8c30 acbe ee17 e53d
00000360: 647a a33e d06b e1be b109 86b0 5368 dabc
00000370: 0267 0000 1d07 faa0 be75 a413 a6a1 03a2
00000380: 9887 9220 7e34 4721 63e9 33a2 7522 e0a0
00000390: 9f0c 4222 47d5 39b4 829d 0fa2 931d 5f20
000003a0: 9645 bc20 13d5 cc27 b5aa a3a0 571a 3529
000003b0: 9a77 6f23 0c6a c71f 28dd a204 07fa 1522
000003c0: 0710 0000 01ac 9dbc 714c 88ba bda9 12be
000003d0: 10e4 54bd 3eea 1abe b977 323f b295 b4bd
000003e0: 6eb2 56bb 2009 d53c 61b6 1a3e da43 ccbb
000003f0: 681d 1a3d bbdd 313d 003e f1b5 00b3 f0bb
-5.33396e-40 -1.5942688e-19 -1.5422192e-31 -4.382084e-19 -1.066446e-09 -1.8814443e-20 3.38154e-19 -5.4193226e-20
1.9474965e-14 8.910897e-16 -3.3134824e-19 -4.9541676e-20 7.066517e-21 4.1638734e-19 -6.035521e-20 4.5529944e-19
-7.832649e-19 1.0662816e-19 -1.4266931e-37 -3.3758089e-19 -7.4391e-41 -2.0689793e-25 -3.6131e-41 -1.2346787e-25
-0.0004986586 -5.384266e-26 -2.2302946e-07 2.7838242e-26 -0.00874218 1.3406533e-17 1.9760168e-25 -2.511771e-26
-5.145118e-25 -0.0012238168 -8.0746565e-25 -0.0014986937 -0.00016222859 -6.34723e-07 -7.81897e-40 -4.10435e-25
3.7605e-41 -0.0001165109 2.5497182e-15 0.00020938847 -0.005463086 -0.0072624977 -0.0076617966 0.0005638412
-0.010400002 -0.0058633294 0.0019187825 -0.002941694 -0.0011495195 -0.0045950613 -0.006181365 -0.001871403
-0.0049922676 -0.0037478695 1.5997086e-11 0.0010615516 -1.048054e-39 -4.71566e-40 4.84803e-40 5.963645e-39
-3.2239168e-12 -4.11341e-40 -1.1240481e-37 -2.572669e-39 -1.621925e-10 -7.5046618e-37 -2.94682e-39 1.92103e-39
-2.953873e-39 -9.784461e-19 1.83828e-40 -4.6711543e-18 9.981275e-22 -5.32776e-34 3.9414e-41 -7.879885e-39
-1.69396e-40 -4.0697596e-06 -1.5158625e-27 1.9223986e-13 -0.0017027012 3.763835e-11 -0.00029110222 -1.2031332e-13
-5.5777246e-06 -0.07731147 -2.9147604e-13 -0.0007576893 -0.0011505205 -0.037639108 -0.017341986 -0.21808897
-0.0016367848 -1.6944878e-13 5.084309e-25 3.569502e-11 1.765e-41 0.011993326 0.0010180151 -0.5405074
0.38018727 -0.042292997 0.013023372 -0.075336024 0.28700957 -0.10202408 1.0215224 0.08856771
0.30871597 -0.312117 -0.5800967 -0.61419344 0.37870306 -0.6807172 -1.7406743e-11 -0.092933856
-1.05054e-40 -0.27095664 -0.0004740937 -0.6790927 -0.52410173 -0.73702794 -0.03247512 0.024811255
-0.21792497 0.95953107 0.34583277 0.03999359 0.12618475 0.4193525 -0.05815161 0.12920657
0.040590342 0.21841761 -4.099388e-10 -0.0826004 4.7075e-41 -0.6047844 -0.001156568 -0.21813385
0.65282977 -0.30064273 0.0037742646 -0.77583826 -0.5368308 -0.1651198 0.24374534 -0.25400683
0.03862835 0.5875604 0.46288213 -0.10568389 -0.58422536 -0.10056131 -1.8692186e-09 0.036640115
-1.96602e-40 0.030387824 0.0015567121 -0.25368324 -0.32618433 0.060015865 -0.024228377 0.33860314
0.54878104 0.3003838 0.3247969 0.6865054 0.8721864 -0.1689942 0.5855107 0.6030559
-0.22819896 -0.85081506 1.4838875e-09 0.04404951 1.84981e-40 0.11910945 -0.0018414411 0.20617485
-0.17180215 -1.3865687 -0.03875315 0.19457816 -0.5651003 -0.282618 0.5505244 -0.41476497
-0.52395916 -0.11671597 0.14198291 0.9879458 -0.16449359 0.25102168 -5.587438e-06 0.0066997986
-1.10488e-40 -0.23005526 -0.0017127638 -0.029246563 0.026154697 -0.7378134 0.06322079 -0.4810809
0.9674012 -0.39363873 -0.23340504 0.4350174 -0.074764125 0.15693286 -0.33630788 0.11186205
0.31929314 -0.44027567 -9.752538e-10 -0.026661074 3.6952e-41 -4.2356355e-19 4.1515523e-27 -1.7839387e-18
2.482309e-19 6.7493295e-19 -2.4382578e-18 -3.7969878e-19 2.6298584e-18 -1.7307057e-07 -1.9463498e-18 1.889862e-19
3.1894487e-19 5.685239e-15 -2.7726239e-19 4.021292e-14 1.29815426e-17 8.445522e-20 3.8289117e-36 2.0325629e-18
5.75e-42 -0.019247057 -0.0010398758 -0.14322563 -0.05197531 -0.15128419 0.6971393 -0.088176146
-0.003276016 0.026005328 0.15108635 -0.0062336745 0.0376257 0.04342435 -1.7973944e-06 -0.007345557

K_Linears.1.bias f4 [21]
00000000: 8538 0faf e6a8 59ba 284c e7bb 39a5 5dad
00000010: 8b8d 21be 61bd 813d 25d8 ef3e 0c55 4e3f
00000020: 0b93 423e 8b13 5c3e 405f d43d 6fdc f4b0
00000030: 0e0b 323f 5761 2dbf 12ed f4bd cd5a 4cbc
00000040: 9424 05bd aaaa 1c3f 3dd0 01bb 7c23 1eb7
00000050: f5f3 b5b7
-1.3025854e-10 -0.0008303061 -0.007058639 -1.2599082e-11 -0.1577665 0.06334949 0.46844593 0.8059852
0.19001405 0.2149183 0.1036973 -1.7815988e-09 0.6954812 -0.67726654 -0.1195928 -0.0124728205
-0.032505587 0.6119791 -0.0019807958 -9.425796e-06 -2.1690483e-05

D_Linears.0.weight f4 [20, 21]
00000000: 526d b31e e631 8917 1add 853a e953 8a10
00000010: 9fc6 a428 1d3d 2f3f 126e 8ebe 70c9 bf3e
00000020: 85a3 9fbe f0d0 8b3e a51a 913e 61e4 9a20
00000030: 2a79 dc3a ca6c f83e 2cc0 0b3f eb57 25bc
00000040: cebb 453d 74e8 a43d 7ec8 a83a f879 fdb5
00000050: de38 9435 fdb3 0720 8d3b c7b4 4c86 773b
00000060: 99bc e5a9 b627 153d 2797 47bf ab93 563e
00000070: f1c8 873f 02af 21be 1dfe c7be 7c48 683e
00000080: 2fb3 90a1 19a9 2fbd ae33 d63e 5714 c0be
00000090: 32b3 89b7 f4a3 553c 5ae1 b73e 9119 82ba
000000a0: be2e f8b6 eca4 3437 1085 82a0 9c25 fa94
000000b0: d523 0b39 d78c 0a00 6928 94a9 499e 053f
000000c0: 2364 0dbf 847d 483e f97e 343c 44c9 f33e
000000d0: 2ca5 0b3e 35ad 28a1 4888 c7bd 08a8 96be
000000e0: f8a4 20bf b53f 62aa a8fc 5cbc 22cf 05be
000000f0: 5e0c 4137 1d45 04b6 cfd4 0237 9f3b 6f20
00000100: 2eae 2fa0 c5fa a1bb 06c2 d5a9 9537 d9aa
00000110: 8fe2 87be f8bd 3ebf 52fc 253e 6c8f da3e
00000120: 26eb aebe 17c5 e03e de73 eda0 dfab 813d
00000130: e04a e63e 6b73 2e3f bbde c8a9 d0c2 f4b7
00000140: b4c7 fdbe 065f a4ba 7447 1fb6 1765 6bb4
00000150: 5ce4 be0d e085 1b89 6271 6828 921e 8300
00000160: c5ec 3c28 2ff1 3fbe ea90 5a3b a723 2fbe
00000170: 1087 73bd ea90 533c d8af 2fbe 2eb2 bfb6
00000180: aa71 84bd 5c82 e7bd 8a13 a0be 7af5 5525
00000190: 5beb aa39 53cb f837 66ff 63bb 453d 49b8
000001a0: 2452 2030 0084 009f b44f 4d96 a6cf c63b
000001b0: 681a 4519 ebc2 40a9 5c3a 09bf e720 41bf
000001c0: 4c37 bd3e 0fa2 5ebe 6fbf 833f ffe4 993e
000001d0: 67ba 9c21 10b6 393e 6fea ed3d b377 0fbf
000001e0: e2de 9737 0fb4 5fbd 3a5c e73d a97d 1aba
000001f0: 6c7c 8935 5d90 f3b6 d99c cc20 adf9 3b98
00000200: f76a cf3a 9b63 1400 235e 8629 296f d0be
00000210: 891e de3d d231 b23e 7bfc 113f c41d 183e
00000220: 525d dd3d 90b0 84a1 31f2 5c3d d555 06bf
00000230: 5327 1e3e 6ed5 82aa 30f5 1ebb 815e 653f
00000240: 687d feb9 d025 8336 f0c0 8b36 17c8 2fa0
00000250: 2cde 592d dd16 14bb 157c 0c00 68d5 143c
00000260: 22e7 bf3d 56d8 41bd 501c ee3e a9ed b63e
00000270: e127 fcbe 85f5 413f 83c8 70a2 f3b4 b83d
00000280: 2efe 5fbf c4aa 843f 30cc ad39 166e 543c
00000290: 6897 debe 788e 2fb9 b7b2 ec35 69ad 3d37
000002a0: 8611 dc9f 6195 1717 9d47 4bbb 34d0 be80
000002b0: 20bf 6bb9 8910 d4bd f0b1 9ebc 5795 d4be
000002c0: ef65 2f3f f2c7 8e3e 52e9 be3e 2ef7 90a0
000002d0: 7ad7 ae3b 08a1 b6be 244f 12be a9ec 44ab
000002e0: 7385 2639 a6ac 17bd 1f6d 4b3a 105c 8436
000002f0: 37b0 4cb6 b8c1 0a9f ada2 1896 009e 30b9
00000300: bba1 1800 26a9 01a9 5cae 2ebe bcbb 813e
00000310: e138 8abe 531c 5bbf 09bd 37be e6a7 03bf
00000320: 8089 aea1 001f adbd 5761 a4be 40a0 933c
00000330: 0ca2 be21 54a3 9dba ca8d d23c 5e0b d73a
00000340: c6ae 71b5 ddf4 93b6 4c02 e41f e954 6516
00000350: 8511 033c b9b5 3280 8f8a 8ba8 827a 99be
00000360: 5497 6d3e 13cc 23be 1649 6dbf ec18 cf3e
00000370: a126 efbe 6613 8322 0d62 a9bc 1cc7 213f
00000380: 0bbf 95be fd8e ad29 d46c cf3a 0eba 4a3f
00000390: 9afc 2f3b 7c5c 6033 d836 a333 5822 5fa0
000003a0: f8ed 0cb5 a659 1d3c 70c0 07b1 8702 f428
000003b0: 4066 103f 6b00 933e 08db b6be b2c3 62bf
000003c0: 6376 15be 0066 1e3f d0c1 8620 f900 15be
000003d0: 47e0 24bf 5dbd 3a3d 2d4d f3bb 2ffd a83a
000003e0: b364 fdbe 3159 2dbb 6df2 36b7 d348 1b36
000003f0: 2a47 c4b8 25a5 0080 4445 90b1 c775 1300
1.8997576e-20 8.866014e-25 0.0010212988 5.4560687e-29 1.8293796e-14 0.68452626 -0.27818352 0.37458372
-0.31179443 0.27307844 0.2834064 2.6239743e-19 0.0016820778 0.485205 0.54590106 -0.010091762
0.048274808 0.080521494 0.0012877134 -1.8885466e-06 1.104341e-06 1.1494498e-19 -3.7109967e-07 0.0037769256
-1.02023594e-13 0.036414824 -0.77965015 0.20954768 1.0608197 -0.15789416 -0.3906106 0.226839
-9.805249e-19 -0.042885873 0.41836303 -0.37515518 -1.6415117e-05 0.013039578 0.35914117 -0.0009925832
-7.3964175e-06 1.0767235e-05 -2.211091e-19 -2.5258383e-26 0.00013269421 9.68879e-40 -6.5795304e-14 0.5219465
-0.5523092 0.1957913 0.011016601 0.4761449 0.13637227 -5.714985e-19 -0.097427905 -0.29425073
-0.6275172 -2.0094935e-13 -0.013487972 -0.13067296 1.1506576e-05 -1.9709762e-06 7.798152e-06 2.0263814e-19
-1.4880708e-19 -0.004943224 -9.492758e-14 -3.858551e-13 -0.26540038 -0.7450862 0.16209534 0.42687547
-0.3416378 0.43900368 -4.0226036e-19 0.0633161 0.44979 0.68144864 -8.920422e-14 -2.9177783e-05
-0.49566424 -0.0012540526 -2.3734437e-06 -2.1922857e-07 1.176463e-30 -1.8720394e-33 1.2903173e-14 1.2041417e-38
1.0487438e-14 -0.18744348 0.0033350536 -0.17103444 -0.059454978 0.012912968 -0.17156923 -5.7129864e-06
-0.06466992 -0.11304161 -0.31264907 1.8557976e-16 0.0003260028 2.9658584e-05 -0.003478968 -4.7979196e-05
5.832439e-10 -2.7214242e-20 -1.6584918e-25 0.006067234 1.0189994e-23 -4.280163e-14 -0.53604674 -0.7544083
0.3695625 -0.21741508 1.0292796 0.30057523 1.0620311e-18 0.18135858 0.1161698 -0.5604202
1.810439e-05 -0.054615077 0.11296888 -0.00058933586 1.0243507e-06 -7.2587704e-06 3.4662737e-19 -2.4295238e-24
0.0015824725 1.872442e-39 5.9671255e-14 -0.40709808 0.10845668 0.34803635 0.5702588 0.14855105
0.10808815 -8.991404e-19 0.05394191 -0.5247472 0.15444688 -2.3240736e-13 -0.002425503 0.89597327
-0.0004854009 3.908506e-06 4.1649837e-06 -1.4889281e-19 1.2384354e-11 -0.0022596635 1.146538e-39 0.009084083
0.09370257 -0.047325455 0.46505976 0.35728195 -0.49249175 0.7576526 -3.2632215e-18 0.09018888
-0.8749722 1.0364614 0.00033149263 0.0129657 -0.4347489 -0.00016742374 1.7635383e-06 1.1305653e-05
-9.3202614e-20 4.8979274e-25 -0.0031018027 -1.7523433e-38 -0.00022482546 -0.10354716 -0.019371957 -0.41520187
0.68514913 0.2788692 0.37287384 -2.4558119e-19 0.0053357454 -0.35669732 -0.14288002 -6.996162e-13
0.00015880707 -0.037029885 0.0007760096 3.944624e-06 -3.050094e-06 -2.9382877e-20 -1.2329794e-25 -0.00016843528
2.26207e-39 -2.8790467e-14 -0.170587 0.25338542 -0.2699652 -0.85590094 -0.17943205 -0.5142807
-1.1827095e-18 -0.084531784 -0.32105514 0.01802075 1.2917794e-18 -0.0012026825 0.025702376 0.0016406586
-9.0033825e-07 -4.4094472e-06 9.6565556e-20 1.8525266e-25 0.007999782 -4.656965e-39 -1.549219e-14 -0.2997628
0.23202258 -0.15995817 -0.92689645 0.404487 -0.4670916 3.552816e-18 -0.020676637 0.6319444
-0.29247317 7.707548e-14 0.001582528 0.79190147 0.0026853443 5.223818e-08 7.600255e-08 -1.8900198e-19
-5.2500354e-07 0.009603893 -1.9754474e-09 2.7090538e-14 0.5640602 0.28711256 -0.35713983 -0.8857986
-0.14595942 0.6187439 2.2828737e-19 -0.14551152 -0.6440472 0.045590747 -0.0074249716 0.0012892837
-0.4949089 -0.0026450867 -1.09044895e-05 2.313919e-06 -9.359264e-05 -5.9243e-41 -4.198826e-09 1.787125e-39

D_Linears.0.bias f4 [20]
00000000: 7946 42bf cff9 3e3e 11d5 13bf ac19 b3be
00000010: f72c 67bd 294f 323f dd05 88bf 59e0 713d
00000020: b4c1 7fbf 16d2 c03e 3b9a 563e 11ac 243f
00000030: a4e1 d7b8 5a4e d1be edd1 c03f 7cd6 87bd
00000040: 1952 bbb5 60c4 69b6 f283 7cbe a632 a13f
-0.7588878 0.18649982 -0.5774699 -0.34980524 -0.056439366 0.6965204 -1.0626789 0.059051845
-0.9990494 0.37660283 0.20957272 0.6432505 -0.00010294028 -0.4088009 1.5064064 -0.066327065
-1.3956479e-06 -3.483401e-06 -0.24659708 1.2593582

D_Linears.1.weight f4 [20, 20]
00000000: a6bb f1be 8d6c bfbe 7dbb 1f3f fdf6 91be
00000010: 4cc1 cabd f8eb 7b3f 8617 f63e 835d 98be
00000020: 3bf5 cbbe c92c a33d e912 cbbe bf36 8e3c
00000030: 58d5 4cb8 aabb f0bb 1496 2fbf 8a20 9b3a
00000040: 0087 8a35 8549 aeb5 d119 11be 8121 06bc
00000050: 4aca 483f a767 653e 3d40 053e 457d f23e
00000060: da22 043e d7c9 5dbf 610b 76be 18db e53d
00000070: a500 763e 526f 343f 5771 303f bd6a c3be
00000080: 4e8f 8438 bd7a b13d b55b 093f 9a2d 03bb
00000090: 348f 58b6 d089 d433 a1a5 13be 4600 fbbb
000000a0: 4bcb 3bbd 7d2e 603f 6531 433e 40d1 9ebd
000000b0: 5365 f73d 1787 033f 37b3 82bf 0fdf 033f
000000c0: 3335 d8bc 652e e53e a6df 21bd a232 0fbe
000000d0: 3a33 b736 d059 b2be d1c5 2fbf 3581 ce3a
000000e0: 34e3 5eb5 7474 29b3 0ac9 df3e 23c5 9abc
000000f0: c9ed a535 0171 bab7 d29f 5a35 cdff 3ab5
00000100: 7f50 67b8 c6f1 00b6 a6f1 fab7 feac 30b7
00000110: d66d 1736 714b 85b6 24a0 d536 bd55 89b4
00000120: 5aa8 9836 7caf 3fb9 58bc 9cb7 12a9 6f3b
00000130: a618 cf39 f2b8 85ae 9037 1bb8 ab36 31b7
00000140: 053b 703a 3a1e 16bc 7c66 4ebc 8eb5 0abb
00000150: d59a 76bc fbe8 a3bc 3a07 42bd 3294 a7bc
00000160: 9d45 a2bd c2ac e03c 7d07 a23c 7bd5 b6bb
00000170: 7e0f 96b7 0aa7 bc2d 84f0 dfba 47d4 d2b4
00000180: 481f ad39 dca8 b6b8 5cfa 10bc ba01 9d3b
00000190: 6fbb ff3d 89ff b33e a61a 913e a868 4b3f
000001a0: 5963 adbe b442 17be 13e6 89be a811 45bf
000001b0: 4726 bb3d bdd0 dd3e 8d6e d93e 72ef f23e
000001c0: 7e6b 6cb7 0c4d 7abb d5b0 04bf 410b 9e39
000001d0: 98bf 84b5 6381 8934 ece3 f33d e8cb acbd
000001e0: fc20 39ba f7c9 d9b9 8257 99b8 d6b8 5eba
000001f0: 8545 36bb 54c6 bbb9 1039 52b9 87e3 dfb9
00000200: 3c80 0bb8 1c4f 90b7 1a82 7038 9399 08b9
00000210: 385a 51b5 3ef9 ea1f 80a2 37b8 18f7 a2ab
00000220: ef28 01a5 1ef7 9f35 fd10 60b5 a339 c4b8
00000230: c256 75b7 1fa2 a2b8 5d31 0d37 0c6d 96b7
00000240: d490 51b8 a871 83b8 14e1 0f36 0e96 1fb8
00000250: 58cd 4137 412c 7cb6 9a57 4c37 5296 52b7
00000260: f27d cfa8 f08f c3a5 7025 e2b7 e6c6 afb8
00000270: 2560 f739 a8ea 0700 cc71 36b8 bbc0 58b8
00000280: 256e 253e c58e b73e b27c 10bf 7865 093f
00000290: be07 8fbe dc52 cf3d 70e5 6dbe f2fd c9be
000002a0: 6665 d2be a2ef 013f 6481 0bbf b1da 7c3f
000002b0: 767a b538 0c75 1dbe f2e4 653f a227 c0ba
000002c0: 11c1 4db6 82c9 b5b7 3244 83be dd39 f53d
000002d0: 015c 80bd d3c2 723e e208 0dbf d9e5 83be
000002e0: 3feb 813a 6324 e5bd d922 803f fbbb aebd
000002f0: 4a81 1dbf ad33 373d 06bb d6bd 1fa3 afbe
00000300: e05f 80b6 dc8a 04bc 0e18 d33e d0ef 3a39
00000310: 8da3 bcb3 1a49 39b4 f153 983e b55f 13bd
00000320: afcf 252e 0c87 89bd 8a34 45ae ba58 a3ae
00000330: 1f86 8224 1a80 aabb bf10 5fbd 94d3 5bbc
00000340: 0cca 36bc fc87 fcad 6338 b1b7 5099 3eae
00000350: a41e 0000 d219 5218 bf9d d43c 52ca e6aa
00000360: 47e9 f59c 5cc8 0380 ec31 78bd 1561 24bc
00000370: 5bdc 1eba 7626 97bc 64b3 c13a ba83 d13a
00000380: 1f74 8439 ebef 00bc 543c 01bc cec1 c0ba
00000390: 1af4 89ba d1c4 f23a 0b2d 703b 0e4a a4ba
000003a0: 3f4c 8335 da93 2f20 4503 09bc dfc3 c8b0
000003b0: 00f1 092f d104 4eb3 e1ef 72bc 0ca0 06bc
000003c0: c5b3 9032 2b8f f8b3 51b8 8eb1 5678 3fb2
000003d0: 602d 5135 e0c1 2eb1 254d 03b3 2ffe ac32
000003e0: a052 872f 0fbd 25ac c7ce 9230 734b 29b2
000003f0: 88a7 7333 b819 07a8 2e44 23af 9031 bf3b
-0.47213477 -0.37387505 0.6239546 -0.2850875 -0.0990015 0.98406935 0.48064822 -0.29758844
-0.39835533 0.079675265 -0.39662865 0.01736009 -4.8836082e-05 -0.00734659 -0.68588376 0.0011835259
1.0321091e-06 -1.2985407e-06 -0.14170004 -0.008186699 0.7843367 0.22402821 0.13012786 0.47361198
0.1290392 -0.8663611 -0.24027778 0.112234294 0.24023683 0.7048236 0.6892294 -0.38167372
6.320943e-05 0.086659886 0.5365556 -0.0020016194 -3.2269863e-06 9.897087e-08 -0.14418651 -0.0076599447
-0.045848172 0.87570935 0.19061811 -0.07754755 0.12079873 0.51378006 -1.0210942 0.51512235
-0.026392555 0.4476196 -0.03951993 -0.13984159 5.4597886e-06 -0.34834146 -0.6866122 0.001575506
-8.303207e-07 -3.9454292e-08 0.43708068 -0.01889283 1.2362663e-06 -2.222555e-05 8.14439e-07 -6.966264e-07
-5.514966e-05 -1.9214217e-06 -2.9914849e-05 -1.0530695e-05 2.2564686e-06 -3.9724914e-06 6.3665375e-06 -2.558062e-07
4.5495517e-06 -0.00018280552 -1.8684354e-05 0.003656928 0.0003950048 -6.080993e-11 -3.7006626e-05 -1.05627505e-05
0.0009164068 -0.00916248 -0.012597676 -0.0021165344 -0.015051563 -0.020008555 -0.047370173 -0.020456407
-0.07923434 0.027426127 0.019778961 -0.005579648 -1.7888608e-05 2.1447306e-11 -0.0017085229 -3.927e-07
0.00033020438 -8.709889e-05 -0.008848753 0.0047914656 0.12486922 0.35155895 0.28340644 0.7945657
-0.3386486 -0.14771539 -0.26933345 -0.76980066 0.0913816 0.43323317 0.42467156 0.47448307
-1.4091724e-05 -0.0038192896 -0.51832324 0.00030144493 -9.890528e-07 2.561238e-07 0.11908707 -0.084373295
-0.0007062105 -0.0004153994 -7.311908e-05 -0.00084961706 -0.0027812433 -0.00035815185 -0.00020048418 -0.00042703396
-3.325961e-05 -1.7202976e-05 5.7341626e-05 -0.00013027182 -7.798985e-07 9.951519e-20 -4.378194e-05 -1.1579375e-12
-1.1202835e-16 1.1918344e-06 -8.3471224e-07 -9.356744e-05 -1.4623338e-05 -7.7549594e-05 8.415748e-06 -1.7932172e-05
-4.9964365e-05 -6.267737e-05 2.1439673e-06 -3.8048303e-05 1.1551507e-05 -3.7576685e-06 1.2179744e-05 -1.2551975e-05
-2.3036237e-14 -3.3924644e-16 -2.6958733e-05 -8.381698e-05 0.00047183144 7.27027e-40 -4.3498163e-05 -5.1677907e-05
0.16155298 0.35851112 -0.5644027 0.53670454 -0.27935594 0.10123226 -0.23232055 -0.39451557
-0.41092986 0.50756276 -0.5449431 0.98771197 8.653563e-05 -0.15376681 0.8980247 -0.0014660249
-3.065976e-06 -2.1670716e-05 -0.25637966 0.11973927 -0.06267548 0.23707132 -0.5509168 -0.25761297
0.0009912028 -0.11188581 1.0010635 -0.08531948 -0.61525404 0.044727016 -0.10484891 -0.3430414
-3.8258586e-06 -0.008089747 0.4122929 0.0001782768 -8.784182e-08 -1.7256062e-07 0.29751542 -0.035979945
3.7701117e-11 -0.06715211 -4.4839278e-11 -7.428143e-11 5.660572e-17 -0.005203259 -0.05445933 -0.013417143
-0.01115657 -2.8709472e-11 -2.1126301e-05 -4.3337167e-11 1.0992e-41 2.71549e-24 0.025954125 -4.0996595e-13
-1.6273041e-21 -3.47382e-40 -0.060594484 -0.010032912 -0.0006060057 -0.018450957 0.0014778194 0.0015984692
0.0002526352 -0.007869701 -0.0078879185 -0.0014706196 -0.0010525018 0.0018521791 0.0036647941 -0.0012534277
9.782451e-07 1.4871997e-19 -0.008362596 -1.4607585e-09 1.2545698e-10 -4.7967493e-08 -0.014827699 -0.008216869
1.6845556e-08 -1.1574442e-07 -4.1536983e-09 -1.11450245e-08 7.7924597e-07 -2.5430538e-09 -3.0570977e-08 2.0139025e-08
2.4615066e-10 -2.3552859e-12 1.0681668e-09 -9.85425e-09 5.6730215e-08 -7.499582e-15 -1.4848986e-10 0.0058347657

D_Linears.1.bias f4 [20]
00000000: ffc7 94be 9c2f 1d3f 3f1a 47bd be19 66b7
00000010: 8a32 4cbc f9fa 0cbf fcd4 94b9 ce88 9cb8
00000020: e98a a63e e166 e1be 0751 35bd 7ace 43bc
00000030: 406c bbb3 b6ea 95b5 1128 223f e040 3e3f
00000040: f9f9 f8bc 66e4 20b1 6cac 7a3b 912f 95bc
-0.29058835 0.6140077 -0.048609015 -1.3715062e-05 -0.012463221 -0.55070454 -0.00028387445 -7.4641415e-05
0.32527855 -0.44023803 -0.044266727 -0.011951083 -8.7275566e-08 -1.1169675e-06 0.63342386 0.7431774
-0.030392634 -2.3412894e-09 0.0038249744 -0.018211158

D_Linears.2.weight f4 [5, 20]
00000000: 9d8b 59be adbc 883e bdb4 903e 79f2 a935
00000010: d885 92bc 706f 5fbc f771 38b9 e97d c736
00000020: e994 14bf 1abc e53d 52c8 6bb8 3366 25bb
00000030: 851d 98b1 a774 20b0 27ff 033f d953 cdbe
00000040: 127d a5bd dc5a d331 cb41 58bf 50f5 b03a
00000050: 997e 86be dbd8 923e 1f9a 913e 5145 bf37
00000060: a18d c83c 51a1 4abd b167 6bb8 a017 2a37
00000070: 31fc 38bf ac57 b13d f658 0cbb b54d 23bc
00000080: 42b9 d3ae bafe 142b 52ad fc3e 5293 04bf
00000090: 4e20 17bb 87db 11b0 647e c63e b8d3 9f3b
000000a0: 0a8d f6be 9143 2f3f bb56 603e 33f2 8536
000000b0: 5dbf d43c 50b9 45bc d1d3 a6b8 7e0f 9a38
000000c0: aa71 343f 392c 61be be62 87b9 78ee e63b
000000d0: 1241 3ab2 5a91 82b4 4a42 76bd e61d e7be
000000e0: a3f7 89ba 242a 5fb0 23f0 dbbd bd1a 5a3c
000000f0: 4597 9b3f ed1f 46bf b473 be3e 8219 4337
00000100: bc08 d53a 94e0 993f 4246 7f38 54a2 18b9
00000110: da8a c03e c03c 37be 89b1 55bd 3017 bcb8
00000120: d521 3f35 75fd 9bab dcb8 a33d 0d61 34bf
00000130: 02d9 a7bc 4605 2930 7f45 d33c fc87 a9b9
00000140: 711f 34be 2063 8dbe d330 7d3f 18d9 fc36
00000150: 2e22 9b3c 572d 6bbe df25 cbb9 d37d 9ab8
00000160: abe6 f9bd 499c 8c3f 7e90 ba3b a0d1 2f3b
00000170: 8b0c 2f32 bbda ada7 f0b5 31bf 81e2 013e
00000180: 5158 dcbd 7edf 0ab0 1ac5 7dbd ad8e 823b
-0.21244664 0.26706448 0.28262892 1.266205e-06 -0.017886087 -0.013637409 -0.00017590063 5.94532e-06
-0.5803972 0.11217518 -5.621493e-05 -0.0025237917 -4.427138e-09 -5.8373434e-10 0.51561207 -0.40103033
-0.08080496 6.1512377e-09 -0.8447539 0.0013500843 -0.2626846 0.28681073 0.28437898 2.2801252e-05
0.024481596 -0.04947025 -5.6124936e-05 1.013829e-05 -0.72259814 0.086593 -0.002141533 -0.009967257
-9.6280775e-11 5.2933667e-13 0.49350983 -0.5178729 -0.0023060027 -5.306266e-10 0.38768303 0.0048775338
-0.4815448 0.68462473 0.21908085 3.9919046e-06 0.025970155 -0.012068108 -7.954951e-05 7.346178e-05
0.7048594 -0.21989526 -0.00025822775 0.0070474707 -1.084142e-08 -2.4320144e-07 -0.060121812 -0.45139998
-0.0010526072 -8.1186813e-10 -0.10739162 0.013312039 1.2155539 -0.77392465 0.3719765 1.1628845e-05
0.0016253213 1.2021661 6.086217e-05 -0.00014556322 0.37605935 -0.17894268 -0.052171264 -8.9688576e-05
7.1202277e-07 -1.1083761e-12 0.079942435 -0.7046059 -0.02048922 6.1489336e-10 0.025789974 -0.00032335508
-0.17590119 -0.2761469 0.98902625 7.5354583e-06 0.018937197 -0.22966515 -0.00038747393 -7.366729e-05
-0.122021995 1.0985194 0.0056934943 0.0026827827 1.0189193e-08 -4.8254294e-15 -0.6941824 0.1268406
-0.107590325 -5.052171e-10 -0.06195555 0.0039842934

D_Linears.2.bias f4 [5]
00000000: f351 613f eb82 fc3d af2c 53bf ea92 ae3e
00000010: b86a 89bf
0.8801567 0.12329658 -0.82490057 0.34096462 -1.0735693
