data/MTMR_28002/real/uniform/N5/D5/dual/result/model/SinInput_ReLUNet_KD_MLSE4POL.pt (torch_old, 11596 bytes, 8 tensors)

linears.0.weight f4 [30, 10]
0	0xb1b750d0	-5.3351883e-09
1	0xae976b79	-6.885776e-11
2	0x32266dc0	9.687426e-09
3	0x3045f170	7.2011286e-10
4	0xaf8e1add	-2.5848737e-10
5	0xb22cb963	-1.005387e-08
6	0xb242e794	-1.1344941e-08
7	0x31b44fd5	5.2477653e-09
8	0x303c56ba	6.851725e-10
9	0xb221d986	-9.4208925e-09
10	0x3f9f7549	1.2457668
11	0x3fb972fc	1.4488215
12	0x3ee36eba	0.44420415
13	0xbecc0af1	-0.39852098
14	0x3c949a11	0.01813987
15	0xbf1e2f38	-0.617908
16	0xbebd6c99	-0.36996916
17	0x3ea92509	0.33036068
18	0x3f881b91	1.0633413
19	0xbf220a29	-0.63296753
20	0xa6d3e7d9	-1.4703909e-15
21	0x2659c527	7.555419e-16
22	0x272833e0	2.3342805e-15
23	0x24145f1a	3.217294e-17
24	0xa448b53d	-4.3521602e-17
25	0xa7908387	-4.011063e-15
26	0xa7968684	-4.1779206e-15
27	0xa7836167	-3.646541e-15
28	0xa7060fe2	-1.8604846e-15
29	0xa79625ac	-4.1674207e-15
30	0x3f8fd049	1.1235439
31	0x3f8db055	1.1069437
32	0x3ede1619	0.43376234
33	0xbf40ec2f	-0.7536039
34	0xbdd1b374	-0.10239306
35	0xbe7059ae	-0.2347171
36	0x3e0646be	0.13112924
37	0x3a1dc190	0.0006017918
38	0xbf58fc84	-0.8476031
39	0xbdd5c3ca	-0.104377344
40	0x3f3464ca	0.7046629
41	0x3f4c0619	0.79696804
42	0x3d10ae44	0.035322443
43	0xbf412e9e	-0.7546176
44	0xbf93cfa0	-1.1547737
45	0xbeebf50e	-0.460854
46	0x3d0b2f84	0.03398086
47	0x3e99a28c	0.30006826
48	0x3e85e99e	0.26154798
49	0x3d36494d	0.0445035
50	0x3db3349b	0.08750268
51	0x3d4c9b4c	0.04995279
52	0xbcaee095	-0.021347323
53	0xbf17867b	-0.59189576
54	0xbe4b6fcd	-0.19866867
55	0xbe399ea0	-0.18126917
56	0xbed86ffe	-0.42272943
57	0xbfad9a9a	-1.3562806
58	0xbf657683	-0.8963396
59	0x3b81cb3e	0.003960996
60	0xbfb2391b	-1.3923677
61	0xbfbbb60b	-1.466493
62	0x3e489845	0.19589336
63	0x3df67481	0.1203394
64	0xbe7cdb4d	-0.24693032
65	0xbd66fc48	-0.056392938
66	0xbe988117	-0.29785988
67	0xbf64ad8a	-0.893273
68	0x3f2d1c41	0.6762124
69	0xbed00a26	-0.40632743
70	0x3edcf878	0.43158317
71	0x3f26d657	0.65170807
72	0x3ec9f275	0.39442793
73	0x3f716207	0.942902
74	0x3dfdc9aa	0.1239198
75	0xbee8609b	-0.45386204
76	0xbe3d4173	-0.18481998
77	0xbf594302	-0.8486787
78	0x3f18f25a	0.597448
79	0x3e0d96de	0.13827083
80	0x3f119809	0.5687261
81	0x3f26513e	0.64967716
82	0x3e581ad3	0.21103983
83	0x3f782f80	0.9694748
84	0x3f8b46a9	1.0880939
85	0xbec97e51	-0.39354184
86	0xbca5622c	-0.020188414
87	0x3e974195	0.29542223
88	0xbebfa32d	-0.3742918
89	0xbec6c45e	-0.3882169
90	0x3ee0ffc7	0.43945143
91	0x3e699441	0.2281046
92	0x3d31afc6	0.04338052
93	0x3ee9c6b4	0.4565941
94	0xbe73c979	-0.23807324
95	0x3e379359	0.17927302
96	0xbe005f0d	-0.12536259
97	0x3f814a64	1.0100827
98	0xbf2c6526	-0.6734184
99	0xbd70ffaa	-0.05883757
100	0x3fa64c90	1.2992115
101	0x3fb5df61	1.4208795
102	0xbf292918	-0.6607833
103	0x3dce76a4	0.10081223
104	0x3d57c000	0.05267334
105	0xbeed7147	-0.46375486
106	0xbd80cd67	-0.062891774
107	0xbeff06d3	-0.49809894
108	0xbf7972c8	-0.9744077
109	0xbe0af2e9	-0.13569225
110	0x9557fd05	-4.36185e-26
111	0x801c3f81	-2.594175e-39
112	0x8baf5003	-6.7527936e-32
113	0x005b5d9a	8.390608e-39
114	0x80119e59	-1.618008e-39
115	0xb0553e0f	-7.757714e-10
116	0xb19f13b5	-4.6297495e-09
117	0x811d8738	-2.893336e-38
118	0x938e02d6	-3.5848636e-27
119	0xb127c90b	-2.4415978e-09
120	0xbf9e37e4	-1.2360806
121	0x3f7f05cf	0.9961824
122	0xbdf0f1ce	-0.117648706
123	0x3c8e3722	0.017360274
124	0x3cf7afbd	0.030235166
125	0xbf0bdf4b	-0.54637593
126	0xbdf92dd8	-0.12166947
127	0x3e172ae0	0.1476245
128	0xbb5f057b	-0.0034030366
129	0x3e1ef98e	0.15524885
130	0xbf30772b	-0.68931836
131	0xbf82136e	-1.016218
132	0xbfa5f788	-1.2966166
133	0xbde8efad	-0.113738395
134	0xbe263288	-0.16230214
135	0x3eeef813	0.4667364
136	0x3e7ebda0	0.24877024
137	0xbe161bc4	-0.14659029
138	0xbe418606	-0.18898782
139	0x3d867327	0.06564932
140	0xbfab7d1a	-1.3397553
141	0xbfa45c60	-1.2840691
142	0xbc7547b2	-0.014970707
143	0x3f61d9ce	0.8822297
144	0x3dfdf5a0	0.12400365
145	0xbe8f5db6	-0.28001183
146	0xbf59755c	-0.849447
147	0x3f9cb330	1.2242184
148	0x3f4a7f2d	0.79100305
149	0x3e487fcb	0.19579999
150	0xbfa7c78c	-1.3107772
151	0xbf9b2f01	-1.212372
152	0x3f11a339	0.56889683
153	0xbf2073cd	-0.626767
154	0xbde1fd5d	-0.11034653
155	0xbd9ca576	-0.07648747
156	0xbcce95f1	-0.025217982
157	0x3f14ddb9	0.5815082
158	0x3df5fb44	0.12010816
159	0x3eadf654	0.33976996
160	0x8000bd4b	-6.7906e-41
161	0x80007a3f	-4.3854e-41
162	0x80006f63	-3.9958e-41
163	0x00012086	1.03503e-40
164	0x00008054	4.6035e-41
165	0x150c2d6c	2.8308606e-26
166	0x98a6bfd9	-4.310371e-24
167	0x069776e1	5.6974564e-35
168	0x0001a3b0	1.50556e-40
169	0x9757c41a	-6.971776e-25
170	0x3f695774	0.9114907
171	0x3f701bde	0.9379252
172	0xbf74b679	-0.9559093
173	0xbe14e57a	-0.14540663
174	0xbda77d71	-0.08178223
175	0xbeadebd2	-0.3396898
176	0xbdb40b85	-0.0879126
177	0xbec6671d	-0.38750544
178	0x3dfee45e	0.12445901
179	0x3eb25b4f	0.34835288
180	0x3e5c4bc5	0.21513279
181	0x3e7261d0	0.23670125
182	0xbe231138	-0.15924537
183	0xbf858338	-1.043067
184	0x3fa0494a	1.2522366
185	0xbbb87864	-0.005629586
186	0xbd3a31f1	-0.045457784
187	0x3da7d9eb	0.081958614
188	0x3dd8c639	0.10584683
189	0xbdddc690	-0.108288884
190	0xbecd96e9	-0.40154198
191	0xbefa38bb	-0.48871407
192	0x3e371d6c	0.17882317
193	0xbf93ea78	-1.1555929
194	0x3d48f0e0	0.04905784
195	0x3ed7fe7a	0.42186338
196	0xbe0548de	-0.13016078
197	0xbf7bb441	-0.9832192
198	0xbc9de8d8	-0.019276068
199	0x3d40e410	0.047092497
200	0xbf442d2c	-0.76631427
201	0xbf39bc04	-0.72552514
202	0x3e5a2210	0.21302056
203	0x3f8aaa3c	1.0833201
204	0xbf874f8b	-1.057115
205	0x3c312bb1	0.0108136395
206	0xbe1ea0a6	-0.1549097
207	0xbda2d5f8	-0.079509676
208	0xbeced051	-0.40393308
209	0xbf142774	-0.578727
210	0x3e5da10a	0.21643463
211	0x3e848dcc	0.25889432
212	0x3ccde512	0.025133643
213	0xbfe7689e	-1.8078802
214	0xbc548a42	-0.012972416
215	0xbe6a86f3	-0.22903042
216	0xbe1d9147	-0.1538745
217	0xbd865b03	-0.06560328
218	0xbf95319b	-1.1655763
219	0xbdf8be6f	-0.12145697
220	0x2eb850f8	8.381734e-11
221	0x2c8f6b51	4.076219e-12
222	0x2dd78959	2.4503665e-11
223	0xadc372a1	-2.2219839e-11
224	0x2d272f17	9.503307e-12
225	0xaf263bfe	-1.5118926e-10
226	0xaf388363	-1.678138e-10
227	0xae391bc8	-4.2088805e-11
228	0xac876cba	-3.849002e-12
229	0xaf315579	-1.6128422e-10
230	0x3f912704	1.1340032
231	0x3f8f2d18	1.1185637
232	0x3f2b59a9	0.66933686
233	0xbe9ad551	-0.30240873
234	0xbe6ff970	-0.23434997
235	0xbe856f01	-0.26061252
236	0x3e456ee5	0.19280584
237	0x3ea1f939	0.31635454
238	0x3e852c65	0.26010433
239	0x3f010c90	0.50409794
240	0x3f952631	1.165228
241	0x3f9e420e	1.2363908
242	0x3f10b032	0.5651885
243	0x3f0513e6	0.5198349
244	0xbebf99c4	-0.37422
245	0xbf044bcb	-0.5167815
246	0x3b88fef7	0.004180785
247	0xbf05e3df	-0.5230083
248	0xbf1e07f5	-0.6173089
249	0x3e17ef16	0.14837298
250	0x3f52cb4c	0.82341456
251	0x3f800c41	1.000374
252	0x3ed085f6	0.40727204
253	0xbee1b5be	-0.4408397
254	0x3e18009d	0.14843984
255	0xbe96fcf7	-0.29489872

linears.0.bias f4 [30]
0	0xb274e614	-1.4254983e-08
1	0xbdabe47b	-0.083931886
2	0xa7964c80	-4.1716305e-15
3	0x3de54920	0.11195588
4	0x3e88e17d	0.26734534
5	0x3e2ec26a	0.1706635
6	0xbdced132	-0.100984946
7	0xbedc3b3a	-0.43013936
8	0x3e2971a9	0.16547264
9	0xbdc492f3	-0.09598341
10	0x3e0d5d66	0.1380516
11	0xb29872a6	-1.7747265e-08
12	0x3fad05db	1.3517412
13	0x3e8ce78d	0.2752041
14	0xbf2fdf3a	-0.6869999
15	0x3e90fa44	0.28315938
16	0x9cce9830	-1.3671276e-21
17	0x3e52e6cc	0.20595855
18	0xbdefd5d0	-0.117107034
19	0xbeb7a5a8	-0.35868573
20	0xbe2b0642	-0.16701606
21	0xbf113ef6	-0.56736696
22	0xaf4ae7d3	-1.8454153e-10
23	0xbe029050	-0.12750363
24	0xbe0eb198	-0.13934934
25	0xbe4552ce	-0.19269869
26	0xbeda054d	-0.4258217
27	0x3d85b544	0.06528714
28	0x3f5ea4c3	0.86970156
29	0x3e253233	0.1613243

linears.1.weight f4 [30, 30]
0	0x3092c6eb	1.0679434e-09
1	0x3e4bfe49	0.19921221
2	0xa5811d94	-2.2397976e-16
3	0x3d619c89	0.055080924
4	0x3ee6907e	0.45032114
5	0x3e56937c	0.20954698
6	0x3f7cf7d0	0.9881563
7	0x3dcdb405	0.100441016
8	0x3e2a44e4	0.16627842
9	0x3e43d79a	0.19125214
10	0xbf2e8c48	-0.681828
11	0x2ff07561	4.3739148e-10
12	0xbe96323e	-0.29335207
13	0x3ebb8844	0.366274
14	0xbeec6a4b	-0.46174845
15	0xbe4ec464	-0.20192105
16	0x80001510	-7.556e-42
17	0xbe827aad	-0.2548422
18	0xbf1b1a19	-0.60586697
19	0x3ed12a4c	0.40852582
20	0xbed59410	-0.41714525
21	0xbde9c4c0	-0.1141448
22	0xad9376ea	-1.6764774e-11
23	0x3ea177a1	0.31536582
24	0x3f447e5b	0.76755303
25	0xbeefa19d	-0.4680299
26	0x3ef40ac8	0.47664475
27	0xbdd7e3b8	-0.10541481
28	0x3c47e771	0.012201176
29	0xbf0270a8	-0.5095315
30	0x800f1636	-1.3855e-39
31	0x8000d694	-7.6976e-41
32	0x8009ab53	-8.87979e-40
33	0x0000e838	8.3304e-41
34	0x00001441	7.266e-42
35	0x80005a1a	-3.2322e-41
36	0x800105ad	-9.3872e-41
37	0xa413c750	-3.2044368e-17
38	0x9b0b7c67	-1.1538007e-22
39	0x12b4351c	1.13726895e-27
40	0x8ea7cba8	-4.1364792e-30
41	0x80022e29	-2.0023e-40
42	0x8001607c	-1.26448e-40
43	0x00300f6e	4.413639e-39
44	0x000005da	2.099e-42
45	0xa9dcd62a	-9.807114e-14
46	0xb8b7e2d1	-8.768368e-05
47	0x00001df4	1.0745e-41
48	0x00002cd1	1.6077e-41
49	0xa04d7dc1	-1.7405784e-19
50	0x0508fb61	6.44086e-36
51	0x00006153	3.4913e-41
52	0x27d475ab	5.8969396e-15
53	0x00773991	1.0949075e-38
54	0x9da29327	-4.3033195e-21
55	0xb1488796	-2.9180902e-09
56	0x8000360e	-1.9391e-41
57	0x80007b6d	-4.4277e-41
58	0xb7018490	-7.719864e-06
59	0xa328fea9	-9.161225e-18
60	0x800b3213	-1.028154e-39
61	0x16ff9da7	4.1296965e-25
62	0x8000f79d	-8.8827e-41
63	0x9c80692e	-8.497518e-22
64	0xa9e90dff	-1.03497065e-13
65	0x9680d4ab	-2.0813728e-25
66	0x9748dc64	-6.4901657e-25
67	0x176dfb33	7.689589e-25
68	0x16a3f224	2.6486883e-25
69	0x9ba222fb	-2.6823257e-22
70	0x151ef7e8	3.210341e-26
71	0x8000336d	-1.8448e-41
72	0xad5909c8	-1.2337194e-11
73	0xad8b5e13	-1.5844248e-11
74	0x96d189ab	-3.3852652e-25
75	0xb78f272b	-1.7065167e-05
76	0x992e6278	-9.015475e-24
77	0x977999a5	-8.0650166e-25
78	0x16257eb8	1.3368579e-25
79	0x1f63204d	4.8095838e-20
80	0x180613bb	1.7329055e-24
81	0x95baf2dd	-7.550797e-26
82	0x92b4676c	-1.13850925e-27
83	0xb6d52be5	-6.3530047e-06
84	0x9816ce5b	-1.9491228e-24
85	0x9c89ef18	-9.127704e-22
86	0x97508248	-6.7372863e-25
87	0x9a851a02	-5.504953e-23
88	0xb3467363	-4.620541e-08
89	0x171b8bc4	5.025961e-25
90	0x9c4e737c	-6.8308943e-22
91	0x800453a5	-3.97348e-40
92	0xb55de754	-8.266554e-07
93	0x000c02a2	1.10297e-39
94	0x81008c84	-2.3610702e-38
95	0x8002cbc4	-2.56768e-40
96	0x0026e573	3.57206e-39
97	0x80084e97	-7.62877e-40
98	0x80073b29	-6.64071e-40
99	0x04a7fa50	3.9491387e-36
100	0x000902a5	8.27468e-40
101	0x8000e1e1	-8.103e-41
102	0x83f0935a	-1.41397625e-36
103	0x8f06a6d8	-6.638843e-30
104	0x8008eb35	-8.1906e-40
105	0x0d354893	5.586229e-31
106	0x0001df19	1.71868e-40
107	0x00720442	1.0470774e-38
108	0x0009fe5d	9.17768e-40
109	0x8e4930b3	-2.479861e-30
110	0x0010ab7c	1.530885e-39
111	0x8002a17d	-2.41602e-40
112	0x00495b4c	6.736742e-39
113	0x154ba01f	4.1121837e-26
114	0x0006e1b6	6.31983e-40
115	0x001afd79	2.478652e-39
116	0x0002ee02	2.69052e-40
117	0x8cf82bf5	-3.8236906e-31
118	0x139841b7	3.8434994e-27
119	0x8019714f	-2.336535e-39
120	0xb1033651	-1.9093884e-09
121	0x3c9dc4ab	0.019258818
122	0xa7d22a58	-5.833262e-15
123	0x3d442f2c	0.04789655
124	0x3de6f159	0.11276502
125	0x3d970dd9	0.07375688
126	0x3e7da249	0.24768938
127	0xbdcf26e1	-0.101148374
128	0x3d73fc2d	0.059566665
129	0x3bc8f66e	0.0061328923
130	0xbde6500a	-0.11245735
131	0x15f2d73f	9.808262e-26
132	0x3fb36de6	1.4017913
133	0x3d9ea6d3	0.07746663
134	0xbd5bc512	-0.053654738
135	0x3da516a0	0.08060956
136	0x8000bff6	-6.8863e-41
137	0xbda450fd	-0.0802326
138	0xbd942f9a	-0.07235642
139	0xbdd018f7	-0.10161012
140	0x3d5647a1	0.052314404
141	0xbe0997ff	-0.13436888
142	0xae126572	-3.3286658e-11
143	0x3dd6c048	0.104858935
144	0x3e3aa419	0.18226661
145	0xbe4ffff6	-0.20312485
146	0x3d462291	0.04837281
147	0xbe2361f4	-0.15955335
148	0x3f59338d	0.84844285
149	0xbdd4ce1b	-0.10390874
150	0x302feee2	6.40041e-10
151	0x3ecc0e4e	0.39854664
152	0x27b13ba0	4.9192014e-15
153	0xbf162562	-0.5865079
154	0x3d842345	0.0645204
155	0x3d4aecc2	0.049542196
156	0xb98717d0	-0.00025766948
157	0xbe0a2b99	-0.13493194
158	0x3dbfe3a0	0.09369588
159	0xbe8b2766	-0.27178496
160	0xbf6115dd	-0.87923986
161	0x341ff801	1.4898252e-07
162	0x3db46348	0.08807999
163	0xbef10970	-0.47077513
164	0x3f217f4b	0.6308486
165	0xbef83605	-0.48478714
166	0x80000c54	-4.422e-42
167	0x3e9c0fb0	0.3048072
168	0x3ea53425	0.32266346
169	0xbde8dfd7	-0.11370819
170	0x3dfaf016	0.12252824
171	0xbf1e5300	-0.618454
172	0xaca05b0c	-4.5575817e-12
173	0x3f6c3c6f	0.92279714
174	0xbe147062	-0.14495996
175	0xbf027725	-0.5096305
176	0x3e822873	0.25421485
177	0x3f68ffd9	0.9101539
178	0xbe25855a	-0.16164151
179	0x3d82ebfb	0.06392666
180	0x2f936b2f	2.6815303e-10
181	0x3f80d7f7	1.0065907
182	0xa53dde6c	-1.6468496e-16
183	0x3f814631	1.0099546
184	0x3e0b3597	0.13594662
185	0x3e8205c1	0.25395015
186	0x3f1bb42e	0.6082181
187	0xbef69198	-0.48157954
188	0xbef57730	-0.47942495
189	0xbf42a03f	-0.76025766
190	0x3ed2fc92	0.4120832
191	0x02dbb39d	3.228225e-37
192	0xbda6ced9	-0.08144922
193	0x3c47fc70	0.012206182
194	0x3e91634c	0.2839607
195	0xbf412a73	-0.754554
196	0x80006616	-3.6622e-41
197	0x3f3fbdba	0.74898875
198	0x3d8042b3	0.06262722
199	0xbdbd5bdd	-0.09246037
200	0xbecf1ab2	-0.40450054
201	0xbdbe7fad	-0.09301696
202	0xacd0510a	-5.9207127e-12
203	0x3e78b9d5	0.2428964
204	0x3d28677d	0.04111432
205	0x3d473e0b	0.048643153
206	0x3dd509ef	0.10402285
207	0xbf298faf	-0.6623487
208	0x3e56e8b3	0.20987205
209	0xbeee0345	-0.4648687
210	0x0001ddc1	1.71386e-40
211	0xb6cb1361	-6.0521274e-06
212	0x80017147	-1.32472e-40
213	0xb984489c	-0.000252311
214	0x381f2f99	3.7952883e-05
215	0x800196aa	-1.45884e-40
216	0x8001d2c2	-1.67441e-40
217	0xb1020ce5	-1.892482e-09
218	0xaff282e1	-4.411254e-10
219	0xa71fcf03	-2.2177904e-15
220	0x00011485	9.9197e-41
221	0x00009883	5.4711e-41
222	0xb8c45db1	-9.36346e-05
223	0x9affab2a	-1.0574206e-22
224	0x00009bea	5.5931e-41
225	0xb8450442	-4.6972425e-05
226	0x00430d01	6.157643e-39
227	0x8001215e	-1.03805e-40
228	0xa6bfd869	-1.3311945e-15
229	0xb32689dc	-3.877527e-08
230	0x0001f41a	1.79403e-40
231	0x80000da1	-4.889e-42
232	0x009039aa	1.3244997e-38
233	0xbbf5a5e1	-0.007496581
234	0xb0aa5614	-1.2393593e-09
235	0xb98304b8	-0.00024989783
236	0xaaa5a2b4	-2.9422786e-13
237	0x2b2d5f34	6.159407e-13
238	0xb93843bd	-0.00017572842
239	0xade3b0a4	-2.5885356e-11
240	0x05ef5451	2.2506425e-35
241	0xa76fbc38	-3.3269946e-15
242	0x2211fae9	1.9783995e-18
243	0x2da1dc30	1.8401364e-11
244	0xb61259e9	-2.180803e-06
245	0xabb1e1da	-1.2639293e-12
246	0x2a6b2a98	2.088697e-13
247	0xaac3d97a	-3.4789863e-13
248	0xab333d32	-6.36785e-13
249	0x2e95e85a	6.8170095e-11
250	0x2baf66cd	1.2463031e-12
251	0x8017dd05	-2.191503e-39
252	0xba112823	-0.0005537292
253	0xbd21c13f	-0.039490934
254	0xaaa433b8	-2.916814e-13
255	0xb3b39b0d	-8.3635406e-08

linears.1.bias f4 [30]
0	0x3f604c78	0.8761668
1	0xb3383bf0	-4.289535e-08
2	0xb8b35bcd	-8.552484e-05
3	0xa8c5e18b	-2.1969207e-14
4	0x3db01b1e	0.08598922
5	0xbf06e8be	-0.52698886
6	0x3dfd67b3	0.12373295
7	0xba8f2e09	-0.0010923754
8	0xbd0e9a58	-0.034815162
9	0xa186eefd	-9.143453e-19
10	0xbe2014e5	-0.1563297
11	0xb5b5132b	-1.349113e-06
12	0x9f0be6d2	-2.9625325e-20
13	0xbcc84522	-0.024447028
14	0xbfbf67bc	-1.4953532
15	0xa1002581	-4.3417723e-19
16	0xbe927e46	-0.28611964
17	0xbe627ec6	-0.22118673
18	0x9ff5b320	-1.04057873e-19
19	0x3eb6b2d1	0.356833
20	0xbf39195a	-0.7230431
21	0x3f3c4dcd	0.73556215
22	0x3f01e5ea	0.50741446
23	0xbf414759	-0.7549949
24	0x3ea5a7bb	0.3235453
25	0xa4905724	-6.259767e-17
26	0xbf86c724	-1.0529523
27	0xb1e40a35	-6.6368337e-09
28	0xb9917859	-0.0002774622
29	0xbe456622	-0.19277242

linears.2.weight f4 [30, 30]
0	0xbe82bbf5	-0.25534025
1	0xaf2755d8	-1.521906e-10
2	0x16f746cf	3.9949689e-25
3	0xb1241afe	-2.3880484e-09
4	0x3d422d15	0.047406275
5	0x3d179458	0.037006706
6	0x3f17ff47	0.593739
7	0x044b20ef	2.3877658e-36
8	0xaa78ccda	-2.2097897e-13
9	0x084a51c8	6.0883297e-34
10	0x3dd56ba3	0.10420921
11	0x354afbfd	7.5617555e-07
12	0x1d688639	3.0774336e-21
13	0x3edac7bb	0.42730507
14	0xbdac3943	-0.08409359
15	0x8000a7c9	-6.019e-41
16	0xbf25ab42	-0.64714444
17	0xbd22608a	-0.039642848
18	0x1c8a23c5	9.14132e-22
19	0xbe766f0f	-0.24065803
20	0x3eb5e224	0.35524094
21	0xbed8a03f	-0.42309758
22	0xbe02471c	-0.12722439
23	0x3eda36e1	0.42619994
24	0xbeaf00f1	-0.34180406
25	0x800181d5	-1.3841e-40
26	0xbf0bd03c	-0.54614615
27	0x0001129e	9.8514e-41
28	0xb6bf1d2a	-5.6956387e-06
29	0x3ec9ae3d	0.39390746
30	0xbe968be7	-0.29403612
31	0x876ed3e8	-1.7967404e-34
32	0x16d28333	3.4010128e-25
33	0x059098f0	1.3597875e-35
34	0xbdbbd64d	-0.09171734
35	0xbe5124f5	-0.20424254
36	0xbd59452e	-0.05304449
37	0x8000fb95	-9.025e-41
38	0xa97ffcc5	-5.6840617e-14
39	0x0897e3c7	9.141532e-34
40	0xbe709f63	-0.23498301
41	0x2bc97643	1.4314733e-12
42	0x9c6947f2	-7.718622e-22
43	0xbed901e5	-0.42384258
44	0x3b95e129	0.0045739603
45	0x0000f02f	8.6162e-41
46	0xbd3a4016	-0.045471273
47	0x3909b277	0.00013131821
48	0x9b8f2b28	-2.3685255e-22
49	0x3da86da4	0.08224037
50	0x3f175655	0.5911611
51	0xbc9dbece	-0.019256022
52	0xbefc01da	-0.49220163
53	0xbe7f3174	-0.24921209
54	0x3d8822e9	0.066472836
55	0x00013b5a	1.13127e-40
56	0xbe68b176	-0.22723946
57	0x00007aa9	4.4002e-41
58	0x333474a7	4.201561e-08
59	0x3e65f2d8	0.22455919
60	0xbd93339d	-0.07187579
61	0x0001a4c3	1.50941e-40
62	0x9356a410	-2.7091486e-27
63	0x80019074	-1.43656e-40
64	0xbd502f61	-0.050826434
65	0xb7bb95ee	-2.2361954e-05
66	0xb9547762	-0.00020262369
67	0x00010f8e	9.7415e-41
68	0x800227ac	-1.97903e-40
69	0x09114592	1.7486452e-33
70	0xbcb5a407	-0.02217294
71	0x0000312b	1.7638e-41
72	0x80012750	-1.05938e-40
73	0x3bc7e299	0.0061000106
74	0x80015bb7	-1.24737e-40
75	0x8000e0a3	-8.0584e-41
76	0xbb55269c	-0.0032524234
77	0x1bea05c5	3.871578e-22
78	0x8000f4f4	-8.7873e-41
79	0xbd0849c5	-0.033273477
80	0x3c9594db	0.018259456
81	0x3b7d91d5	0.003869166
82	0xb8f3b8d8	-0.00011621573
83	0x3d2686c8	0.04065588
84	0xbd62780f	-0.055290278
85	0x00006630	3.6658e-41
86	0x3a38da20	0.0007051546
87	0x8000329e	-1.8158e-41
88	0x80613afa	-8.9292e-39
89	0x3da6a35f	0.08136629
90	0xbe8488a2	-0.25885493
91	0x800f8af7	-1.427384e-39
92	0x8000b12e	-6.356e-41
93	0x000037a2	1.9957e-41
94	0xbe84b3f7	-0.25918552
95	0x3af1c115	0.0018444384
96	0xbc12587b	-0.008932228
97	0x8000058c	-1.99e-42
98	0x801561ca	-1.963626e-39
99	0x8000eb4a	-8.4406e-41
100	0xbe05c280	-0.13062477
101	0x000096e5	5.4131e-41
102	0x80071f27	-6.54024e-40
103	0xbd83b5c5	-0.06431154
104	0x000dfd9e	1.284842e-39
105	0x903d21e3	-3.7299783e-29
106	0xba921a60	-0.0011146776
107	0x29bec1da	8.471323e-14
108	0x000102d2	9.2847e-41
109	0x38df43ca	0.00010646095
110	0xbe8a0f40	-0.2696476
111	0xbe20c9f3	-0.15702038
112	0xb9a8e7c0	-0.00032216124
113	0xb7f72b0c	-2.946474e-05
114	0xbd730ddc	-0.05933939
115	0x220928a0	1.8588469e-18
116	0x39c89b6b	0.00038262768
117	0x00005f04	3.4085e-41
118	0x9c8b6c76	-9.226285e-22
119	0x391ac41f	0.00014759645
120	0xba3e0f05	-0.0007250163
121	0x800c49ee	-1.128547e-39
122	0x800078fd	-4.3402e-41
123	0x9c6d7c7c	-7.8577614e-22
124	0xbaaaa3c4	-0.0013018777
125	0x34f36efc	4.534303e-07
126	0xb2941282	-1.7237884e-08
127	0x800160ab	-1.26513e-40
128	0x002fe2c8	4.397622e-39
129	0x0028ed1e	3.758481e-39
130	0xb8730bbd	-5.7946647e-05
131	0x00006e3d	3.9546e-41
132	0xa8a01921	-1.7774466e-14
133	0x34ee8db4	4.4434057e-07
134	0x36d19134	6.2455892e-06
135	0x006bcbb5	9.899474e-39
136	0xb391f1f0	-6.796097e-08
137	0x291cbcf2	3.4802842e-14
138	0x0000e156	8.0835e-41
139	0xb462d8a5	-2.1126705e-07
140	0xb4833b96	-2.4444006e-07
141	0x3476a6e3	2.2971248e-07
142	0xb4e39abd	-4.2394632e-07
143	0x3342ad0b	4.5326527e-08
144	0x35ec0e4a	1.7587529e-06
145	0xa11d1cab	-5.323161e-19
146	0xb4d5f092	-3.984938e-07
147	0x0000845e	4.7484e-41
148	0xae0bc48c	-3.177951e-11
149	0xb44b6668	-1.8943103e-07
150	0xbf30423f	-0.68851084
151	0x80001fef	-1.1456e-41
152	0x002f14bc	4.323706e-39
153	0x0005dc78	5.38267e-40
154	0xbe778a30	-0.24173808
155	0xbf5fc255	-0.874059
156	0xbea5dfb7	-0.32397243
157	0x800912db	-8.33284e-40
158	0xa9028992	-2.8985122e-14
159	0x0626aad6	3.134664e-35
160	0xbe5e24c0	-0.21693707
161	0xa5f153e4	-4.1863682e-16
162	0x1c7ddeee	8.399881e-22
163	0xbe668cd1	-0.22514655
164	0x3a0899d2	0.00052109093
165	0x390a0be0	0.0001316513
166	0xbed0d21e	-0.40785307
167	0xb94d0e40	-0.00019555632
168	0x9c16b182	-4.986026e-22
169	0x3eb33b45	0.35006157
170	0x3e85c19b	0.26124272
171	0xbe867a41	-0.26265147
172	0xbe65d366	-0.22443923
173	0xbbd7e494	-0.006588528
174	0xbef0e390	-0.47048616
175	0x8000bbd0	-6.7374e-41
176	0x3f274c30	0.6535063
177	0x00017269	1.32878e-40
178	0x373e39cb	1.13383385e-05
179	0xbe67d306	-0.22639093
180	0xa3ca3a46	-2.1925564e-17
181	0x000666cd	5.87891e-40
182	0x0000746a	4.1761e-41
183	0x80017272	-1.32891e-40
184	0xa8381943	-1.021953e-14
185	0x850efb25	-6.722936e-36
186	0x1332d8a5	2.2573573e-27
187	0x80000894	-3.077e-42
188	0x00551b86	7.815891e-39
189	0x80006f40	-3.9909e-41
190	0xadb42f65	-2.0484678e-11
191	0x000139c6	1.1256e-40
192	0x000a7541	9.60418e-40
193	0xa35f8796	-1.2117566e-17
194	0x8000c95e	-7.2237e-41
195	0x2fef07d9	4.3479423e-10
196	0x84e64346	-5.413452e-36
197	0x804261d1	-6.096233e-39
198	0x0000d730	7.7195e-41
199	0x85347696	-8.48534e-36
200	0x04deb554	5.2358473e-36
201	0x991d036f	-8.117403e-24
202	0x8d2226f0	-4.9966973e-31
203	0x870ea6f8	-1.073196e-34
204	0xa6026b77	-4.524845e-16
205	0x8001452f	-1.16654e-40
206	0x061859d5	2.865402e-35
207	0x000086eb	4.84e-41
208	0x800a370a	-9.38099e-40
209	0x848c9498	-3.3050304e-36
210	0xbf0abd87	-0.54195446
211	0x014e6a96	3.7912696e-38
212	0x805de055	-8.621176e-39
213	0xabc42cbe	-1.3939056e-12
214	0xbf141303	-0.5784151
215	0xbee1ceef	-0.4410319
216	0xbdd5c7d7	-0.10438507
217	0xa136c2cc	-6.192181e-19
218	0x9eeb889d	-2.4938095e-20
219	0x9a2608c7	-3.4335086e-23
220	0xbe20ffe7	-0.15722619
221	0x8012fe4f	-1.744268e-39
222	0x80305d62	-4.441603e-39
223	0xb6180e4c	-2.2658087e-06
224	0x396a8da0	0.00022368738
225	0x801bbeba	-2.547978e-39
226	0xb923b16f	-0.0001561099
227	0xb59eac50	-1.1822067e-06
228	0xa7aa8377	-4.7327013e-15
229	0xba04562f	-0.0005048243
230	0xbc1ec99c	-0.009691622
231	0xbe90aa68	-0.2825501
232	0xbcc501d3	-0.024048721
233	0xada56815	-1.880455e-11
234	0xbba52589	-0.005039875
235	0xad788ac5	-1.4127981e-11
236	0xbefb08ef	-0.49030253
237	0x800558c0	-4.91015e-40
238	0xa4b90e56	-8.025525e-17
239	0xb57fb053	-9.525149e-07
240	0xba9bce5e	-0.0011887064
241	0x805b0861	-8.360036e-39
242	0x8000a090	-5.7599e-41
243	0x36806236	3.8261305e-06
244	0xbab699d4	-0.0013931342
245	0xb748337f	-1.1932919e-05
246	0xb4aa64fd	-3.1738446e-07
247	0x000189a0	1.41206e-40
248	0x2b873efa	9.609806e-13
249	0x804a8b72	-6.84585e-39
250	0xbad5b3f2	-0.0016304238
251	0x00006ac0	3.8295e-41
252	0x00221dcd	3.133097e-39
253	0xb65f9ec5	-3.3322005e-06
254	0xb3d8a89f	-1.0088956e-07
255	0x2592708d	2.540323e-16

linears.2.bias f4 [30]
0	0x3edfb898	0.4369552
1	0xbef29b89	-0.4738429
2	0xbe000fe5	-0.12506063
3	0xbe7bd838	-0.245942
4	0xb9051c6e	-0.0001269446
5	0xbe373788	-0.17892277
6	0xa7f04253	-6.668529e-15
7	0xbed373df	-0.4129934
8	0xbad2424f	-0.001604149
9	0xbf627c1c	-0.88470626
10	0xbb0cb196	-0.0021468154
11	0xbf7570a7	-0.9587502
12	0xbe82eb72	-0.25570256
13	0x3df85f1f	0.12127518
14	0xa7271155	-2.3185301e-15
15	0x3f137d11	0.5761271
16	0xbf0083a1	-0.5020085
17	0x300c568d	5.10547e-10
18	0x3c99e96f	0.018788068
19	0x3f31ac00	0.69403076
20	0xb89ed14d	-7.5730124e-05
21	0x3d5d1d77	0.053983178
22	0xa4285989	-3.6505032e-17
23	0x3fa45b64	1.284039
24	0xbf1fd5d9	-0.6243568
25	0xbeadeabf	-0.3396816
26	0xbc9e64e2	-0.019335214
27	0xbc9f14fe	-0.01941919
28	0xbc1d585a	-0.009603584
29	0xbfb78885	-1.4338537

output_layer.weight f4 [5, 30]
0	0x3e2e0f06	0.16997918
1	0xbe0a9abb	-0.13535587
2	0xbc1d7970	-0.0096114725
3	0xbaded828	-0.0017001675
4	0x3e2eb536	0.17061314
5	0xbe19a48a	-0.15004173
6	0x26d6d2f5	1.4906413e-15
7	0x3987330c	0.0002578724
8	0x3a320bd6	0.0006791925
9	0x3cb44f7c	0.022010557
10	0xbb6efbf1	-0.0036466087
11	0xbf1683fc	-0.5879514
12	0x3e72b98c	0.23703593
13	0x3ee88269	0.45411995
14	0xa18162d5	-8.767541e-19
15	0xbe3d5444	-0.18489176
16	0x3cc3bffd	0.023895258
17	0x2e963e11	6.8322355e-11
18	0xbf0499e0	-0.51797295
19	0x3e3aab98	0.1822952
20	0x3739ae2f	1.1067415e-05
21	0xbdeda9bd	-0.11604641
22	0x800081e2	-4.6593e-41
23	0xbe902195	-0.2815062
24	0xbe664156	-0.22485861
25	0x3d7c1402	0.06154252
26	0xbb840d96	-0.00402994
27	0x96ad1907	-2.7965452e-25
28	0xbd533d05	-0.051571865
29	0xbfc5bf9b	-1.5449098
30	0x3e3943fc	0.1809234
31	0xbe107898	-0.14108503
32	0xbaff0731	-0.0019457099
33	0x3e3a6b93	0.18205099
34	0x3c6c8e5c	0.014438238
35	0xbe6065b0	-0.2191379
36	0x2800c1c7	7.147446e-15
37	0x3da7aaac	0.0818685
38	0xbb5a0ede	-0.0033273022
39	0x3c8b71e5	0.017022083
40	0x2695b21a	1.0387226e-15
41	0xbe30d127	-0.17267285
42	0x3e46dc67	0.19420014
43	0x3f0b0c57	0.54315704
44	0xa1a0edd6	-1.0904976e-18
45	0xbdaa5b0c	-0.08318147
46	0x3ccff2a8	0.025384262
47	0xaea27101	-7.3869806e-11
48	0x3e125d4e	0.14293405
49	0xbecfa608	-0.4055636
50	0xb76a8016	-1.3977309e-05
51	0xbdfc68c1	-0.12324668
52	0x8aaae5b9	-1.6456817e-32
53	0xbedcd7cc	-0.4313339
54	0xbe30d37d	-0.17268176
55	0x3ca25a7c	0.019818537
56	0x39d3d494	0.0004040344
57	0x299791f1	6.731064e-14
58	0x33f999ef	1.16229664e-07
59	0x3fa2f3b9	1.2730628
60	0x3f034dd6	0.51290643
61	0x3dc9c1df	0.09851431
62	0x3c839c5b	0.016065767
63	0xbf5a4401	-0.85260016
64	0x3d2e551b	0.04256163
65	0x3e4a91c8	0.19782174
66	0x296fa7c6	5.321418e-14
67	0xbe6d1a01	-0.23154451
68	0x3c1bc1c1	0.009506644
69	0xbe4e4a5f	-0.20145558
70	0x29a48392	7.305887e-14
71	0x3f40df3d	0.75340635
72	0xbca3d30e	-0.0199981
73	0xbd210baf	-0.039317783
74	0xa20b2bd7	-1.8861221e-18
75	0xbe0378a8	-0.12838995
76	0xbe705e75	-0.23473532
77	0x31d13680	6.0888965e-09
78	0xbe6bd40f	-0.23030113
79	0xbeee57c2	-0.4655133
80	0x389cf5e3	7.48446e-05
81	0x3e734437	0.2375649
82	0x8015b901	-1.994912e-39
83	0x3ed27f4f	0.41112754
84	0xbe6f76f2	-0.23385218
85	0x3c4c0c0a	0.012454042
86	0x3b5e93b1	0.0033962543
87	0xb597bf87	-1.1306118e-06
88	0xbe3faf02	-0.18719104
89	0xbfba23c6	-1.4542167
90	0x3d25cdc1	0.040479425
91	0xbed9e7d3	-0.4255968
92	0x3d4cf494	0.050037935
93	0x3f563327	0.836718
94	0x3a1a3b03	0.0005883427
95	0xbe108154	-0.14111835
96	0x93137b82	-1.8614903e-27
97	0x3c0e3142	0.008678736
98	0x3a63beec	0.00086878124
99	0xbf4077fa	-0.7518307
100	0x2bc194d0	1.3754779e-12
101	0xbf6ee6d1	-0.9332095
102	0x39949980	0.00028343126
103	0x3c07f411	0.008297936
104	0xa2302c20	-2.3875807e-18
105	0x3e84f92b	0.2597135
106	0x3f517b9d	0.81829244
107	0x36843e65	3.9411702e-06
108	0x3c0e350e	0.008679641
109	0xbdb23529	-0.08701546
110	0xb80a63d7	-3.2994747e-05
111	0xbf3b0c7b	-0.7306592
112	0x1f526feb	4.4561806e-20
113	0x3e4b7db9	0.19872178
114	0x3f0be317	0.54643387
115	0x3dfc1bb5	0.12309972
116	0x3a9d2188	0.0011988143
117	0x9c97d871	-1.0048291e-21
118	0x3e367b50	0.17820477
119	0xbeddb45c	-0.43301666
120	0x3db5798b	0.08861073
121	0xbe17e29f	-0.14832543
122	0x3c6d2a28	0.014475383
123	0x3ead5262	0.33851916
124	0xbc0145ef	-0.007890209
125	0xbeca3971	-0.3949695
126	0x03044c9d	3.887926e-37
127	0xbaff5949	-0.0019481565
128	0x391ce8c9	0.00014964039
129	0x3d7a5b06	0.061121963
130	0xbcb920f8	-0.022598729
131	0x3ed03102	0.4066239
132	0x3ab6c965	0.0013945518
133	0x3d790f03	0.060805332
134	0x9fb4d0fb	-7.6578694e-20
135	0x3f4f0b3b	0.8087651
136	0xbe4ec123	-0.20190863
137	0xaf8c96ae	-2.5572916e-10
138	0xbe96803c	-0.2939471
139	0xbd760e23	-0.060072076
140	0xaed4b561	-9.672863e-11
141	0x3e161f63	0.1466041
142	0x00003baa	2.1403e-41
143	0xbe150bfc	-0.14555353
144	0xbdc02ca8	-0.093835175
145	0xbead3825	-0.33831897
146	0xbc44422f	-0.01197867
147	0xbb4b3130	-0.003100466
148	0xa3e078a9	-2.433723e-17
149	0x3fbc2f0c	1.4701858

output_layer.bias f4 [5]
0	0x3f4a7588	0.7908559
1	0x3eb32577	0.3498952
2	0x3eb8e6ff	0.36113736
3	0x3e46ff20	0.1943326
4	0xbf660eac	-0.8986614
