data/MTMR_28002/real/uniform/N5/D5/dual/result/model/SinNet.pt (torch_old, 661567 bytes, 6 tensors)

_input_linear.weight f4 [400, 5]
00000000: 8176 3a38 a4f7 ce37 4345 b4b7 c759 7237
00000010: 7119 6738 09c9 f53a 6a40 283a cbb1 00ba
00000020: 4e7b 333a 2688 463a cd21 deb9 71af 8fb9
00000030: 12d1 0239 ec82 07b9 affa 2eb8 820f 4738
00000040: b0a1 e237 cd3a 51b7 9740 bd37 804d 4938
00000050: 3cfb 7036 be2a ac36 3a16 2235 abb6 1a36
00000060: 78fb df35 2ac1 81b9 dc66 b5b8 74e8 a738
00000070: 5895 97b8 d47c 99b9 c4ba bdb4 1125 a834
00000080: 8ea1 d034 707e 9034 24a3 4935 f869 7337
00000090: 7885 1e37 bdf0 53b7 a57a b737 5d96 d537
000000a0: 2eca 78bc f1d5 b1b9 e1c8 a43b 9e13 9abb
000000b0: 956f 823b a127 ccb7 1b5b 00b8 a783 0cb8
000000c0: 98a6 fb35 8ca4 1b38 b887 1f3b ef18 2d39
000000d0: df27 94b9 0c4e ed39 0cea 1d3a e8e2 05bc
000000e0: d2b5 b8bb c29d 5e3d 62d6 2c3d f109 1a3e
000000f0: 34ca 3439 2059 b238 b027 7cb8 6d17 8138
00000100: afab b938 9b16 c8b5 b8c0 18b6 cd12 e2b5
00000110: afb4 8135 cae7 deb5 8d1f ed38 4497 a338
00000120: dbc9 3ab8 3dec a538 3e44 a538 8808 ceb7
00000130: c04b 82b7 c722 4937 ad60 02b7 20da 12b8
00000140: 53ab 07b7 e43f 2db4 c34b 8037 09de e9b6
00000150: 1c18 92b7 b682 373c d0db 7c3d 7ce0 8e3d
00000160: a8eb e0bd 246a f1bc 9846 ba36 a69a 0536
00000170: 416b 83b6 213b 8b36 cf4a cf36 9866 03bc
00000180: fd9f 8cbb 1e74 d4ba 4c11 a13b 0e80 6abb
00000190: 8e73 b6b8 4c39 1ab8 71ee 8437 2584 2fb7
000001a0: 5139 3cb8 ed66 3b35 c336 bf34 1723 1433
000001b0: e1be a3b4 18f8 b033 61cf a838 d90a 3138
000001c0: ef9d e3b7 1b5d 2738 593d f438 1701 3939
000001d0: e3f5 6838 e365 8fb7 be4b 4c38 e29d 0339
000001e0: 9ff3 5bbb 5b18 deb9 2321 013a 6c57 18ba
000001f0: da59 05b9 9c51 1138 9e1d d137 a4cc 8bb6
00000200: 3ad0 22b7 36b0 fb37 4845 393a 8e3e 9639
00000210: 7ce6 18b8 5478 8838 8cd2 d5b7 7935 e735
00000220: 8293 5235 4fbb b7b5 0f1a 9b35 8b7e 2236
00000230: 8054 20b3 cfcd 6834 eecd 2a35 ba4c 65b5
00000240: db57 83b5 3153 a2bc 6eb4 bc3c 964d 923c
00000250: 04d8 213d a0e5 783d 3cdc 4d38 4694 77b7
00000260: 6bde 00b8 1c0e 9737 0449 cab7 8707 1335
00000270: 9a8d 8a35 92f7 35b4 76c7 4135 e908 d335
00000280: fae9 ce3c 2eaa b13c 3461 903a 4271 92bd
00000290: 4a29 063e fc98 7bb7 de64 ecb6 6efe 1437
000002a0: 6a27 10b7 b522 04b7 9d36 813a c0a1 343a
000002b0: 52e9 06b9 fcfb 2938 545e 2d3a 8d7a da3e
000002c0: 4050 de3e efee ca3f 3134 b5bf 2cbf 30bd
000002d0: 1bbc ebba a566 dab9 7348 9139 3c2f a0b9
000002e0: ab9c 1eba 3c02 a537 b33b 8037 5f39 aeb6
000002f0: f296 3137 4f80 b837 7d7b e0b7 9db0 d3b6
00000300: f427 1937 dc7b 9eb7 210b 12b8 2b85 13b8
00000310: 4696 a3b7 bb8d fb37 51f6 f5b6 c3a5 59b7
00000320: 7b11 8b3a c4e6 2d39 be44 90b9 af4d 7d39
00000330: a72c 4c3a 5244 c4b9 8c97 72b7 39d9 bb38
00000340: dcf1 b8b8 cca4 5bb8 c654 4539 0795 1b38
00000350: 3fd4 6fb9 5186 b539 c854 7f39 684a 19b6
00000360: daec 5136 85eb f736 d086 efb3 7cf6 87b6
00000370: 7029 4cb9 00f3 5cb9 0453 a539 0293 7db9
00000380: 8816 a738 8063 1ebb 00fe 05ba 6860 213a
00000390: 0406 8ab9 d0af 013a ed2c f1b9 67ce 1b38
000003a0: 2d01 eb38 e4d3 21b9 d8cf dab9 6a36 af36
000003b0: 1b78 c836 83ce b8b5 9e27 c236 cd61 4837
000003c0: 8264 00b7 689a 43b7 e0ee 1cb7 5089 3bb7
000003d0: 852c 1d37 a919 f138 3529 2a38 9563 82b8
000003e0: 32d7 1638 d678 e638 1e76 b939 ebe2 4438
000003f0: ccef 2eb8 d05b 7438 37ee 4039 1313 78bb
4.445622e-05 2.467243e-05 -2.1489925e-05 1.4445227e-05 5.5098386e-05 0.001875193 0.000641829 -0.0004909306
0.0006846682 0.0007573388 -0.00042368323 -0.000274058 0.00012475651 -0.00012923375 -4.17183e-05 4.745974e-05
2.7016591e-05 -1.2471061e-05 2.2560633e-05 4.7994312e-05 3.5909025e-06 5.1309753e-06 6.0382047e-07 2.3054115e-06
1.6687982e-06 -0.00024748716 -8.6499116e-05 8.006478e-05 -7.2280585e-05 -0.00029275438 -3.5339883e-07 3.1319408e-07
3.8860566e-07 2.6914086e-07 7.5115736e-07 1.4508601e-05 9.4486095e-06 -1.2632631e-05 2.187241e-05 2.5461597e-05
-0.015184922 -0.0003391947 0.0050288294 -0.0047020456 0.003980587 -2.4337149e-05 -3.0602427e-05 -3.3501212e-05
1.8749442e-06 3.7108126e-05 0.002434237 0.00016507854 -0.00028258466 0.00045262312 0.00060239504 -0.008171774
-0.005636909 0.05434967 0.04219664 0.15042855 0.00017241464 8.504302e-05 -6.0118444e-05 6.155563e-05
8.853466e-05 -1.490774e-06 -2.2761942e-06 -1.6843784e-06 9.663835e-07 -1.6607748e-06 0.000113069174 7.800621e-05
-4.453385e-05 7.911816e-05 7.880524e-05 -2.4561086e-05 -1.5532481e-05 1.1988631e-05 -7.771113e-06 -3.5012257e-05
-8.086517e-06 -1.6135124e-07 1.5294068e-05 -6.9697894e-06 -1.7415783e-05 0.0112005975 0.061733067 0.06976411
-0.10982448 -0.029469557 5.55145e-06 1.9908562e-06 -3.9165902e-06 4.1494063e-06 6.1777896e-06 -0.008020066
-0.004291533 -0.0016208922 0.004915392 -0.0035781893 -8.69996e-05 -3.6769823e-05 1.584666e-05 -1.046158e-05
-4.4876073e-05 6.9812705e-07 3.5616367e-07 3.449085e-08 -3.05e-07 8.240767e-08 8.0494916e-05 4.221019e-05
-2.7134052e-05 3.9902614e-05 0.000116462536 0.00017643381 5.554211e-05 -1.7094373e-05 4.870793e-05 0.0001255195
-0.0033561958 -0.00042361286 0.0004925897 -0.0005811367 -0.0001271734 3.46467e-05 2.4928533e-05 -4.166346e-06
-9.704434e-06 3.0003586e-05 0.00070675137 0.00028656836 -3.645428e-05 6.507398e-05 -2.5489622e-05 1.7226404e-06
7.844575e-07 -1.3689076e-06 1.1555984e-06 2.4213539e-06 -3.7329755e-08 2.1681556e-07 6.36296e-07 -8.54208e-07
-9.78583e-07 -0.01981506 0.023035254 0.017859261 0.03951265 0.060765862 4.9080918e-05 -1.475687e-05
-3.072472e-05 1.8007173e-05 -2.4114277e-05 5.477272e-07 1.0323013e-06 -1.6947004e-07 7.2188357e-07 1.5723318e-06
0.025258053 0.021687593 0.0011015297 -0.071505085 0.13101688 -1.4996385e-05 -7.0450906e-06 8.880726e-06
-8.592246e-06 -7.875894e-06 0.0009858195 0.00068905577 -0.00012866154 4.052742e-05 0.0006613482 0.42671624
0.434206 1.5854167 -1.4156553 -0.043151066 -0.0017985137 -0.00041656676 0.00027710534 -0.0003055277
-0.0006050567 1.9670573e-05 1.5286589e-05 -5.192283e-06 1.0585167e-05 2.1994258e-05 -2.6760385e-05 -6.3088505e-06
9.128813e-06 -1.8892744e-05 -3.4819477e-05 -3.5171553e-05 -1.950109e-05 2.998753e-05 -7.330244e-06 -1.2972802e-05
0.0010610068 0.00016584533 -0.00027517037 0.000241569 0.0007788636 -0.00037434936 -1.4459609e-05 8.957316e-05
-8.8188535e-05 -5.2367148e-05 0.00018818965 3.7093672e-05 -0.00022871884 0.00034623084 0.00024350279 -2.2842087e-06
3.1281293e-06 7.3885917e-06 -1.1153827e-07 -4.052008e-06 -0.00019470393 -0.0002107136 0.00031533104 -0.00024182725
7.967377e-05 -0.0024168193 -0.00051113963 0.0006156028 -0.00026325893 0.00049471576 -0.00046000574 3.7147107e-05
0.00011205892 -0.00015433092 -0.00041735056 5.221741e-06 5.9744466e-06 -1.3769171e-06 5.7862626e-06 1.19437e-05
-7.652796e-06 -1.1658856e-05 -9.353942e-06 -1.1178039e-05 9.368295e-06 0.00011496555 4.0569535e-05 -6.217432e-05
3.5963203e-05 0.00010989762 0.00035373954 4.6941375e-05 -4.170816e-05 5.825964e-05 0.00018399289 -0.0037853166

_input_linear.bias f4 [400]
00000000: c0b1 e737 9651 143a 00c6 41b8 5376 6937
00000010: 5fc0 78b5 5a1e 07b9 3e02 8bb3 8d0b 3337
00000020: 88a5 67bb 507c 0b36 3e1a 2f3a 2332 113c
00000030: 046c 6f38 aef6 2c34 3ebf db37 37f9 9ab7
00000040: 342c e7b6 cc7b d4bc 7eb3 de35 8875 16bb
00000050: ba8e 98b7 460e 5c34 681b 1538 9f5d 3638
00000060: e4b2 30ba f4c8 1038 5e5a 2439 ea39 8b35
00000070: e32b 3f33 0391 f3bb aba8 9a37 7869 e732
00000080: 5bb4 913d 850c 63b6 78a2 2d39 c0ae 7e3f
00000090: d0f7 b5b9 994d 1637 d5cb 02b7 6e14 a1b7
000000a0: f39e 023a 7d91 d1b8 50a4 fc38 6465 6db6
000000b0: 3c42 0cb8 7f6d f2b9 63ad 23b9 92a7 1eb6
000000c0: b122 3b36 e437 9038 eaac e338 53de 30ba
000000d0: 10d2 bcbc ec28 a7b4 be3b c639 f6cd 4dbd
000000e0: 727e 803a aacd 0eb7 53a3 d3b6 2aa1 d4b9
000000f0: b249 a937 ed08 5db9 4529 8b37 856e b13a
00000100: 8e0a a9b7 72ad e1be 6ca1 14b5 fe0b f039
00000110: 175b c936 a0cb 18b6 b31f 1236 78bf 67bb
00000120: 542a a33d 8d81 a4b9 deef d3bc 7a2d c036
00000130: 0798 9c38 4f2c 2aba 621d 5f38 2bec 83b8
00000140: f425 3d39 0b74 5139 366f 69bc d96f aeb7
00000150: 3049 b138 a4c1 09b9 c3c7 9537 4385 bdb9
00000160: d9fa 0336 848a 0639 ff0f 8aba 895a afb8
00000170: 5693 95ba 338f c93a a1c0 4d38 7c38 7a39
00000180: 11d4 7bbb 7b98 02b7 4683 3c39 88c1 88bd
00000190: 080b b037 af89 f43e 318e 0b34 bc99 14ba
000001a0: 9c82 7d39 e9de 27b4 8bd1 6ab8 860c 073a
000001b0: e488 a434 28e5 cab7 68f0 ed36 864d 9fb6
000001c0: 9e26 9eba f6d3 d236 3ef7 f037 ce52 b33b
000001d0: ebc1 62bf 1e5b 0838 88f3 46ba 7a93 97b7
000001e0: b88e 23b7 2a8f 5f37 6306 9f3e 1c2f 24bb
000001f0: 0498 0439 205b 8539 903d 3835 8a0c 67b9
00000200: c9b8 8c37 7aa2 2cb9 f81a 6339 1601 2a37
00000210: 479b 5735 06b7 243b ee8f 99b8 5285 0ebb
00000220: 2b95 2bb8 3df6 b9b9 22e7 2734 100e 95b4
00000230: 38ab 5736 f049 7438 e510 1f36 1e26 1aba
00000240: 4bbd 803a 19d5 03b7 37a6 8c37 0f39 5837
00000250: 16fb 92b8 baf4 2236 fbf8 40b7 5e94 5f3a
00000260: 85a5 49b9 0b47 37bb 2cf9 e9ba 5168 b5b9
00000270: 9898 a6bc aedf 3237 7a62 0d3a 8c0e 5737
00000280: a784 d8b7 2a29 23bd 4e82 64b6 acab 1b38
00000290: fb65 0c39 2ca2 03ba a7b5 0a3a 2615 a7b5
000002a0: a64c 1d36 5179 853c 593d aab7 6e65 4b37
000002b0: fac3 b2b8 f58e b439 d7bc 253c 8771 b537
000002c0: 90f5 673c 583a c536 4cef ce38 5116 26b6
000002d0: 0e2e 843d f4ec 713b 0047 80b8 33b9 44b6
000002e0: f96f 3bb7 7984 33b6 c82a 5137 2e49 86b7
000002f0: 1ec9 0b3c 60a9 7239 1e14 88b8 f3e7 693e
00000300: 4004 7235 1455 95b8 58e2 6938 eeb4 cab2
00000310: 8816 18ba 8825 67ba 18b9 54bc 3402 2cb6
00000320: 797d 85b7 311d a5ba 433a a6b8 55d6 7a3e
00000330: c684 adb8 ae64 f5b8 346d 3e38 33fc 6038
00000340: 4b07 d0b8 5bdc bf35 abc1 a2b6 26bb 143a
00000350: 89d8 c9ba 1b53 9b37 4518 bab8 c462 c1b6
00000360: 479c cfb7 c873 913e 7ed4 0c36 f056 20b4
00000370: 34f9 843e 1a25 c5b7 0574 fd38 a8d6 a636
00000380: 5d6e ac3f 2bfa ecb7 2db5 d237 7fe9 3a38
00000390: 03b1 5939 a5af d438 a2ce 07b5 927f 9735
000003a0: 1f31 28b6 c5b5 3937 d4d8 eb38 a536 9c37
000003b0: 54e0 7db8 e905 60b8 371c b83a 84d5 773a
000003c0: 9374 fab6 eea9 a8ba e954 a1b8 b3f5 88b8
000003d0: 1a04 98b9 1ee6 3ebd 4822 44b6 049d 213b
000003e0: df9c 22b7 0793 81bc 1bcc e2b8 b74a e1bc
000003f0: 4410 0e3a 1fae e3b6 9717 8e39 40e7 0ab7
2.7620117e-05 0.0005657909 -4.6199188e-05 1.3915432e-05 -9.2667136e-07 -0.0001288591 -6.4731e-08 1.0671921e-05
-0.0035346467 2.0784973e-06 0.00066796306 0.008862051 5.7082638e-05 1.610849e-07 2.6195888e-05 -1.847428e-05
-6.8894824e-06 -0.025937937 1.6592528e-06 -0.0022958238 -1.8186274e-05 2.0494289e-07 3.5549892e-05 4.3479373e-05
-0.0006740524 3.4519428e-05 0.00015673923 1.0373162e-06 4.4510568e-08 -0.007433058 1.8436773e-05 2.6939901e-08
0.07114478 -3.3832923e-06 0.0001655909 0.994854 -0.00034707645 8.958764e-06 -7.796062e-06 -1.9202209e-05
0.0004982792 -9.992996e-05 0.00012046902 -3.537477e-06 -3.3440287e-05 -0.00046239418 -0.00015609483 -2.3641373e-06
2.7885364e-06 6.8768655e-05 0.00010856411 -0.0006746996 -0.023049384 -3.1135949e-07 0.00037810014 -0.050245248
0.0009803309 -8.511744e-06 -6.3073035e-06 -0.00040555868 2.0180687e-05 -0.00021079528 1.6589309e-05 0.0013536966
-2.0151285e-05 -0.4407764 -5.5369196e-07 0.00045785302 6.000871e-06 -2.276829e-06 2.1774147e-06 -0.0035361927
0.07967058 -0.0003137704 -0.025871214 5.72734e-06 7.466977e-05 -0.0006491588 5.3194708e-05 -6.2905565e-05
0.00018038583 0.00019975023 -0.014247706 -2.07945e-05 8.45365e-05 -0.00013137475 1.7855205e-05 -0.00036148177
1.9666534e-06 0.00012830837 -0.0010533332 -8.361514e-05 -0.0011411707 0.001537776 4.905521e-05 0.000238629
-0.0038425962 -7.784106e-06 0.0001797798 -0.06677538 2.0985972e-05 0.47761294 1.2997113e-07 -0.000566866
0.00024176616 -1.5634181e-07 -5.59851e-05 0.00051517074 3.0646981e-07 -2.4186986e-05 7.0911374e-06 -4.747594e-06
-0.0012065952 6.283163e-06 2.872536e-05 0.0054725176 -0.88577145 3.2509786e-05 -0.00075893896 -1.8069277e-05
-9.748786e-06 1.3325169e-05 0.3105956 -0.0025052493 0.00012645131 0.0002543563 6.8634927e-07 -0.00022034548
1.6775348e-05 -0.00016463725 0.00021658454 1.0133042e-05 8.03197e-07 0.0025133505 -7.3224175e-05 -0.0021746946
-4.09085e-05 -0.00035469412 1.5637173e-07 -2.7763645e-07 3.213716e-06 5.8242993e-05 2.370268e-06 -0.00058803137
0.0009822039 -7.857824e-06 1.67667e-05 1.2887888e-05 -7.008591e-05 2.428233e-06 -1.1502062e-05 0.00085288833
-0.00019230515 -0.002796593 -0.0017850748 -0.00034600732 -0.020336434 1.0661706e-05 0.00053933973 1.2818386e-05
-2.5810978e-05 -0.03983418 -3.4050495e-06 3.711476e-05 0.00013389431 -0.0005021419 0.00052913505 -1.2448625e-06
2.3439438e-06 0.0162932 -2.0294146e-05 1.2123359e-05 -8.524205e-05 0.00034438787 0.010115824 2.1629747e-05
0.014157668 5.8778496e-06 9.867418e-05 -2.4748917e-06 0.06454097 0.0036914917 -6.1167404e-05 -2.9314076e-06
-1.1172139e-05 -2.6750188e-06 1.24673315e-05 -1.6008122e-05 0.008531837 0.00023142016 -6.4887325e-05 0.22842388
9.015821e-07 -7.120721e-05 5.5762328e-05 -2.3598172e-08 -0.0005801697 -0.0008817543 -0.012983583 -2.563128e-06
-1.5913263e-05 -0.0012597201 -7.926349e-05 0.24495824 -8.274014e-05 -0.000117012634 4.5401233e-05 5.364064e-05
-9.919571e-05 1.4294741e-06 -4.850522e-06 0.0005673639 -0.0015399616 1.8516139e-05 -8.873692e-05 -5.763346e-06
-2.4749095e-05 0.28408647 2.0985312e-06 -1.4932789e-07 0.25971377 -2.3501507e-05 0.000120855904 4.972175e-06
1.347118 -2.8249886e-05 2.5118317e-05 4.4563316e-05 0.00020760675 0.00010141664 -5.059211e-07 1.1287505e-06
-2.5062543e-06 1.1069181e-05 0.000112460606 1.8622095e-05 -6.0528822e-05 -5.3411266e-05 0.0014046495 0.00094541186
-7.4641516e-06 -0.0012868026 -7.692894e-05 -6.5307504e-05 -0.00028994755 -0.046606176 -2.922623e-06 0.002466024
-9.692477e-06 -0.015817178 -0.000108145374 -0.027501447 0.0005419294 -6.7853975e-06 0.00027101926 -8.279283e-06

_middle_linear.weight f4 [400, 400]
00000000: 7878 1bbc 92f4 c63c 289b 423c e28c a03c
00000010: 30ce a0bb d0f9 91bc 589b 34bd e3f8 1d3d
00000020: 9476 73bc 005b c2bc 6606 df3c 004c 5ebc
00000030: 55f8 32bd 35b5 253d 478e 113d 5359 053d
00000040: 2280 803c f845 20bc 541e 3f3c eab3 aa3c
00000050: 864a c13c 607a 33bb 12e0 a73c 62bc d93c
00000060: 3078 93bb 7a46 e93c 00d0 11ba c231 04bd
00000070: 3804 59bc 72c3 2fbd 0897 11bc 079c 053d
00000080: 77a5 363d 7225 d23c b819 19bc cde5 2fbd
00000090: 2476 93bc 542e 20bc 6c82 733c b3ed e0bc
000000a0: 5d08 3d3d 4680 c43c 579d 423d 2001 bdbc
000000b0: 4d53 9abc 9f66 47bd 60ff cbbc 23b2 123d
000000c0: 40d4 c83b 8039 fcbc ac93 473c f2d2 8b3c
000000d0: e3ea 10bd 9113 393d 787b 4b3c 1704 113d
000000e0: d07a 7cbb a375 1dbd e0a1 6fbc c1bb 2b3d
000000f0: b9a7 4a3d e85b 14bc 9a73 f73c 93e6 27bd
00000100: bad6 28bd 0451 8ebc 2a9b dfbc dcd1 86bc
00000110: e6ce 8abc 490a 3e3d 25f7 2bbd 40ce ebba
00000120: 4ed4 0dbd 12e3 d83c b0a0 8d3b 644f 603c
00000130: 984b c93b 6f00 413d 0e2b c03c 4013 823a
00000140: 57fa 153d 6278 fa3c 1099 46bd 6899 aabb
00000150: c017 ed3a 9a3a adbc a294 44bd d329 a9bc
00000160: 409f 023c 6330 2abd 92d8 823c 3481 64bc
00000170: a0c4 073b 687a ed3b 504b 93bc d0b2 b2bb
00000180: 4c71 693c a258 be3c 83f7 3ebd e8c6 54bc
00000190: 746d 20bc 6f57 103d a014 193c 8c17 8abc
000001a0: f3b2 1b3d 8d39 c2bc 77e0 a8bc b0d9 66bb
000001b0: fb55 28bd 5026 3abb b7cb bebc 5ebd 26bd
000001c0: 6664 a63c 41e4 133d 667a 8d3c e178 423d
000001d0: 48e5 1a3c d339 313d e32b b5bc 1423 313c
000001e0: 001f 85b9 cf67 283d 206d 33bc e052 233c
000001f0: d6af 18bd 57ea e3bc 24d1 573c 6fe1 263d
00000200: 90c6 2bbd 125d ee3c a183 4a3d a2d0 d73c
00000210: 2915 373d 24b4 98bc b252 0ebd e167 013d
00000220: 4267 ce3c b244 b13c 000f cfba b908 313d
00000230: 936c 3ebd 7917 323d a207 af3c 9643 f73c
00000240: 62c5 fc3c 76f4 c63c b6f3 dd3c 7289 c63c
00000250: ef04 38bd e6e5 a13c f9f1 0b3d 5d68 01bd
00000260: 58b0 19bd 17eb a8bc 377d bbbc 28a0 2a3c
00000270: 8286 e83c 8511 04bd 5298 2cbd 40db b63a
00000280: c367 d5bc 5d7d c9bc 3436 43bc 31a9 113d
00000290: 4328 e9bc 6c91 173c 5bcf 29bd a8f6 0d3c
000002a0: 0319 1b3d fd9c 4c3d b046 fdbb f71b 9fbc
000002b0: a085 a7ba 80cc 2abb 18a9 4a3c 60c7 2b3c
000002c0: 0024 a13b 3037 87bb 1a04 a33c 514b 2f3d
000002d0: 33ea 42bd da24 8dbc 9d6c 05bd 966d 8e3c
000002e0: 17af 9dbc d4b8 8dbc 16ab ca3c 00df 813a
000002f0: e114 273d 549a 793c 6801 56bc 6e7d 21bd
00000300: cf10 46bd c624 a63c 2bef 38bd 8b88 0b3d
00000310: e113 2d3d f7e2 343d 22c5 ad3c 8001 c1b9
00000320: 8268 cb3c 9e1e a53c 2dbe fdbc 14a9 0cbc
00000330: e800 c6bb 250e 28bd 15fa 1d3d f24d c33c
00000340: 0030 8a38 7004 ed3b 2016 353c f78c 463d
00000350: 1258 c63c 874a dcbc e7b7 afbc 011e 343d
00000360: 4032 75bc 4269 07bd c484 7f3c c0bb f8bb
00000370: 903a 4cbd 90ba b4bb 8ea3 ad3c 821f 963c
00000380: cd98 f9bc 594b 233d 58ea 933b 0eb2 a53c
00000390: df54 223d 1328 debc a437 8abc 2960 0f3d
000003a0: 5498 80bc d55f 3ebd a311 e3bc 7133 3b3d
000003b0: ee78 b23c 8041 91bc 4e29 f83c 903c b23b
000003c0: c2ed cc3c 1642 f53c bec1 ff3c faa4 ea3c
000003d0: 786f 0fbc 8bfd 013d d01d 64bb 2275 ce3c
000003e0: 00d2 703b 3ab5 86bc 6cf7 25bc d969 4b3d
000003f0: c6dd cd3c 0ace f23c 7a4e 2fbd 22b8 843c
-0.009489171 0.024286542 0.011877812 0.019598428 -0.004907392 -0.017819315 -0.04409346 0.038567435
-0.014859814 -0.023725033 0.02722473 -0.0135679245 -0.04369386 0.040456016 0.035536077 0.03255589
0.015686098 -0.009782307 0.011664946 0.020837743 0.023595106 -0.0027386174 0.020492587 0.026579086
-0.0045004115 0.028475989 -0.00055623055 -0.032274015 -0.013245635 -0.042911 -0.008886106 0.032619502
0.044591393 0.025652621 -0.009344511 -0.042943764 -0.01800067 -0.0097766705 0.014862638 -0.027457094
0.046150554 0.023986947 0.047513332 -0.023071826 -0.018838549 -0.04868185 -0.024902046 0.035814416
0.006128818 -0.030789137 0.012181204 0.01706836 -0.035380255 0.045184676 0.012419574 0.03540429
-0.003852535 -0.038442265 -0.014625996 0.041927103 0.04947636 -0.009055115 0.03020649 -0.040991377
-0.041220404 -0.017372616 -0.027295668 -0.01645749 -0.01694436 0.046396527 -0.041983742 -0.0017990544
-0.034626298 0.026475463 0.004322134 0.013690803 0.0061430447 0.047119554 0.02345803 0.000992395
0.036615696 0.030574981 -0.048485816 -0.0052062757 0.0018088743 -0.021146107 -0.04799331 -0.020649826
0.0079725385 -0.04155005 0.01597241 -0.01394682 0.0020716563 0.007247258 -0.017980248 -0.005453445
0.0142482035 0.023235623 -0.046622764 -0.012986876 -0.009791721 0.035239633 0.009343296 -0.016856931
0.038012456 -0.023709083 -0.020614846 -0.0035224967 -0.041097622 -0.0028404184 -0.023290498 -0.04070794
0.020311546 0.03610635 0.017270278 0.04747856 0.009454079 0.043268036 -0.022115653 0.010811586
-0.00025390834 0.041114625 -0.01095131 0.009968489 -0.037277065 -0.027821703 0.013172422 0.040742334
-0.04193741 0.029097114 0.049441937 0.026344601 0.044697914 -0.018640585 -0.034746833 0.031593207
0.025195722 0.021639202 -0.0015797317 0.04322121 -0.046490263 0.043479417 0.021365944 0.030183595
0.030855838 0.02428649 0.02709375 0.02423546 -0.04492658 0.019762944 0.03416631 -0.03159367
-0.03752169 -0.020619912 -0.022886856 0.010414161 0.02838445 -0.03224327 -0.04213745 0.001395084
-0.026050454 -0.02459591 -0.0119147785 0.035561744 -0.028461581 0.00925098 -0.041457515 0.008664764
0.03786565 0.049954403 -0.007729374 -0.019422514 -0.0012780912 -0.0026061833 0.012369417 0.010484546
0.0049176216 -0.004126452 0.019899417 0.042796437 -0.04758663 -0.017229486 -0.032574285 0.017386239
-0.019248528 -0.017300047 0.024739783 0.0009908378 0.040791396 0.015234549 -0.013061859 -0.03942626
-0.048355874 0.020281207 -0.045149963 0.034065764 0.042255286 0.044161763 0.021212164 -0.00036812946
0.024830107 0.020156201 -0.030974472 -0.008585233 -0.0060425885 -0.041029114 0.038568575 0.023840878
6.5892935e-05 0.007233195 0.011052638 0.04847428 0.024211917 -0.026891006 -0.021449996 0.043973926
-0.014965594 -0.033059366 0.015595619 -0.007590741 -0.049860537 -0.005515404 0.021196153 0.018325571
-0.030468369 0.03986678 0.00451402 0.020226505 0.03963172 -0.027118718 -0.016872235 0.035003815
-0.015697636 -0.04647811 -0.02771837 0.045703355 0.02178618 -0.017731428 0.030293133 0.0054393485
0.025015716 0.029938739 0.031220313 0.02864312 -0.008754604 0.031735938 -0.0034807809 0.025202338
0.0036746264 -0.016443837 -0.010129791 0.04966149 0.025130164 0.029639263 -0.04279945 0.016201083

_middle_linear.bias f4 [400]
00000000: f313 22bd 2b44 363d 8025 babb 90dc 1cbd
00000010: ce1f 9d3c 9353 3abd 90a1 fcbb 429d c53c
00000020: 2533 1abd f699 b33c 08fc 1d3c 31d7 113d
00000030: ea36 b1bc 2091 32bd 2c04 173c b9d8 1c3d
00000040: a5c6 1d3d 00de 3a3c 5075 57bb 96aa f13c
00000050: 6da8 07bd 748f 703c 5d3c 323d 7202 e73c
00000060: 565a be3c 90a8 92bb 5295 a73c 7597 15bd
00000070: 8e3a ac3c c385 9fbc bea0 0dbd 9f13 0a3d
00000080: 48ff 3b3c 3ccb 553c 2046 bbbc 0be5 223d
00000090: 42d2 833c 5270 d13c cebf 07bd 328b a03c
000000a0: 5050 3fbb a6ff df3c f588 243d 5ab5 17bd
000000b0: 585d 4a3c 6504 093d d054 4fbb f592 2cbd
000000c0: 905f edbb 92ef f93c d097 a13b 4364 b4bc
000000d0: 4c6b 52bc 5887 853b 3012 f0bb 8a1e dcbc
000000e0: 4853 333c 0eb0 823c 8683 bd3c 37b6 36bd
000000f0: 8596 413d fa2a 0bbd bab3 d03c 0d39 053d
00000100: c087 3dbd a244 e53c b433 0a3c dd1a 1ebd
00000110: 09f3 1f3d a969 203d a992 243d da9b fabc
00000120: 604e 7dbb a31f fcbc b08b f9bc 209b 87bc
00000130: 606a b7ba 7ebc e83c 68f6 40bc a0c9 edbc
00000140: a020 be3a 17ce b4bc e892 02bc 8a54 f2bc
00000150: 9afe d9bc 43a2 bbbc 7cb1 00bd 544b 29bc
00000160: 8536 2e3d 97dd e1bc 121d d13c 93ae 483d
00000170: 004a ca3b 339d 443d 5dce 27bd a308 9cbc
00000180: 1f60 43bd f7ab 273d f0c4 a3bc 98fb b7bb
00000190: ba03 a83c 20eb 45bd f001 dabc 9414 2b3c
000001a0: 30c4 8d3b 4cda 343c 34d5 2dbc 693f 323d
000001b0: 398a 063d 986a ff3b 207f 453b 4d40 4b3d
000001c0: 2819 92bb e329 1dbd 94bd 09bc 203b 273b
000001d0: 540b 6d3c 11f4 083d 3b8a 0d3d a235 1cbd
000001e0: 488b 77bc 756e 023d 2815 b83b 406e d33a
000001f0: 8082 17bb d139 253d 1de3 38bd 7753 163d
00000200: d45b 90bc 37ce f5bc 7a5c 24bd c087 f8ba
00000210: 30ff 5dbb 39e8 313d 2020 29bc ff64 433d
00000220: 78dc 21bc db92 34bd e767 45bd a60b 8b3c
00000230: 75b6 4bbd 2825 f1bb 4c0c 25bc 6e18 d13c
00000240: 328e 3abd 20f1 f8bc b037 dc3b 3705 3e3d
00000250: de4f c23c ba98 cbbc c0e6 ddba f161 303d
00000260: 2309 1ebd 853e 19bd c05c 22ba b42e 49bc
00000270: a826 a6bb 5a6f 3abd 0851 1abd bab8 c3bc
00000280: 32a0 863c 2d1e e4bc 4a01 e3bc 3409 66bc
00000290: 2223 fd3c 698c 463d 003b 4bbb 7642 28bd
000002a0: 4899 063c 1f0d 323d 49da 3d3d 00b7 aebc
000002b0: 13c5 103d a07d 413b 78a4 303c d0e1 6f3b
000002c0: 1e3b 993c 20a8 193b 70f6 dcbb b385 393d
000002d0: a737 afbc 4029 22bc 1431 6fbc a024 5c3b
000002e0: b02e 07bb 24a9 773c 24c4 623c c5b1 2cbd
000002f0: f2a1 d23c 60e9 2b3b 5df8 38bd 16a4 b63c
00000300: 95fe 17bd ca12 c1bc 8186 433d 112c 0e3d
00000310: 94de 65bc 080c 45bc 0ba9 24bd f224 973c
00000320: 4d9d 2c3d 4391 bcbc 1208 b73c 6283 993c
00000330: 5aaa f83c bd55 edbc b22d 803c babd 95bc
00000340: 0cf2 13bc e980 2e3d 0aba d73c 1087 d5bb
00000350: 872a 213d 1705 0f3d 339e c3bc 3be4 16bd
00000360: 7092 d9bb 80b0 31bc 86a2 ef3c 25c2 453d
00000370: a09a aabc 4aca f5bc ca58 33bd 76b5 aa3c
00000380: 3bca 21bd dd37 1ebd e6e2 ab3c a093 6d3b
00000390: 74db 6fbc c03f d63b 80c6 db3b cfa2 103d
000003a0: 6869 f33b 83b9 083d 5053 79bb cc7d 70bc
000003b0: 3698 8fbc 100d 42bd 176c b2bc 0c01 96bc
000003c0: 5a0a cabc aa00 cd3c d103 093d 19c3 443d
000003d0: 1251 ba3c 5d2f 39bd d012 dabb caff adbc
000003e0: 7afd 12bd 60db 203c f4a7 30bc 103d f3bc
000003f0: fa4c 933c fa29 fa3c df00 3d3d 29ad 043d
-0.039569806 0.044498604 -0.00568074 -0.038296282 0.019180205 -0.04548986 -0.0077096894 0.024122838
-0.03764643 0.021924 0.009642608 0.035605613 -0.02163263 -0.043595433 0.009217303 0.03829262
0.03851952 0.011405468 -0.003287632 0.029500287 -0.033119608 0.014682639 0.0435146 0.028199408
0.023236435 -0.0044756606 0.020456944 -0.036521394 0.021024015 -0.019472962 -0.034577124 0.03371012
0.011474438 0.013048943 -0.022860587 0.039769214 0.01609147 0.025566254 -0.033141904 0.019597623
-0.0029192157 0.027343582 0.040169675 -0.037038185 0.012351356 0.033451457 -0.0031636246 -0.042132337
-0.007244058 0.030509744 0.0049314275 -0.022020465 -0.012842964 0.004074972 -0.007326387 -0.02687003
0.010945149 0.01595309 0.023134004 -0.044607367 0.047262687 -0.033976533 0.025476325 0.03252511
-0.04627204 0.027986828 0.008435179 -0.038599838 0.039050136 0.039163265 0.04017893 -0.030591894
-0.0038651451 -0.030776804 -0.030462116 -0.016553462 -0.0013993494 0.028410193 -0.011777498 -0.029026806
0.0014505573 -0.022070928 -0.0079695955 -0.029581327 -0.026610661 -0.02290452 -0.031419262 -0.010332901
0.042532463 -0.027571483 0.025526557 0.048994612 0.0061733723 0.04800148 -0.040968288 -0.019047087
-0.04769909 0.040935483 -0.019991368 -0.005614709 0.02050959 -0.048319936 -0.026612252 0.010441918
0.004326366 0.011038374 -0.010609914 0.043517504 0.032846663 0.0077946894 0.0030135587 0.04962187
-0.0044585653 -0.038370024 -0.008407015 0.002551742 0.014468033 0.033435885 0.034555655 -0.038137086
-0.015108891 0.03184362 0.0056177564 0.001613088 -0.0023118556 0.04033834 -0.045138467 0.036700692
-0.017621912 -0.030005557 -0.040127255 -0.0018961355 -0.0033874027 0.043434355 -0.010322601 0.04770374
-0.009879224 -0.044085365 -0.048194792 0.016973328 -0.04973455 -0.0073591657 -0.010073733 0.025524344
-0.045545764 -0.030388415 0.0067205057 0.046391692 0.023719724 -0.0248531 -0.0016929731 0.043062154
-0.038582932 -0.03741314 -0.00061936304 -0.012279201 -0.005070526 -0.04551635 -0.037674934 -0.023891795
0.016433809 -0.02784642 -0.027710576 -0.01404028 0.030900542 0.04847375 -0.0031010509 -0.041079007
0.008215256 0.043469545 0.04635075 -0.021327496 0.035344195 0.0029524341 0.0107814 0.00366031
0.018704947 0.0023446158 -0.006743245 0.04529352 -0.021388842 -0.00989753 -0.0145991035 0.0033591166
-0.0020627193 0.01511601 0.013840709 -0.04216172 0.025711987 0.0026231632 -0.045158733 0.02229504
-0.037108023 -0.02356853 0.047735695 0.034709994 -0.014030118 -0.012026794 -0.040200274 0.018450234
0.0421422 -0.023018485 0.022342715 0.018739406 0.030354667 -0.028971547 0.01564679 -0.018278945
-0.009029876 0.042603407 0.026333828 -0.006516345 0.039347198 0.034916963 -0.023879146 -0.03683875
-0.006639771 -0.010845304 0.029252302 0.048280854 -0.020825684 -0.030003686 -0.043785848 0.02083848
-0.039499503 -0.038627494 0.020982217 0.0036251321 -0.014639724 0.0065383613 0.0067070127 0.035311516
0.007428337 0.033380043 -0.0038044043 -0.01467843 -0.017528635 -0.04737574 -0.021780057 -0.018311046
-0.02466314 0.02502473 0.033450905 0.048037622 0.022743735 -0.045211185 -0.0066550747 -0.021240134
-0.035886265 0.009817928 -0.010782231 -0.029692203 0.017981041 0.030537594 0.04614341 0.0323917

_output_linear.weight f4 [5, 400]
00000000: daf3 2e36 0aaf 3b3a b6d3 5db8 15c0 7bb6
00000010: 4092 eab5 3223 34b8 d819 2133 d336 56b6
00000020: 0c11 6cbc 8b0b c336 7307 343a acb9 22bc
00000030: 1e5d 3737 0dc3 0a35 bfc1 6db7 76b8 a833
00000040: 5e9c ad34 e670 77bc cdde 8ab5 d14a 9939
00000050: 6cee 8cb7 a854 5ab3 5022 d936 7eac 1938
00000060: ba9c ceba b4f8 94b7 9cd2 4f39 da9b c7b3
00000070: f292 bab3 8bad 0fbb de5c 3136 b8c7 3cb4
00000080: bec9 aa3b fe9d 7335 7b8b 5739 014d d9bd
00000090: 0427 2fba 7714 1235 5359 2bb6 8693 9436
000000a0: 15d1 6439 e2dc 58b9 447f c9b7 2a66 75b4
000000b0: 7447 4537 e21d 8cba 8870 d1b8 11a6 beb5
000000c0: 4447 fc34 70e4 3f37 05cd c138 936f 26bb
000000d0: bd6b 283b 740b 94b3 d9c5 813a 36fa 99bc
000000e0: 87b8 0c3b fcf0 eab6 b17b 00b6 e925 d1b9
000000f0: c0a8 dc32 2fd9 13b8 1418 6e34 50d7 fdb8
00000100: 204e b736 2e8c a63c 3d65 f433 e816 a5b8
00000110: 2ff3 d0b6 f2bf 5bb8 846a a1b4 884f e539
00000120: cb61 e5bb e50d ffb9 0f56 113d 5b60 00b6
00000130: 07fc 0236 7ad6 b2b9 8a46 1137 9fd5 4038
00000140: b64c 5bb9 b167 e938 5b0f d7bd 9005 1938
00000150: 8b48 1938 b8cd 9037 5ae8 bd36 576f 30b9
00000160: 6051 57b3 4e37 6738 f3f0 0abb b998 2ab8
00000170: c128 83ba b90a a03b 8872 9637 0733 1438
00000180: 53a2 83bc e61c a7b5 f56d 09b7 d93d 02bb
00000190: 3dea c1b6 62a4 aabb 7ca7 3635 ea87 f9ba
000001a0: 19ed a239 429b bab4 5208 5836 9ef4 5b3a
000001b0: 2194 83b5 3311 9735 b4dc c734 d5c5 e435
000001c0: c0a5 eeba 2a06 21b5 630d b434 b9b5 2a3b
000001d0: 210e e7bd 24fd 79b7 5e3c 64ba 74b9 8ab5
000001e0: 220d aeb5 3a42 4fb5 7ca8 843c 8376 0dbc
000001f0: b665 2038 55a7 7038 ea49 fcb7 1f2b 4738
00000200: 94c2 cf37 4a4a f7b8 b7c9 7f39 8538 e2b6
00000210: 0407 74b3 4c77 a43b 477b 1a38 3a39 09bc
00000220: 7bab cfb7 770b 7038 dd4a b4b6 a129 c134
00000230: 69a3 c6b5 fef2 8d37 05f2 1835 f3fb d7ba
00000240: cfda 1f3b 1405 12b6 c81f c734 bd9e 59b6
00000250: 18e4 60b7 a964 c6b4 45af 9fb5 e161 d33b
00000260: b945 14b9 2882 07bc 14b5 1b3d 9a81 3ab9
00000270: 2d6d 86bc 5a84 b136 142b 863a 00fa 69b5
00000280: acab 2736 2da7 99bc deb1 b135 006b 2e36
00000290: 3508 0538 c6dd f7ba b0d8 da39 2ed3 6cb4
000002a0: fdd2 0eb5 94e1 cabb 2267 1d36 87e7 2836
000002b0: 9714 eb39 6c83 023a 8b7c 433d 7480 9738
000002c0: 84af 633d 4a58 2537 c6c9 0338 6e8b 8b35
000002d0: 41ad 35bb 48e1 c93c 974a 15b7 b08b 52b2
000002e0: 341d a236 9d76 02b6 063f 1937 c0c2 9032
000002f0: 264f 01ba 5bc0 cb38 6bc8 5bb8 62e5 cbbd
00000300: 05e7 b034 694f a3b5 c5b2 15b7 c2df 8b33
00000310: 757f 11ba 9ea4 93bb 32af ee3a 6c09 04b6
00000320: 7305 bbb7 5725 bbb9 c267 d236 b5c4 883e
00000330: b1f2 ceb8 68e3 e4b8 41c3 99b4 f97f 9037
00000340: 38c7 6cb8 77b1 95b4 d1e3 f436 9ec1 61b8
00000350: 7745 afbd 20f1 7435 53d5 03b8 000e 20b7
00000360: fcb9 40b7 2316 f23e ec22 87b5 fe0f 20b4
00000370: af71 ccbd d51b d2b6 2b2e 1bb8 2cbf 4735
00000380: 472b f8be d2a7 0537 5907 3eb6 9f16 0c37
00000390: b709 ab38 e884 97b7 7e3f c934 4913 88b5
000003a0: bd0f 1e35 945a 6937 73c4 5c37 220b ae37
000003b0: c702 08b8 8ebc 34b8 63c0 96ba 06d8 c73a
000003c0: 0d3d 90b5 2f34 c5ba ba1f d8b6 ae6e 32b8
000003d0: c8d3 9ab9 1953 af3e 38e9 24b5 05c7 113b
000003e0: 10ad 8136 75a8 db3a 0de0 91b9 8278 96bc
000003f0: 9fbd 4fb9 ab3f a435 dcd1 b439 729f 45b6
2.606996e-06 0.0007159567 -5.2887677e-05 -3.751372e-06 -1.7476923e-06 -4.2948122e-05 3.750924e-08 -3.1920397e-06
-0.014408361 5.8127966e-06 0.0006867565 -0.009931963 1.09293305e-05 5.169284e-07 -1.4171411e-05 7.856663e-08
3.2337533e-07 -0.015102601 -1.0346645e-06 0.00029238177 -1.6800324e-05 -5.0834075e-08 6.4710985e-06 3.663869e-05
-0.0015763261 -1.7758786e-05 0.00019819516 -9.295009e-08 -8.688029e-08 -0.0021923508 2.642911e-06 -1.7581522e-07
0.005212038 9.0754463e-07 0.00020555958 -0.106103905 -0.0006681534 5.441902e-07 -2.553298e-06 4.4279177e-06
0.00021821664 -0.0002068165 -2.402033e-05 -2.285457e-07 1.17587515e-05 -0.0010690058 -9.986857e-05 -1.4204435e-06
4.699051e-07 1.1437674e-05 9.241145e-05 -0.0025396093 0.0025698983 -6.8938704e-08 0.0009900882 -0.018796068
0.0021472292 -7.0017977e-06 -1.9145484e-06 -0.00039891832 2.568811e-08 -3.52498e-05 2.2174237e-07 -0.00012104085
5.46292e-06 0.020330515 1.13805505e-07 -7.87208e-05 -6.2271934e-06 -5.2392432e-05 -3.0066087e-07 0.0004373754
-0.007000183 -0.00048647742 0.035482462 -1.9129573e-06 1.9518209e-06 -0.00034110603 8.659097e-06 4.5975317e-05
-0.00020914045 0.0001112962 -0.10500976 3.6483223e-05 3.6545604e-05 1.7261933e-05 5.659688e-06 -0.00016826145
-5.01326e-08 5.51262e-05 -0.0021200746 -4.0673393e-05 -0.0010006652 0.0048840907 1.7934726e-05 3.5333473e-05
-0.016068613 -1.245088e-06 -8.191438e-06 -0.001987329 -5.779117e-06 -0.0052075842 6.8044005e-07 -0.0019037698
0.000310757 -3.4758165e-07 3.2191351e-06 0.0008390638 -9.803372e-07 1.1255382e-06 3.722722e-07 1.70449e-06
-0.0018207356 -5.9986144e-07 3.3537353e-07 0.0026048257 -0.11281992 -1.4900495e-05 -0.0008706505 -1.0335775e-06
-1.2967832e-06 -7.720988e-07 0.01619362 -0.008634212 3.82417e-05 5.73763e-05 -3.007516e-05 4.7485457e-05
2.476693e-05 -0.00011791715 0.0002439384 -6.7419046e-06 -5.6817058e-08 0.005019104 3.6831272e-05 -0.00837546
-2.4756175e-05 5.7231136e-05 -5.3731333e-06 3.597934e-07 -1.4799708e-06 1.6921662e-05 5.69766e-07 -0.0016478285
0.0024391895 -2.1758651e-06 3.7089762e-07 -3.2427918e-06 -1.3404548e-05 -3.6953614e-07 -1.1897433e-06 0.006450877
-0.00014140354 -0.008270778 0.038014486 -0.00017786623 -0.016409481 5.290419e-06 0.0010236227 -8.716306e-07
2.4984865e-06 -0.018756473 1.3239294e-06 2.5990303e-06 3.1717314e-05 -0.0018910698 0.00041741645 -2.205604e-07
-5.320615e-07 -0.006191442 2.3454854e-06 2.5168717e-06 0.00044838034 0.000497869 0.047726195 7.224167e-05
0.055587307 9.855323e-06 3.142075e-05 1.0396886e-06 -0.0027721676 0.024643555 -8.898459e-06 -1.225537e-08
4.831376e-06 -1.9440552e-06 9.134184e-06 1.6852368e-08 -0.00049327535 9.715623e-05 -5.2400323e-05 -0.09955861
3.2950643e-07 -1.2167558e-06 -8.922715e-06 6.513393e-08 -0.00055503036 -0.004505708 0.0018210171 -1.9675017e-06
-2.2294675e-05 -0.0003569524 6.2705667e-06 0.26712576 -9.86805e-05 -0.00010914245 -2.8640537e-07 1.722573e-05
-5.645232e-05 -2.7882535e-07 7.298288e-06 -5.38245e-05 -0.08558171 9.1247966e-07 -3.1431508e-05 -9.540003e-06
-1.1487395e-05 0.47282514 -1.0068447e-06 -1.4906979e-07 -0.09982621 -6.261728e-06 -3.6997877e-05 7.441147e-07
-0.48470518 7.9664915e-06 -2.8316483e-06 8.349917e-06 8.155725e-05 -1.8062492e-05 3.7485364e-07 -1.0138402e-06
5.888249e-07 1.3908972e-05 1.3158761e-05 2.07476e-05 -3.2427513e-05 -4.309095e-05 -0.0011501428 0.0015246875
-1.0746604e-06 -0.0015045459 -6.440995e-06 -4.2541586e-05 -0.00029530958 0.34243086 -6.143414e-07 0.002224387
3.8646467e-06 0.0016758578 -0.00027823486 -0.01836801 -0.00019811698 1.2237482e-06 0.00034488633 -2.9448097e-06

_output_linear.bias f4 [5]
00000000: 3770 77be 8c2b bdbd f068 a53e d1e8 abbd
00000010: 5e4f 78bd
-0.241639 -0.092368215 0.32306623 -0.083940156 -0.060622565
