data/MTMR_28002/real/uniform/N5/D5/dual/result/model/SinNet_KD_MLSE4POL.pt (torch_old, 661567 bytes, 6 tensors)

_input_linear.weight f4 [400, 5]
000000 ea f9 a4 b7 b1 78 49 b8 86 9d 50 37 b4 f5 4a 37
       -1.9666699e-05 -4.8034537e-05 1.2434442e-05 1.20973455e-05
000010 0d 0a 89 38 46 11 b3 b6 b6 d5 0b 35 f3 9b 89 35
       6.534541e-05 -5.3366266e-06 5.2092525e-07 1.0252683e-06
000020 35 95 17 b7 4e f0 3c b6 47 c2 33 b7 71 ff a2 b5
       -9.035041e-06 -2.8154059e-06 -1.0714465e-05 -1.2144284e-06
000030 f5 63 4b 35 fa 19 24 b8 e1 93 2d 37 22 68 d2 b3
       7.576885e-07 -3.912484e-05 1.0346034e-05 -9.797829e-08
000040 b1 d3 38 b4 07 91 dd b3 a4 6f e4 33 4b ba c4 b4
       -1.7213348e-07 -1.0317495e-07 1.0637385e-07 -3.664339e-07
000050 8c 61 2f b3 2d 1a 98 33 46 e5 b4 b1 10 13 62 2f
       -4.083408e-08 7.082813e-08 -5.264755e-09 2.0561353e-10
000060 99 54 3e 34 b7 71 8c 38 bd 5c 1d 38 ad 77 2a b8
       1.7725905e-07 6.696901e-05 3.7518086e-05 -4.0642615e-05
000070 13 11 bf 38 18 14 91 36 22 9c 29 b8 09 af b0 b7
       9.11077e-05 4.323676e-06 -4.043815e-05 -2.1062342e-05
000080 22 ea ee 37 b7 1f 89 b8 36 96 8d 37 dd f2 07 3f
       2.8480837e-05 -6.5385764e-05 1.6878457e-05 0.53104955
000090 81 a7 0c 3f 19 c9 6f be 30 68 ac bf c6 53 98 3d
       0.5494309 -0.23416556 -1.3469296 0.074378535
0000a0 c2 06 0e b9 1c d0 b8 37 67 25 72 b8 60 80 10 39
       -0.00013544693 2.2031418e-05 -5.773213e-05 0.00013780734
0000b0 1a 28 5a b9 76 33 8b ba 8d 64 06 bb d0 01 4a bb
       -0.00020805039 -0.0010620195 -0.002050671 -0.0030823834
0000c0 21 95 5a 3a 1d 1f 9f ba dd 29 7f b7 53 99 01 39
       0.0008338262 -0.001214001 -1.52089315e-05 0.00012359516
0000d0 d0 f2 a7 b7 79 66 a2 b8 6b 3f 47 b9 2d 81 7d b0
       -2.002102e-05 -7.743849e-05 -0.00019001744 -9.2224434e-10
0000e0 ce 8f 9e b0 58 39 7a 30 3c 40 b1 2f db 66 c5 b1
       -1.1536885e-09 9.103096e-10 3.2241754e-10 -5.745148e-09
0000f0 60 e8 8a 38 ac 18 84 b6 08 a8 48 b8 af 66 2a b8
       6.623636e-05 -3.9367787e-06 -4.7840207e-05 -4.062679e-05
000100 4c 3d 8f 39 c5 69 34 b7 e4 52 65 b9 a2 80 0e 39
       0.00027320755 -1.0753462e-05 -0.00021870021 0.00013590095
000110 ec e8 2b 39 cc d3 9e 39 b2 fc 3f 36 48 0b 36 b7
       0.00016394601 0.0003029391 2.8608306e-06 -1.0850672e-05
000120 9b d3 0c 37 fd 0a 48 b6 41 2d b5 37 c6 a5 68 b2
       8.3939185e-06 -2.9808718e-06 2.1597954e-05 -1.354187e-08
000130 fc fe 89 32 00 04 6d ad 02 29 8d b2 d8 d6 ad b3
       1.6064853e-08 -1.34727784e-11 -1.6433209e-08 -8.09502e-08
000140 58 02 af be 6a 13 b0 be bf 9f dc 3f 7f fc d2 bf
       -0.34181476 -0.34389812 1.7236251 -1.6483306
000150 a5 0a dc bc 79 7d cd b4 36 ba c5 34 ef 47 2b 35
       -0.026860544 -3.827552e-07 3.6829596e-07 6.380714e-07
000160 82 5f 42 b5 75 d6 da b5 21 da 09 b6 c6 da de b4
       -7.2409614e-07 -1.6304681e-06 -2.0541559e-06 -4.15099e-07
000170 85 36 b0 34 4a f0 a7 b3 f3 6c 96 b6 1e 93 2a af
       3.2822223e-07 -7.820252e-08 -4.4830317e-06 -1.5513676e-10
000180 f6 2f c9 b1 b1 1c d1 31 a2 14 74 b1 08 0f 8d b0
       -5.8553224e-09 6.0859624e-09 -3.5518402e-09 -1.0263372e-09
000190 11 f5 8d b8 2d 14 7a b7 03 8d 3c 38 e5 54 3e b9
       -6.769051e-05 -1.4905859e-05 4.495402e-05 -0.00018151438
0001a0 3d 00 9a 38 56 dc 41 bb fe 7c 45 b9 04 ce af b9
       7.3433366e-05 -0.0029580793 -0.00018833947 -0.00033532095
0001b0 a6 33 8b 3a 54 2a 1c bb 14 7e 2f 38 f1 53 21 39
       0.0010620251 -0.002382894 4.184067e-05 0.00015385427
0001c0 37 eb 38 37 4c 9d ae 39 7e 45 fa b8 7a bc 69 b3
       1.102202e-05 0.00033305062 -0.00011933873 -5.442096e-08
0001d0 0e 72 4a b3 08 c0 34 33 32 4f d4 b3 f6 13 1b 34
       -4.7135522e-08 4.2084167e-08 -9.886425e-08 1.4442762e-07
0001e0 c4 09 3c 34 8d 99 ea 32 af ec 86 33 f3 03 0d 35
       1.7512417e-07 2.7311012e-08 6.282914e-08 5.253234e-07
0001f0 bf d6 0e b5 06 40 b0 ba 2b 63 b3 ba a2 f4 06 3a
       -5.321162e-07 -0.0013446815 -0.001368617 0.00051481475
000200 0f 41 28 3b 5d 03 bb ba f7 1e f0 bc 6e 85 ad bb
       0.0025673544 -0.001426797 -0.02931164 -0.005295447
000210 40 9b 13 3a 76 9d 86 3b 5e ae 89 bc 85 c9 a7 32
       0.0005630739 0.0041081263 -0.016806778 1.9533e-08
000220 2e e4 49 33 4e 02 df b2 72 35 1d 32 4d 49 1a 34
       4.7006488e-08 -2.5961665e-08 9.150755e-09 1.4369034e-07
000230 72 9f 9f bc 91 82 58 3b 5e 25 b1 bb 08 f0 ce bc
       -0.01948521 0.0033036808 -0.005406066 -0.02526094
000240 a9 35 db bc a0 ef 26 3e 4a 20 21 3e 5c 3c c4 bc
       -0.026758986 0.16302347 0.15734974 -0.023954563
000250 27 00 ca 3f 14 1b 32 be 1b 60 7e 33 30 26 21 35
       1.5781296 -0.17393142 5.922639e-08 6.0032744e-07
000260 c7 72 33 34 be e8 2b b4 73 c2 08 b5 c8 ce 0e 3d
       1.671243e-07 -1.6010287e-07 -5.094691e-07 0.03486517
000270 1c ef b6 3c 22 35 a5 bc 0b 7d f1 3c bc bb 07 3d
       0.022330813 -0.020166937 0.02947857 0.03313802
000280 2f 39 e7 b7 d1 1e 96 b6 19 9c ac 37 cd 11 02 b8
       -2.7563974e-05 -4.473936e-06 2.0576686e-05 -3.1010994e-05
000290 72 c1 03 b8 e4 ca 08 39 3b fb 4d 39 e6 36 de 38
       -3.1412994e-05 0.00013045553 0.00019643914 0.000105960105
0002a0 3d c7 95 b8 2a 3d e1 38 87 22 99 be a3 2e 88 be
       -7.141985e-05 0.00010740229 -0.29909155 -0.2659808
0002b0 08 9d d4 3f 3a 57 82 3f 75 0e 64 3f ca df e0 37
       1.6610422 1.018287 0.8908456 2.680709e-05
0002c0 4c b1 f9 37 47 02 bd 37 3d a0 6d b7 23 36 99 37
       2.9765673e-05 2.2531616e-05 -1.4163609e-05 1.826423e-05
0002d0 c7 69 4c ba 12 bf 8d b9 bc 35 c4 b9 9e c6 94 3a
       -0.00077977445 -0.00027035974 -0.00037424068 0.0011350696
0002e0 ea f5 ef ba d8 9c 89 b5 99 08 26 36 93 49 90 35
       -0.0018307541 -1.0252943e-06 2.4740932e-06 1.0750249e-06
0002f0 49 ad 47 b4 e0 55 b6 b5 17 74 44 35 44 e5 bb 37
       -1.859636e-07 -1.358505e-06 7.318462e-07 2.2398897e-05
000300 c0 90 a5 b3 d2 cf 13 38 8c e2 0b b9 10 7d 0c 38
       -7.709741e-08 3.524108e-05 -0.00013340468 3.3495075e-05
000310 dd a4 b0 38 a2 50 44 38 28 f7 2d b8 f8 f6 8e b7
       8.423042e-05 4.6805137e-05 -4.1476596e-05 -1.7042723e-05
000320 89 e1 3a 3b ba 9f 88 39 01 57 2a ba 50 78 44 3a
       0.0028515777 0.00026058947 -0.000649795 0.00074947346
000330 db 90 33 3b a0 41 98 3b ca 9b d3 3b 60 67 b1 bb
       0.0027399573 0.004646495 0.0064577805 -0.0054139346
000340 37 19 0a 3a 23 5b f7 bb 8d 51 b1 b9 76 9a 58 b8
       0.00052680395 -0.007548706 -0.0003382083 -5.1642266e-05
000350 de 5b cc 38 33 64 eb b8 40 17 57 ba ad 1f 43 37
       9.7445896e-05 -0.00011224337 -0.00082050636 1.1630281e-05
000360 28 39 5b 36 6f d8 21 b7 4d b2 87 37 67 ef 12 b6
       3.2666812e-06 -9.64674e-06 1.6176282e-05 -2.1895046e-06
000370 a0 b0 bb 37 b0 27 8b 39 06 36 ea b9 bf 11 fa 39
       2.2374385e-05 0.00026541715 -0.0004467221 0.00047696938
000380 6c ec 22 ba 0f 68 41 b9 fc 91 95 b8 8e d7 0e 38
       -0.0006215039 -0.00018444679 -7.1320654e-05 3.405619e-05
000390 a4 23 24 38 88 6b c1 b9 8c fe 23 33 8e c3 6e b2
       3.913384e-05 -0.00036891946 3.8182904e-08 -1.3897887e-08
0003a0 83 3b 58 33 7c 57 5d b3 b7 9a 9b 33 10 89 96 34
       5.0345545e-08 -5.153514e-08 7.2458924e-08 2.8039403e-07
0003b0 6e 3c 84 b5 5f 40 35 b5 f0 b6 74 35 96 74 36 36
       -9.852354e-07 -6.7521427e-07 9.116329e-07 2.7187975e-06
0003c0 db 31 30 3d fc fb 40 bc f6 44 6d bd 27 79 1e 3e
       0.043016296 -0.011778828 -0.057927094 0.15475903
0003d0 1d d2 e9 3c 9d 8c 33 39 34 28 18 39 82 41 59 39
       0.028542573 0.00017123153 0.00014510826 0.00020719136
0003e0 59 41 24 ba 6d 09 3c b8 26 bb 6b ba 0d 6b 4a bb
       -0.0006265841 -4.483147e-05 -0.0008992426 -0.003088656
0003f0 a3 ff 49 bc b1 7f 1c 3b 38 27 19 bb 7e 75 7d b7
       -0.012329015 0.002387982 -0.0023369323 -1.5107331e-05

_input_linear.bias f4 [400]
000000 c8 a6 02 38 bd 2b 08 37 bc 7f 98 37 c8 d8 62 b4
       3.1149742e-05 8.116415e-06 1.8179293e-05 -2.1126755e-07
000010 27 23 92 b3 b4 8a 04 b9 c5 12 ba 38 a3 42 f4 bd
       -6.805049e-08 -0.00012640172 8.872667e-05 -0.119267724
000020 df 45 8e b7 95 8e 5d ba 32 8b 2a b8 3f 59 8f b0
       -1.6960255e-05 -0.00084517273 -4.0660794e-05 -1.0429985e-09
000030 63 21 81 38 1a e7 45 37 86 d3 45 37 c1 7a 3d 33
       6.157418e-05 1.1795923e-05 1.1791364e-05 4.4116636e-08
000040 19 d2 d9 3e 33 da 0d 35 73 2a 03 34 57 d9 ad 32
       0.42543104 5.2844115e-07 1.2215769e-07 2.0238685e-08
000050 eb 5d 0b 39 49 d1 4c 3a 83 f0 f0 b8 43 b2 26 34
       0.0001329106 0.00078131683 -0.000114888906 1.5524806e-07
000060 08 2e 00 b5 b8 fe f1 38 4f 17 68 3c 94 0b 98 b2
       -4.77507e-07 0.000115392206 0.014165713 -1.7700394e-08
000070 28 73 5e 3c f8 16 03 bf 0e fd 9a 34 b1 a3 57 bd
       0.01357726 -0.5120692 2.8868857e-07 -0.052646343
000080 8f 8a e7 37 0a 7b aa 38 3b 68 aa be 66 f3 78 37
       2.7601867e-05 8.1291495e-05 -0.33282647 1.48386225e-05
000090 18 7c 92 ba 9f 02 5f 35 a2 57 6c b8 96 96 35 38
       -0.0011175899 8.307779e-07 -5.63484e-05 4.3294007e-05
0000a0 11 e4 d0 ba dd ee a2 ba 19 60 b3 39 86 cc 9d b7
       -0.001593711 -0.0012430806 0.0003421314 -1.8811097e-05
0000b0 48 01 fa b9 3c 62 56 b7 ac 78 a1 33 44 df af b4
       -0.0004768467 -1.2778266e-05 7.519097e-08 -3.2758737e-07
0000c0 47 84 24 be e0 c8 e1 38 8d ab 07 ba ac 7b ad b7
       -0.16066085 0.00010766252 -0.00051754044 -2.0680796e-05
0000d0 1a af 88 bb f5 a4 09 3c 2b a8 d4 bb 2c 12 43 3a
       -0.0041712644 0.008401145 -0.0064897737 0.00074413675
0000e0 3b ef e5 b4 0f 18 0d b8 7f 98 08 b4 31 4b 0e 3c
       -4.2828637e-07 -3.3639426e-05 -1.2721465e-07 0.008684919
0000f0 9f a6 4b 36 93 6c 04 b9 f7 34 a1 bf 86 85 54 b6
       3.0346343e-06 -0.00012628948 -1.2594289 -3.1668183e-06
000100 41 9d e2 b7 6f 42 9e 39 35 e9 70 bf aa ae 4d 37
       -2.7014526e-05 0.00030185605 -0.94105846 1.2259619e-05
000110 14 d3 03 bb e7 a6 38 be 30 c9 46 3d d2 26 cc 3f
       -0.0020114826 -0.18032418 0.04853171 1.5949347
000120 ce a0 fa 3e 18 88 54 b5 56 f4 07 bb ee ab 8a b7
       0.4895081 -7.9174197e-07 -0.0020745 -1.6530943e-05
000130 d1 f8 91 bb 73 eb 89 ba 1c 3f ec 36 9e 2a 4e b6
       -0.00445471 -0.001052244 7.040695e-06 -3.0721199e-06
000140 53 be 22 bf 9e 93 ef b7 5a ab fc 3b 25 ee 2b 36
       -0.6357166 -2.855976e-05 0.0077108564 2.5619604e-06
000150 06 19 bb 33 9e 2a c8 3b 0a ed 06 3b 8a dc dc bd
       8.712418e-08 0.006108596 0.0020588064 -0.10784252
000160 2e b8 6a b6 2c 25 8b b5 90 87 19 34 8a c4 89 38
       -3.4975924e-06 -1.0367125e-06 1.4298553e-07 6.569277e-05
000170 78 8c de 35 73 6c d2 b5 33 13 88 b8 11 f0 bc bf
       1.6581171e-06 -1.5677782e-06 -6.4885615e-05 -1.4760762
000180 ad ca 81 b7 a9 dd ae 33 bd d6 90 b5 64 76 8b 39
       -1.5472377e-05 8.142826e-08 -1.0791333e-06 0.00026600354
000190 87 2a da 37 c2 34 43 34 62 6a ad b2 0f 4e 85 38
       2.6007428e-05 1.8179983e-07 -2.0188228e-08 6.356474e-05
0001a0 c1 0a 41 3a 33 e8 c7 3c bc 2b 14 b9 42 a7 2d b9
       0.0007363968 0.024402713 -0.00014130672 -0.00016560874
0001b0 41 e8 d6 bc 8e 34 86 b9 e5 f3 e7 b7 4f a9 8a b2
       -0.026233794 -0.00025597628 -2.7650918e-05 -1.6142307e-08
0001c0 e8 d0 aa bc e0 6a 91 b3 15 59 82 bf 53 a6 b3 39
       -0.020851567 -6.771529e-08 -1.0183436 0.00034265462
0001d0 df 06 f5 3d 8c 28 10 39 cd 0f c1 b9 82 b8 a6 35
       0.11964201 0.00013748015 -0.000368236 1.2421663e-06
0001e0 4c 06 80 39 d9 da a2 b4 ee a0 d6 b3 8a 98 ba b8
       0.00024418754 -3.0334084e-07 -9.9944245e-08 -8.897584e-05
0001f0 bf d1 91 bb 4c 64 d9 b6 2d 03 70 bb eb de bc 3a
       -0.0044500525 -6.47878e-06 -0.0036622987 0.0014409696
000200 22 94 5a bb 15 1c 91 39 da 9b 61 38 34 bb 76 31
       -0.0033352454 0.00027677478 5.378933e-05 3.5904124e-09
000210 f0 2a 9b 35 04 b3 29 b9 9e 30 09 3c 08 5f 17 37
       1.1560896e-06 -0.00016183784 0.008373408 9.022428e-06
000220 14 4e 48 3a 00 2f aa 32 e8 ba 6d 35 30 75 1d b8
       0.0007641029 1.9811978e-08 8.8561364e-07 -3.7540856e-05
000230 94 2e 74 3f a3 3f 0b 39 4e c9 1e b9 42 f3 9c 39
       0.9538357 0.0001327978 -0.00015143046 0.0002993588
000240 8a 34 1c ba c1 16 94 3c 76 66 47 b7 7a 6d f3 36
       -0.00059587567 0.018077256 -1.188518e-05 7.254709e-06
000250 36 ec f6 b8 eb 4e 88 b7 80 35 57 ba 98 33 13 32
       -0.00011774192 -1.6249212e-05 -0.0008209571 8.568257e-09
000260 a5 0f bc 3b f2 7b 1f 38 95 53 8b b9 66 18 1e 39
       0.0057391697 3.8023987e-05 -0.0002657442 0.00015077143
000270 4f 2e 59 3a a1 db 6a b4 21 06 ee 3b 7a 0c 08 bb
       0.00082847936 -2.1872849e-07 0.007263914 -0.002075939
000280 66 c2 e7 be ad 2a e5 38 b6 85 d1 39 86 d9 a1 b5
       -0.45265502 0.0001092752 0.0003996321 -1.2058742e-06
000290 05 d4 c1 b8 5d d7 aa b8 dd 98 9e 3d 1c e1 4f b9
       -9.242449e-05 -8.146346e-05 0.07744 -0.00019824918
0002a0 62 92 9d 3c b2 7a 70 33 97 c3 3e 3a c7 ab 6d b9
       0.01923484 5.5990945e-08 0.000727707 -0.00022666073
0002b0 78 79 87 ba 54 0d 14 39 cc 17 86 39 a1 dc b9 3c
       -0.0010335883 0.00014119345 0.00025576202 0.022688212
0002c0 68 61 e1 b6 1d 47 7e b7 82 e6 dd 37 4d 2d 28 3b
       -6.716862e-06 -1.5156137e-05 2.6452592e-05 0.0025661767
0002d0 80 45 dc 38 87 aa fd ba 22 31 46 3c d9 1e 5f 35
       0.00010503363 -0.0019353189 0.012096675 8.3118863e-07
0002e0 30 bd 18 35 ba 66 84 34 b2 5e 05 38 de ff 83 b9
       5.6899717e-07 2.466166e-07 3.1797863e-05 -0.00025176903
0002f0 42 6c 96 b6 2f 8a 2f be 4c f9 24 bd b1 fa 33 bb
       -4.482951e-06 -0.17142557 -0.04027681 -0.0027462656
000300 18 41 26 bb 0e a0 80 b6 29 b1 8b 39 62 09 19 3c
       -0.0025368389 -3.83333e-06 0.0002664414 0.009340616
000310 8f 41 29 39 10 02 24 b7 79 53 8a b6 5a 56 f7 bb
       0.00016141518 -9.775642e-06 -4.122438e-06 -0.0075481357
000320 62 d8 d4 3a 16 0a 9e 3f 0e da bb 3f 8e a6 19 3a
       0.0016238804 1.2346828 1.467592 0.00058613054
000330 2a cc 08 38 60 d9 58 3b b0 3c 82 bb ae f6 0d 40
       3.261507e-05 0.003308855 -0.0039745197 2.2181811
000340 24 86 3c b9 3b 5f aa 36 ce 53 d0 b4 50 32 42 ba
       -0.00017979048 5.077481e-06 -3.8803995e-07 -0.000740801
000350 38 1f 87 36 1b 50 f3 34 42 45 ab b9 9c b2 2b 36
       4.026948e-06 4.5320562e-07 -0.00032667263 2.558495e-06
000360 db 96 7f bf 4a aa 67 b9 a7 4d 4b 3b a8 0f 93 b8
       -0.9983956 -0.00022093314 0.0031021626 -7.0124224e-05
000370 ed 23 6b b7 18 c1 7e 37 01 a7 d1 35 90 34 d8 b1
       -1.4015456e-05 1.5184538e-05 1.5620318e-06 -6.292403e-09
000380 33 e4 e5 ba c3 72 89 b8 f8 88 a4 b5 be e2 09 bd
       -0.0017539322 -6.554045e-05 -1.2258815e-06 -0.033663504
000390 c4 e4 ac 35 71 7a b8 b6 0e 4f 5f 3f 78 92 e7 ba
       1.2881578e-06 -5.4978814e-06 0.8723 -0.0017667552
0003a0 95 5d 55 bb a7 e9 b2 b9 b9 91 f8 b8 46 4d 6e b7
       -0.0032557 -0.0003412489 -0.000118527045 -1.4203897e-05
0003b0 79 10 9b 36 3b 7c 1d 3c 72 da d3 bd bd 62 97 b5
       4.6212776e-06 0.009612138 -0.103443995 -1.1279113e-06
0003c0 49 96 14 ba d1 92 3b ba 6a ec 56 bc af 49 2e 34
       -0.0005668146 -0.0007155361 -0.013117889 1.6231819e-07
0003d0 29 54 0a 3c 44 e8 ce 32 83 55 f0 ba 68 75 c0 32
       0.008442917 2.4087178e-08 -0.0018336031 2.2405132e-08
0003e0 1b 14 02 39 d7 4d 1c b2 6e 53 c0 37 7b 14 94 3a
       0.00012405256 -9.098094e-09 2.2927034e-05 0.0011297608
0003f0 64 90 3b 3b b7 2d b2 ba f7 90 06 37 85 50 91 34
       0.002862 -0.0013593946 8.020775e-06 2.706694e-07

_middle_linear.weight f4 [400, 400]
000000 1a f0 1c bd a0 cc f2 3a 9d bd e3 bc f2 8e a4 3c
       -0.038314916 0.0018524118 -0.027800376 0.020087693
000010 52 91 07 bd 3a b9 b3 bc 55 46 0b bd c7 15 cb bc
       -0.033097573 -0.021938909 -0.03400262 -0.024790658
000020 96 53 d0 3c 4d f3 3c 3d 40 51 88 bc 22 8d e6 3c
       0.025430482 0.046130467 -0.016640306 0.02814347
000030 0a 34 34 bd 9a b7 3b bd fc 9f 85 bc 10 b8 2c bd
       -0.04399494 -0.045829393 -0.016311638 -0.042167723
000040 80 b2 3b bd 40 d5 b2 bb 6c 27 99 bc f8 2a 4e bc
       -0.045824528 -0.0054575503 -0.018695556 -0.012583487
000050 fe 38 f0 3c 77 b8 47 bd 6b 96 3b bd 22 03 fb 3c
       0.029324051 -0.048759904 -0.045797747 0.030641142
000060 f7 36 ec bc 1e d8 e3 3c 6a 64 87 bc f9 ae 08 3d
       -0.028834803 0.027813014 -0.016527373 0.033369992
000070 c6 b2 ee 3c 00 f4 01 bb fe 75 a8 3c b0 fc 22 3b
       0.02913798 -0.0019829273 0.020564076 0.0024869852
000080 12 56 a5 3c 94 1f 31 bc c0 f4 27 3a 62 f4 9d 3c
       0.020182643 -0.0108107515 0.0006407015 0.01928157
000090 0e aa f3 3c 4c d4 2d 3c b1 31 22 3d e8 6e b6 3b
       0.029744174 0.010609698 0.03959817 0.0055674203
0000a0 6e 6f f2 3c b0 ab 6b 3b 50 d8 47 3b 76 82 ad 3c
       0.02959415 0.0035960488 0.0030493923 0.021180373
0000b0 04 23 97 bc b0 f5 3b bb 3f b9 1f 3d 3d eb fc bc
       -0.018449314 -0.0028680377 0.038995024 -0.03087389
0000c0 96 88 07 bd 8d 7c a2 bc b0 d3 97 3b 69 75 06 3d
       -0.033089243 -0.019834781 0.0046333894 0.032826815
0000d0 52 58 db 3c 5b eb 31 bd 4b fd 2f bd 09 18 48 3d
       0.026775513 -0.043437343 -0.04296617 0.048851047
0000e0 61 b7 2e 3d 8a 0b d2 3c 2a 99 18 bd 58 a7 b5 bb
       0.042655353 0.025640268 -0.037255444 -0.0055436306
0000f0 27 0a dc bc 91 7d 29 3d 68 c4 2c bc 08 47 38 bd
       -0.02686031 0.041379515 -0.010544874 -0.044989616
000100 ca e3 42 bd ba e2 0e bd 0e 79 21 bd a3 d0 ef bc
       -0.047580518 -0.034884192 -0.039422087 -0.02927429
000110 9a 9d c1 bc 00 21 9a ba a3 e6 0d 3d c5 79 1b 3d
       -0.02363472 -0.0011759102 0.03464378 0.037957925
000120 cd 56 d5 bc c4 05 7c 3c 98 93 c7 bb 99 5c 3d 3d
       -0.026042366 0.015382234 -0.0060905926 0.046230886
000130 d8 da fb 3b c6 a4 13 bd 70 9d fe bc 4e 1c c6 3c
       0.0076860003 -0.036045812 -0.031080931 0.024183419
000140 b0 9f 7f bb ad 55 a7 bc 73 1b e1 bc 52 7b ec 3c
       -0.0039005093 -0.020426596 -0.02747891 0.028867397
000150 4c 61 05 3c c3 7b f5 bc 4a 5d f2 bc 93 bb 23 bd
       0.008140873 -0.02996624 -0.0295855 -0.039973807
000160 90 69 bb bc 1e 73 d1 3c cd c9 37 3d 20 8a 8a bc
       -0.022877485 0.025567587 0.044870187 -0.016911566
000170 b3 fe 46 bd 2c 38 71 bc 12 8a b0 3c 92 a7 96 3c
       -0.048582744 -0.014722865 0.021550212 0.01839045
000180 96 a0 20 bd 9d 02 33 3d 20 d2 19 bc 8b f5 07 3d
       -0.039215647 0.043703664 -0.009388477 0.033193152
000190 77 38 3a bd ae cc bb 3c 52 f8 e5 3c bf e2 47 bd
       -0.045464005 0.022924747 0.02807251 -0.048800226
0001a0 60 f4 ad ba 9d d9 02 bd 17 50 dd bc 4d 6a 18 bd
       -0.0013271682 -0.031945813 -0.027015729 -0.03721075
0001b0 12 ce b7 3c 08 1f 4a 3c 54 55 44 bc 47 0d 12 3d
       0.02243713 0.0123365 -0.011983234 0.035657194
0001c0 b1 3f 25 3d c0 34 c3 bb a7 6d b3 bc 00 a3 c1 ba
       0.040343944 -0.005957216 -0.021902872 -0.0014773309
0001d0 5d a8 b9 bc 8f ca 17 3d f2 2b a2 3c c0 40 61 ba
       -0.02266329 0.03705841 0.019796345 -0.00085927173
0001e0 50 58 93 bc 30 7d e9 bb aa e5 c3 3c 97 a3 45 bd
       -0.017986447 -0.007125519 0.023913223 -0.048251715
0001f0 f2 bb c4 3c 80 79 3a 3a ff 6d 3a bd 7f 07 42 bd
       0.0240154 0.0007113442 -0.045515057 -0.04737043
000200 78 8f 01 bc 05 c5 1c 3d 6a 22 f5 3c 00 98 ff 37
       -0.007907741 0.03827383 0.029923636 3.046915e-05
000210 08 0e 3d 3c 52 c8 8d 3c da 60 88 bc c0 f0 b5 bc
       0.01153899 0.017307434 -0.016647745 -0.022209525
000220 f0 9b e1 bc e6 e5 88 3c a5 88 20 bd 90 b2 42 bd
       -0.027540177 0.016711187 -0.039192814 -0.04753357
000230 24 92 50 3c 43 7e 15 bd fb ad 4a bd f8 d0 18 3c
       0.012730155 -0.036497366 -0.049482327 0.009327166
000240 aa b5 40 bd 95 ce 46 3d 6c e9 67 3c 80 8e 25 bb
       -0.04704825 0.048536856 0.014154773 -0.0025261939
000250 bd 3f 18 bd 60 7d 35 3b a7 36 2f 3d 4a 78 39 bd
       -0.03717016 0.0027693138 0.04277673 -0.045280732
000260 0a 23 a2 3c 00 ed 23 bb c0 ed 97 bc 50 4d ad bb
       0.019792099 -0.002501309 -0.018545985 -0.0052887574
000270 6a 70 a1 bc b4 df 55 bc 62 29 83 3c ad 93 1f bd
       -0.019706924 -0.013053823 0.016010944 -0.038959194
000280 64 c6 04 bd 76 e2 0e bd 4b 4a 15 3d 71 08 21 3d
       -0.032415763 -0.03488394 0.036447804 0.03931469
000290 50 ea ed 3b 1e 8b 9f 3c 7f 23 0e 3d 98 ee 12 bd
       0.0072605982 0.019475516 0.03470182 -0.035872072
0002a0 f3 83 39 3d f5 1d 1a bd 6e a3 82 3c d5 18 06 3d
       0.045291852 -0.037626226 0.01594707 0.032738525
0002b0 ab 3f 3e 3d f4 5a 79 bc 67 92 ff bc 8f 45 49 3d
       0.046447437 -0.015219439 -0.03119774 0.049138602
0002c0 68 3d a8 3b 77 da 27 3d dd 69 47 bd e0 d5 f6 bc
       0.0051342733 0.04097983 -0.048684943 -0.03013128
0002d0 50 c7 dd bb ef 70 33 bd db a1 3a 3d ba 24 e1 3c
       -0.0067681447 -0.043808874 0.045564514 0.027483333
0002e0 80 fd 24 3b ce fa 17 bd af 1c 42 3d a7 22 e7 bc
       0.0025175512 -0.03710442 0.047390636 -0.028214766
0002f0 80 0e e3 bb da 4a ec 3c a4 b1 56 3c 80 fd 3c 3c
       -0.006929219 0.028844286 0.013103876 0.0115350485
000300 1e c6 b7 3c c0 99 29 bd 90 d1 ca 3b 4c f7 05 bd
       0.022433337 -0.041406393 0.0061895326 -0.032706544
000310 80 7a b1 39 d0 2f 25 bd 02 24 af 3c 60 b5 93 bc
       0.0003385134 -0.0403288 0.021379475 -0.018030822
000320 22 95 e9 3c b3 ff 40 bd e2 9d fb 3c 2a c4 ba bc
       0.028513495 -0.047118854 0.030714933 -0.022798616
000330 d7 9e 1c 3d 81 8b 14 3d f2 a5 96 3c 38 6b 2a bc
       0.03823742 0.036265854 0.018389676 -0.0104015395
000340 94 89 2f bc 65 85 06 3d 80 32 6f ba a0 06 38 3c
       -0.0107139535 0.03284206 -0.00091246516 0.011232048
000350 86 54 88 3c bf 52 03 3d 58 20 10 bc 48 e1 2b bd
       0.016641866 0.032061335 -0.008796774 -0.04196289
000360 13 3a a8 bc 34 c8 75 3c d4 f4 06 bd 62 64 9a 3c
       -0.020535504 0.015001345 -0.03294833 0.018846694
000370 8c df 38 bc 89 fe 2e 3d df 1f 1f 3d fa 23 c6 bc
       -0.0112837665 0.042723212 0.038848754 -0.024187077
000380 a0 3a ac bc b4 d4 38 3c a8 8a a1 3b ff ac 24 3d
       -0.021024048 0.011281181 0.004929859 0.040204044
000390 ad 75 2a 3d 5a 82 df 3c b0 95 c7 bc c9 19 14 3d
       0.04161613 0.027283836 -0.024363369 0.036157403
0003a0 1b 4a 13 bd 46 b3 09 bd 90 b4 3f bd 27 4f b1 bc
       -0.035959344 -0.033618234 -0.046803057 -0.021644188
0003b0 62 02 81 3c 41 87 20 3d e6 fa 89 3c 28 6e f3 bb
       0.015748207 0.03919149 0.01684327 -0.007428903
0003c0 d5 7b 1c 3d 35 5b 46 bd da bf e7 3c f7 84 a1 bc
       0.038204033 -0.048426826 0.028289724 -0.019716723
0003d0 06 51 97 3c 8d 88 fe bc c0 99 ba bb 85 01 1c 3d
       0.018471252 -0.031070972 -0.005694598 0.038087387
0003e0 b8 0e 25 bc 8f 0a 32 bd a4 93 82 bc e2 21 8d 3c
       -0.01007431 -0.0434671 -0.015939541 0.01722807
0003f0 e2 4b f2 3c e8 13 b0 bb 41 d2 28 3d 58 d6 f7 3b
       0.0295772 -0.0053734668 0.04121614 0.0075633936

_middle_linear.bias f4 [400]
000000 d7 65 d3 bc 72 e6 81 3c 60 da 27 3b 40 66 34 bd
       -0.025805397 0.015856955 0.002561234 -0.044042826
000010 8a 45 83 3c 98 e1 14 bc 1a b0 85 3c 9a 7e 8b bc
       0.01602437 -0.009086989 0.016319323 -0.017028142
000020 f4 ac 3b bc 10 a7 c8 bb 80 79 e4 39 e0 6f 04 bc
       -0.011454809 -0.006123431 0.00043578073 -0.008083314
000030 ac 0b 40 bc a0 2f 88 ba 10 86 81 3b c7 62 3d 3d
       -0.011721533 -0.001039017 0.003952749 0.04623678
000040 3c 57 90 bc 30 b4 01 bb 12 cf d3 3c 18 19 3f bc
       -0.017619722 -0.0019791238 0.025855575 -0.011663698
000050 e0 cb c8 bc e8 c1 aa bb 18 be 7c bc 18 fd 3c 3c
       -0.024511278 -0.0052111037 -0.015426181 0.011534952
000060 03 5b d4 bc 73 7b 49 bd c2 0d db 3c fa 8a ca bc
       -0.025922304 -0.049189996 0.026739959 -0.024724472
000070 e2 05 ab 3c 35 fe 40 bd 34 ba 66 3c 37 7d 32 3d
       0.020876829 -0.04711743 0.01408248 0.043576445
000080 63 97 42 3d cd 22 fa bc 83 6f 11 bd 18 ee 6c bc
       0.047507655 -0.030534172 -0.035506736 -0.014461063
000090 50 7d 9b bc 9a f4 a9 bc b0 48 87 bb 8b c8 41 3d
       -0.018980652 -0.020746518 -0.004128538 0.047310393
0000a0 2c c0 8b bc 0f 82 35 3d 10 18 95 bb 13 40 3d 3d
       -0.017059408 0.044313487 -0.0045499876 0.046203684
0000b0 79 05 34 3d cb 36 0d 3d 0f 44 1f 3d 68 1c c7 3b
       0.04395053 0.034476083 0.038883265 0.0060763843
0000c0 4a 88 f2 3c 61 8a 40 3d 24 af 58 3c 6b bd 0c 3d
       0.029606003 0.04700697 0.0132253505 0.03436033
0000d0 7d 26 0b bd ba c2 83 bc 3d 9b 25 3d 19 84 06 3d
       -0.033972252 -0.016084064 0.04043125 0.032840822
0000e0 2c 80 6f 3c 8e d8 b9 3c d5 63 2b 3d 36 88 87 bc
       0.014617961 0.02268627 0.041843254 -0.016544443
0000f0 5b 76 06 3d a3 0e 19 3d 4b 86 0e 3d d0 ee 23 bd
       0.032827716 0.037367474 0.03479604 -0.04002267
000100 5a b8 2d bd 96 f1 af 3c 9d 80 48 3d 32 fd a4 3c
       -0.04241214 0.021477502 0.04895078 0.020140264
000110 c6 e8 21 bd 76 c3 83 bc 99 a1 36 3d f4 9d 16 3c
       -0.03952863 -0.016084414 0.044587705 0.009192932
000120 d8 42 21 bc 32 39 01 bd 00 d6 d2 3a 0e 57 12 bd
       -0.009842597 -0.031548686 0.0016085505 -0.035727553
000130 b0 b1 d6 bc 58 03 a1 3b 17 09 a2 bc 00 d8 55 38
       -0.026207775 0.0049137287 -0.019779725 5.0984323e-05
000140 0d 4b 40 bd d5 0b 0c 3d 40 21 42 ba 6a cd 3a bd
       -0.046946574 0.03419097 -0.00074054673 -0.045606054
000150 b7 05 37 3d 7a 7b e0 bc c6 02 ca 3c 29 d6 06 3d
       0.044683184 -0.027402628 0.024659526 0.032919083
000160 28 eb 49 bd c5 b7 0e bd 11 a3 29 3d 36 f6 c3 3c
       -0.049296528 -0.034843225 0.041415278 0.023921113
000170 80 92 cd 3b 90 34 05 bd fb 48 49 bd ca a2 93 3c
       0.0062735677 -0.03252083 -0.049141865 0.01802196
000180 d7 52 0d 3d c1 6e 42 3d 78 6c 01 3c e8 b2 2f bc
       0.03450283 0.047468904 0.007899396 -0.010723807
000190 45 d7 1f 3d b0 27 61 bb 47 d5 40 3d 63 eb b7 bc
       0.039023656 -0.003435593 0.047078397 -0.022451108
0001a0 a3 df 1a bd 27 90 a3 bc 07 11 32 bd ec 11 57 bc
       -0.037810933 -0.019966198 -0.04347327 -0.0131268315
0001b0 23 3d 39 bd aa aa 2f bd d2 58 24 bd 66 cb b6 3c
       -0.04522432 -0.042887367 -0.04012377 0.022313785
0001c0 a0 02 a4 3a 5a e8 12 bd b6 f7 1f bd 3a b8 e7 3c
       0.0012512989 -0.03586612 -0.039054595 0.028286088
0001d0 8b 78 41 bd e2 05 92 3c f2 1c ff 3c d8 f2 1d bc
       -0.0472341 0.01782507 0.031141732 -0.009640418
0001e0 ae e0 0f bd 08 df 30 bc 9d c6 21 bd d0 14 b6 bb
       -0.03512638 -0.010795362 -0.039496053 -0.0055566803
0001f0 9b 75 2a bd 92 1a dc 3c d0 84 47 3b ad 52 48 bd
       -0.041616064 0.026868138 0.0030444153 -0.04890697
000200 0c cb 15 bc b5 22 35 bd 2c fb 4b 3c b3 bf 3f 3d
       -0.009142648 -0.044222552 0.012450021 0.046813678
000210 42 34 03 bd 5d e7 1f 3d 80 b6 3c bb c0 aa e4 3a
       -0.03203226 0.039039005 -0.0028795302 0.0017445907
000220 98 b9 82 3b e0 2f 20 3c 1d de e6 bc 1e 92 07 bd
       0.0039894097 0.009777039 -0.028182084 -0.033098333
000230 38 3b 30 bc 1e dd d5 3c d0 60 b6 bb 00 e9 65 bb
       -0.010756306 0.026106413 -0.00556574 -0.0035081506
000240 6c f6 68 3c 94 9c 12 bc c0 29 cf ba 0c a8 4e 3c
       0.014218908 -0.008948464 -0.0015805289 0.012613308
000250 ae 5c e0 3c 58 60 fd bb 5b a6 12 bd 48 f3 0e 3c
       0.027387943 -0.0077324323 -0.03580318 0.008724995
000260 d1 74 15 3d 23 98 a7 bc 0e 98 f1 3c cd 14 42 3d
       0.036488358 -0.020458287 0.02949145 0.04738312
000270 d3 67 14 bd 3a 37 aa bc 2d ec 1a bd 4a 6d 94 3c
       -0.036231827 -0.020778287 -0.03782289 0.01811852
000280 a8 46 1d bc 80 8b b3 bc 47 d2 38 bd f4 11 02 bc
       -0.009599365 -0.021917105 -0.04512241 -0.007938851
000290 bd 1a 19 bd de 3f cb 3c 82 66 cd 3c 2a ab 00 bd
       -0.037379015 0.024810728 0.025073294 -0.031413235
0002a0 d3 3d dc bc f0 ab a0 3b d5 f0 31 3d 21 8c 40 3d
       -0.026884949 0.004903309 0.043442566 0.047008637
0002b0 ca fb 07 bd 80 24 5e 3a 24 0d 84 bc 94 31 80 bc
       -0.03319911 0.0008474067 -0.016119547 -0.01564864
0002c0 c0 16 d9 bb 49 9a 01 3d fc 31 74 3c 4e 9c 83 3c
       -0.0066250265 0.03164128 0.014904495 0.016065743
0002d0 62 a6 a2 3c 45 ac 13 3d 21 76 11 3d cd 7c 28 bd
       0.019854728 0.03605296 0.035513047 -0.041134644
0002e0 12 3b b3 3c 7d 5a e3 bc 25 1c 09 bd d2 ce 02 bd
       0.021878753 -0.02775311 -0.033474106 -0.03193552
0002f0 2c 19 31 bc 1b 47 18 bd 57 2c 0b 3d 6e 14 f4 3c
       -0.010809224 -0.037177186 0.033977833 0.029794898
000300 4a 82 e0 bc df fe 1d 3d 18 a4 0b bd ac 58 20 3c
       -0.027405877 0.038573142 -0.03409204 0.009786766
000310 a6 e7 0d bd 7d 89 fc bc 3d aa 35 3d 00 4f 76 3b
       -0.034644745 -0.030827278 0.044351805 0.0037583709
000320 60 20 05 bb 2d d6 bd bc 4c c2 40 3c 8c 34 05 bc
       -0.0020313486 -0.023173416 0.011765074 -0.008130204
000330 66 7d b2 3c 40 28 0e bc 78 ef 36 bd 12 1c 81 3c
       0.02178831 -0.008676589 -0.04466197 0.015760455
000340 77 2e e9 bc b1 51 4c 3d b6 42 b1 3c 12 a1 08 bd
       -0.028464539 0.049882594 0.021638256 -0.033356734
000350 ed e4 35 3d 76 e5 f6 3c ca 79 46 bd 19 27 1b 3d
       0.044407774 0.030138712 -0.04845599 0.037879083
000360 d9 e7 33 3d 5e c8 16 bd a0 4c cf ba 0c 27 46 bc
       0.04392228 -0.03681218 -0.0015815683 -0.01209427
000370 1a af fc bc a0 59 4e bc 8a 7d cd 3c 27 0b fa bc
       -0.030845214 -0.01259461 0.025084276 -0.030522896
000380 8d 9e cf bc b8 fb 39 bd 13 6d 11 3d 73 31 c4 bc
       -0.025344158 -0.045406073 0.035504412 -0.02394936
000390 23 1f 3d bd 30 a1 fe bc c0 34 f5 3b 2b a3 4a 3d
       -0.046172272 -0.03108272 0.007483095 0.049472015
0003a0 33 08 d2 bc 40 ee 81 3b e9 45 42 3d c0 11 0e 3c
       -0.025638675 0.003965169 0.047429953 0.008671224
0003b0 ec 21 31 bc f9 28 15 3d 8e 99 89 3c 62 a9 fe 3c
       -0.01081131 0.036416028 0.016796853 0.031086627
0003c0 3b bf 1d 3d e3 be 42 bd 26 73 bd 3c f8 63 2f 3c
       0.03851245 -0.047545325 0.023126196 0.010704987
0003d0 50 b0 5d 3b 50 de e6 bc f0 77 21 bd cd e7 40 bd
       0.0033827014 -0.028182179 -0.039421022 -0.047096062
0003e0 a1 dd 0c 3d 00 15 7e bb dc b8 73 3c 6c 99 76 3c
       0.03439105 -0.0038769841 0.014875617 0.015051227
0003f0 50 0a e6 3b eb 3d 39 3d a6 9e 1c bd 2c b5 43 3c
       0.0070202723 0.045225065 -0.038237236 0.01194505

_output_linear.weight f4 [5, 400]
000000 8a 9c 17 b8 4e 5a d3 35 92 95 4b 37 bf 87 11 b3
       -3.6146994e-05 1.5747007e-06 1.2134567e-05 -3.3883904e-08
000010 10 33 6e b1 c3 df 04 b8 cd 6d 3d 37 65 ff fc 3d
       -3.4662584e-09 -3.1679647e-05 1.1290843e-05 0.123534
000020 ce 07 76 b8 b2 4f 9a 39 b7 66 d5 37 98 b4 77 b0
       -5.865824e-05 0.00029432547 2.5439409e-05 -9.0114716e-10
000030 38 d2 1d 38 1c 89 e7 b7 55 b4 8c b5 cd ce 2b 32
       3.76275e-05 -2.7601192e-05 -1.0483296e-06 1.0000531e-08
000040 e4 0f f3 bd 56 c1 05 b3 de d4 42 b5 b9 ea 81 b0
       -0.11868265 -3.1142314e-08 -7.2580394e-07 -9.452698e-10
000050 c3 e5 94 37 ea a0 15 ba b6 41 3d b8 9a 96 d8 32
       1.7749966e-05 -0.0005707877 -4.512231e-05 2.5214195e-08
000060 31 b4 a5 b4 05 b8 25 ba 23 b9 1d bc ad 32 33 32
       -3.0864751e-07 -0.00063216715 -0.00962666 1.0430694e-08
000070 6e 9e 57 bc 5e 77 2a 3c 72 28 a4 32 b6 69 ee bb
       -0.013160331 0.010404436 1.9110505e-08 -0.0072757853
000080 d5 3d 27 36 80 de 09 36 b8 09 d0 3b a2 19 5e 36
       2.492093e-06 2.0544103e-06 0.006348815 3.3095498e-06
000090 a9 a3 06 ba 5a b0 d8 34 68 cc 8f b7 a2 46 e5 b5
       -0.00051360816 4.0361448e-07 -1.7142112e-05 -1.7082386e-06
0000a0 14 a8 6a 3a e4 a5 3b ba db 3e 08 37 cd ea 73 b6
       0.0008951437 -0.00071582035 8.120866e-06 -3.6346494e-06
0000b0 9e 3e 32 b9 13 e8 fd b8 f5 5a 9f 32 d7 53 5c 33
       -0.0001699873 -0.00012107207 1.8551399e-08 5.1298993e-08
0000c0 03 65 60 bc e8 70 41 39 1a cf f0 39 cd ab d0 36
       -0.013695958 0.00018447975 0.0004593067 6.2188833e-06
0000d0 b0 15 e8 3c da 09 86 3b 3e 29 37 ba 44 6b 3a bb
       0.028330654 0.00409053 -0.00069870416 -0.0028445283
0000e0 fd 18 e0 b3 13 dc 68 39 e6 a9 d3 b3 25 b4 11 ba
       -1.0435358e-07 0.00022207228 -9.8563575e-08 -0.00055581547
0000f0 74 25 2c b5 22 d2 8a b7 36 d1 90 3e 32 9e 33 b5
       -6.4129495e-07 -1.6548733e-05 0.28284615 -6.69129e-07
000100 e0 0f a8 37 9f 78 da 38 dd d9 81 3e 1c 89 9b 36
       2.0034553e-05 0.000104175175 0.2536153 4.6353216e-06
000110 05 3c 85 39 5f 06 84 bd 97 1c 5c 3e 8e c7 32 3e
       0.00025412455 -0.06446528 0.21495281 0.17458937
000120 21 a8 30 bd 01 9c 26 b3 f4 3f 7e 3b 72 22 db b6
       -0.04312909 -3.879177e-08 0.0038795443 -6.5307186e-06
000130 d1 13 06 3b a3 d3 39 3a 35 36 0f b8 c5 43 10 b5
       0.002045859 0.0007088726 -3.414434e-05 -5.37428e-07
000140 0c 59 3c be 80 43 ab b9 46 47 a0 3b 99 7b bc 35
       -0.18393344 -0.00032665953 0.004891309 1.4043063e-06
000150 64 a4 0b 34 5e ae 1e bc 78 27 4b ba e2 5c 34 bd
       1.3005189e-07 -0.009685127 -0.0007749717 -0.044033892
000160 a6 4e 0a 35 1f da 01 33 d0 90 3b 32 89 68 86 b8
       5.1523455e-07 3.0233533e-08 1.0917759e-08 -6.409089e-05
000170 01 6e e4 34 55 11 db b4 7e ca db b6 03 54 c3 3c
       4.2548348e-07 -4.080454e-07 -6.550282e-06 0.02384377
000180 32 3b e7 35 78 1a cc 33 c6 36 10 b6 48 2d 45 39
       1.7228069e-06 9.504305e-08 -2.1489554e-06 0.00018804253
000190 c8 61 19 36 2b 3b 0d 33 12 63 51 30 a8 9f f3 34
       2.2855693e-06 3.2882934e-08 7.6174544e-10 4.5378442e-07
0001a0 c2 02 9e 39 93 e6 d3 bc 03 b3 23 b8 ca c5 df b7
       0.00030138163 -0.025866782 -3.9028946e-05 -2.6675774e-05
0001b0 c1 72 b6 3b 82 e4 48 3b b0 6b 2b 37 02 23 86 32
       0.005567879 0.003065378 1.0217467e-05 1.5615573e-08
0001c0 ce b1 52 3c d8 5b 26 b2 e0 15 85 3b 0b 19 5a b9
       0.012859775 -9.683355e-09 0.0040614456 -0.0002079943
0001d0 cc a1 fa bd 71 bf 81 37 97 65 c5 b8 75 ad be 34
       -0.122378916 1.5467145e-05 -9.4126146e-05 3.5516464e-07
0001e0 0c 99 51 38 c7 4c 88 b3 61 33 93 b3 5f 79 7e 37
       4.997202e-05 -6.346959e-08 -6.854567e-08 1.5167839e-05
0001f0 f9 87 cf 3b c8 35 ed b5 ea 9c a4 ba 8a b3 0c 3a
       0.006333348 -1.7673528e-06 -0.0012558971 0.00053673296
000200 4f 77 09 3c 1b 88 f1 37 17 6d 1e b8 77 75 e3 2e
       0.008390262 2.8792818e-05 -3.7771733e-05 1.0343631e-10
000210 6c 80 17 37 65 b0 83 b8 35 12 05 ba ad 53 a4 36
       9.030202e-06 -6.279423e-05 -0.00050762604 4.897322e-06
000220 f3 3a 13 bc ac 74 d7 2f 89 d6 2d b8 16 86 6d b6
       -0.008986223 3.9191173e-10 -4.1446216e-05 -3.53938e-06
000230 bb 95 19 bc 85 95 96 b7 fd 5c 30 38 23 ca a5 b9
       -0.009374077 -1.7951019e-05 4.2048272e-05 -0.00031621856
000240 33 6b 02 b9 fb b0 51 bb 59 bf a1 b6 e0 17 96 b5
       -0.00012437701 -0.0031996358 -4.8204497e-06 -1.118282e-06
000250 f5 1f 94 37 76 be e8 b6 da 2f 2a 39 5d 48 14 32
       1.7657856e-05 -6.9363114e-06 0.0001623029 8.631187e-09
000260 1c 87 9a bb 0c 7f 3d 37 71 bf 25 b9 d9 74 0c 37
       -0.0047158133 1.1294858e-05 -0.00015806944 8.371856e-06
000270 0b 6a df 39 05 aa 00 b4 1e cd cc 3b a0 a6 bf 3a
       0.00042612883 -1.1982782e-07 0.006250038 0.0014621802
000280 54 cf 0e be 0b 0f 0b 38 39 19 b2 38 59 e2 4a 37
       -0.13946277 3.3154192e-05 8.4923995e-05 1.2092839e-05
000290 64 93 84 b7 7b 96 8b ba bc 06 38 3c ac 2f 83 b7
       -1.580426e-05 -0.0010649705 0.011232074 -1.5638616e-05
0002a0 c3 7f e5 3b fb c1 31 b1 5b 9a 04 39 96 a1 c4 b7
       0.007003756 -2.5867155e-09 0.00012646003 -2.3440265e-05
0002b0 ea 2f 47 3a 01 4d 58 37 d1 c5 5a 3a 5d 99 cf 3c
       0.00075983873 1.2892532e-05 0.0008345517 0.025341684
0002c0 6f 46 3c 37 00 4c f2 2f 86 be eb 33 b0 31 ba bd
       1.1222072e-05 4.4073545e-10 1.0977696e-07 -0.090915084
0002d0 7e c7 42 35 8d 0f 58 ba 79 32 00 bb 5c c1 70 33
       7.256093e-07 -0.00082420633 -0.0019561334 5.6055214e-08
0002e0 07 b3 8d 34 70 e2 70 33 64 6b 4c 36 11 10 42 39
       2.6393556e-07 5.6085298e-08 3.0460878e-06 0.00018507267
0002f0 95 0f 72 35 7f 1d 16 be cd 5f ec bb 19 e6 1e 3c
       9.01747e-07 -0.1465969 -0.007213569 0.009698414
000300 bd 96 0d bb 03 90 16 b8 dd 74 17 39 3b ac a2 3b
       -0.002160474 -3.589691e-05 0.00014444017 0.004964379
000310 db 8a 99 38 a6 1c 82 b4 b5 c3 bf 33 2e fb 82 ba
       7.3214724e-05 -2.4235231e-07 8.9297295e-08 -0.000999307
000320 89 b7 85 3a c9 c1 ec bc 42 d1 cd 3d c0 c0 3b 39
       0.0010201792 -0.028900998 0.100496784 0.00017905515
000330 7b af ce 37 f8 14 54 bd 44 c5 58 ba db 4b 28 be
       2.4638828e-05 -0.05177781 -0.0008269141 -0.16435187
000340 70 b8 89 b8 c1 fb d9 34 aa f6 7c 32 ef c7 39 bb
       -6.567023e-05 4.0602575e-07 1.47244155e-08 -0.002834793
000350 3e 39 a7 35 32 1e 0e b3 18 4f 12 39 91 a1 ae 34
       1.2459129e-06 -3.3089414e-08 0.0001395311 3.252758e-07
000360 59 a3 1d be ea dd a8 b8 f8 74 08 bb 82 e0 b0 b8
       -0.15394343 -8.052199e-05 -0.0020821672 -8.434152e-05
000370 78 8e ac b5 6c 51 c3 36 b9 cd d5 35 70 17 cf ac
       -1.2856462e-06 5.8209316e-06 1.592961e-06 -5.885896e-12
000380 f5 3c 6e b9 b6 e3 08 38 95 26 6d b6 0c 35 78 bc
       -0.00022720157 3.2637e-05 -3.533821e-06 -0.015149366
000390 ad a6 6e b5 3f de b5 b5 b7 a5 e6 3e 62 31 bf bc
       -8.8904454e-07 -1.3550233e-06 0.45048305 -0.023338977
0003a0 91 2d 82 3a 82 c2 b4 b8 80 6e 33 b7 58 0b 8a b5
       0.0009931793 -8.619299e-05 -1.0694959e-05 -1.0285103e-06
0003b0 4b 4d 92 35 64 ee 62 bb d9 fb 0e bd bf 43 d7 b3
       1.0900343e-06 -0.0034626955 -0.03490815 -1.00240406e-07
0003c0 61 22 43 b9 16 b9 b6 b8 7a 68 8e 3d cf 3f 84 33
       -0.00018609456 -8.712911e-05 0.06953521 6.158336e-08
0003d0 e7 a6 9a ba 87 60 d6 b3 b8 66 81 b9 4c 43 49 32
       -0.0011799008 -9.98271e-08 -0.0002468133 1.1715041e-08
0003e0 b0 98 e7 b8 b0 0e ad b2 da 14 2c 36 29 93 13 bb
       -0.000110433786 -2.014653e-08 2.5642134e-06 -0.0022518134
0003f0 bb da 43 3a 3f fe 36 3a 78 fc 11 b6 68 bd 89 33
       0.0007471253 0.00069806346 -2.175364e-06 6.4140124e-08

_output_linear.bias f4 [5]
000000 6e e6 0c bf 3c e2 19 be a7 3f ed 3e a6 8f 39 be
       -0.5503911 -0.15027708 0.46337625 -0.18121204
000010 72 df 30 3c
       0.010795461
