data/MTMR_28002/real/uniform/N5/D5/dual/result/model/Two_ReLuNet_KD_MLSE4POL.pt (torch_old, 25290 bytes, 16 tensors)

0.linears.0.weight f4 [30, 5]
0	0x3ebba055	0.3664576
1	0x3ec29b6a	0.38009197
2	0x4005d91e	2.0913768
3	0xbd560dbc	-0.052259192
4	0xbd92f427	-0.071754746
5	0x283db537	1.0530902e-14
6	0x2cda19bb	6.1987893e-12
7	0xa42d94c1	-3.7639395e-17
8	0x272b0748	2.3734964e-15
9	0x279623a6	4.1672014e-15
10	0x3e9c9315	0.30580965
11	0x3e410d9c	0.18852848
12	0xbff310d5	-1.8989512
13	0x3ebbccd9	0.36679724
14	0xbcae98a4	-0.02131302
15	0xbed0f0fc	-0.40808856
16	0xbf043b76	-0.5165323
17	0x3fe73ec0	1.8066025
18	0xbe6afd66	-0.22948226
19	0x3d85ffb4	0.06542912
20	0xbe59225c	-0.21204513
21	0xbe38735c	-0.18012756
22	0xbe8b957e	-0.2726249
23	0x3f45d7ea	0.77282584
24	0xbf0372a3	-0.51346797
25	0xbf793bc8	-0.97356844
26	0xbde0d4de	-0.10978101
27	0x3e4cb59d	0.19991155
28	0x3c8b2a28	0.016987875
29	0xbd6a4d22	-0.057202466
30	0x87b9dfb4	-2.7967187e-34
31	0x8ff0371d	-2.3687056e-29
32	0x9105819c	-1.0531789e-28
33	0x0001e045	1.72288e-40
34	0x952e1314	-3.515407e-26
35	0x3e31aeae	0.17351791
36	0x3d9f4727	0.07777243
37	0x3e90557a	0.28190213
38	0xbf470a46	-0.7775005
39	0xbf07a99e	-0.5299319
40	0x3f2de1d3	0.67922705
41	0x3f3ce711	0.7379008
42	0x3e73e9e0	0.23819685
43	0xbf094d64	-0.53633714
44	0xbe1591e6	-0.14606437
45	0x3e056bf2	0.13029459
46	0x3e3c6af3	0.18400173
47	0x3f0ef382	0.55840313
48	0x3fc5b27a	1.5445092
49	0x3d83c577	0.06434148
50	0xa5c36e5c	-3.390189e-16
51	0xb1dd5582	-6.4416676e-09
52	0xb5461390	-7.3789215e-07
53	0xac944c40	-4.2148784e-12
54	0x251561c9	1.2956821e-16
55	0xbf28d58e	-0.6595086
56	0xbf426088	-0.75928545
57	0xbf5eba49	-0.87003
58	0x3f30829e	0.68949306
59	0x3e2065a9	0.1566378
60	0x0bc48afc	7.5705574e-32
61	0x063d8cd6	3.565042e-35
62	0x81d9f821	-8.006926e-38
63	0x00002763	1.4129e-41
64	0x1005dbdd	2.6399002e-29
65	0xbeafaf20	-0.34313297
66	0xbea67efc	-0.32518756
67	0x3f02c57e	0.510826
68	0xbf749209	-0.9553533
69	0xbe0eddc8	-0.1395179
70	0xb847d132	-4.7640126e-05
71	0xb56ac028	-8.7451417e-07
72	0x2a279f4d	1.4887848e-13
73	0xb4f8d6e8	-4.6349965e-07
74	0x3386d7a4	6.279086e-08
75	0xbdade672	-0.084912196
76	0xbd9390c7	-0.072053485
77	0x3d2a9b8d	0.04165225
78	0xbf8ff40c	-1.1246352
79	0x3f102ce1	0.5631848
80	0x3f056873	0.521125
81	0x3f128c88	0.57245684
82	0xbed54683	-0.4165536
83	0xbf771f3a	-0.9653202
84	0x3dffbdc0	0.12487364
85	0x3ef81d8e	0.48460048
86	0x3efde5c7	0.4958937
87	0xbf4f578f	-0.8099298
88	0x3fcb23a6	1.5870254
89	0x3df7f031	0.1210636
90	0xbc1f0c24	-0.009707484
91	0x3cd4e830	0.025989622
92	0xb954f3f3	-0.00020308774
93	0x3897569a	7.216372e-05
94	0xbc3cca55	-0.011522849
95	0x3ed2da0a	0.41181976
96	0x3e9e71d9	0.30946234
97	0x3f845a10	1.0339985
98	0xbf98add4	-1.1928048
99	0xbdfd1c7b	-0.12358948
100	0xa6afa266	-1.2187083e-15
101	0x2741bab7	2.6885349e-15
102	0x263489ef	6.263698e-16
103	0xa66c6e85	-8.202873e-16
104	0xa6664163	-7.9885895e-16
105	0xbe80a685	-0.25127044
106	0xbe9f9a5e	-0.3117246
107	0xbf33b132	-0.70192254
108	0xbf76a5bc	-0.9634664
109	0xbefda436	-0.49539346
110	0xbeb2d205	-0.34925857
111	0xbe8ce42f	-0.2751784
112	0xbf9cae5d	-1.2240711
113	0xbf8fedb7	-1.124442
114	0x3a161960	0.0005725827
115	0x3d1b08ef	0.037850317
116	0x3d30e2ac	0.04318492
117	0x3b288af8	0.0025717597
118	0xbc66a982	-0.0140785
119	0xbcde5a37	-0.027142627
120	0x3e494b85	0.19657715
121	0x3e8de09d	0.2771043
122	0xbf2f9c83	-0.6859819
123	0xbf98ab62	-1.1927302
124	0xbe924f8a	-0.28576308
125	0x3e817281	0.25282672
126	0x3e8107f7	0.2520139
127	0x3f081fe8	0.53173685
128	0xc00d9286	-2.212068
129	0xbba1a354	-0.0049328003
130	0x3e11b987	0.1423093
131	0x3e15d8a1	0.14633419
132	0xbfaea155	-1.3642985
133	0xbeaa6c7c	-0.33285892
134	0xbec9a733	-0.39385375
135	0xbe915342	-0.28383833
136	0xbe971538	-0.29508376
137	0x3e14061b	0.14455454
138	0xbcfa7add	-0.030576164
139	0xbef31ac9	-0.47481373
140	0x3eba9bd5	0.36447015
141	0x3e9b8d63	0.30381307
142	0x3e47d836	0.19516072
143	0x3f9910e5	1.1958281
144	0xbef18200	-0.47169495
145	0xbec5fd99	-0.38670042
146	0xbebd7c68	-0.37008977
147	0xbfedf38a	-1.8589947
148	0x3f35a3c5	0.7095302
149	0x3e04eee4	0.12981755

0.linears.0.bias f4 [30]
0	0xbfac6f65	-1.3471495
1	0xae144bee	-3.3718743e-11
2	0x3f4fd0bc	0.8117788
3	0xbfca138c	-1.5787215
4	0x3f1ad0c2	0.6047479
5	0xbf14628f	-0.5796289
6	0x9aec45e4	-9.7720227e-23
7	0xbf1e28f7	-0.6178126
8	0x3e41f9aa	0.18942896
9	0xbef6377f	-0.48089215
10	0xb69f3017	-4.7441677e-06
11	0xbf02b3ae	-0.5105542
12	0x98cf387a	-5.3565273e-24
13	0x3ecee07d	0.40405646
14	0xba70e2a8	-0.0009189048
15	0xbf057817	-0.5213637
16	0xbf921cdc	-1.1415057
17	0xbfb9e9af	-1.452444
18	0xbde233d9	-0.110450454
19	0xbed8cf40	-0.4234562
20	0xa80b08fb	-7.717997e-15
21	0xbfca7171	-1.581587
22	0xbe5b43e1	-0.21412612
23	0xbf655306	-0.8957981
24	0x3e7b0e7c	0.24517244
25	0xc0009741	-2.0092318
26	0xbf80abbb	-1.0052408
27	0xc00ec249	-2.2306082
28	0xbfbb17de	-1.4616659
29	0xc00b8ece	-2.180591

0.linears.1.weight f4 [30, 30]
0	0xbe8c02d8	-0.2734592
1	0x00002294	1.2404e-41
2	0xbeb0bb41	-0.34517863
3	0xbe40f4a0	-0.18843317
4	0x3f055ef8	0.52098036
5	0x3f154375	0.58306056
6	0x00005486	3.0321e-41
7	0xbe3c3ef4	-0.1838339
8	0xbcba77d5	-0.022762218
9	0xbeccec1f	-0.40023896
10	0x000133d1	1.10424e-40
11	0x3f356cdd	0.7086924
12	0x8000e8ef	-8.3561e-41
13	0x3d703a6b	0.05864946
14	0x9b0f6ac7	-1.1863184e-22
15	0x3e937746	0.28801936
16	0x3c3e5bde	0.0116185825
17	0x3cd597e8	0.026073411
18	0xabc20cfd	-1.3788134e-12
19	0xbf045a4e	-0.51700294
20	0x26d88f5c	1.5026868e-15
21	0x3d74c9a8	0.059762627
22	0xbe98a65f	-0.2981443
23	0xbb4d6f44	-0.0031346837
24	0x3f1da80e	0.61584556
25	0x3cfb1137	0.030647857
26	0xbf637abf	-0.8885917
27	0xbe48f34a	-0.19624057
28	0xbf65d849	-0.8978315
29	0xbfcdc7c4	-1.6076589
30	0x3ea20de6	0.3165123
31	0x85c2ad1b	-1.8307261e-35
32	0xbf384d7a	-0.7199322
33	0xbf225cfa	-0.6342312
34	0xbeb56791	-0.35430577
35	0xbe83efd4	-0.25768912
36	0x8001b445	-1.56504e-40
37	0xbdaf1758	-0.08549374
38	0xbea263ec	-0.3171686
39	0x3f84484e	1.0334566
40	0x26eca56b	1.6420626e-15
41	0xbe3d2d4d	-0.18474312
42	0x000016e9	8.219e-42
43	0xbe0dd2fc	-0.13850015
44	0x9a886153	-5.640552e-23
45	0x8524c550	-7.7474835e-36
46	0x352645cb	6.194138e-07
47	0x3f00b3e9	0.5027452
48	0xaa925d0b	-2.5999371e-13
49	0xbf37fcc5	-0.7187007
50	0xa61e4241	-5.490705e-16
51	0x80018a43	-1.41434e-40
52	0x8000144c	-7.281e-42
53	0xae80d999	-5.859419e-11
54	0xa6a9007b	-1.1726861e-15
55	0x00000007	1e-44
56	0xac85638b	-3.791139e-12
57	0xbe731072	-0.23736742
58	0x3d9640eb	0.07336601
59	0x0000f508	8.79e-41
60	0x800028ff	-1.4707e-41
61	0xb5a6ab22	-1.241777e-06
62	0xb7782869	-1.4791361e-05
63	0x9ad1623c	-8.659908e-23
64	0xb58d7f97	-1.0542452e-06
65	0x80006e01	-3.9462e-41
66	0x80023238	-2.01686e-40
67	0x8001fa0b	-1.81534e-40
68	0x00000d1c	4.703e-42
69	0xaea60461	-7.549584e-11
70	0x80011ee0	-1.02911e-40
71	0x2dfa71d7	2.8472264e-11
72	0x00005b18	3.2678e-41
73	0x80018645	-1.40002e-40
74	0x3bd0b454	0.006369153
75	0x0000cbf0	7.3159e-41
76	0x8036c659	-5.03027e-39
77	0xa07bf0de	-2.1340223e-19
78	0x0001c353	1.61905e-40
79	0x00000e04	5.028e-42
80	0x00148b30	1.886641e-39
81	0x80018f69	-1.43281e-40
82	0x0000f6fe	8.8604e-41
83	0xb7ca583a	-2.412136e-05
84	0x8001e728	-1.74759e-40
85	0x0000b6e9	6.5616e-41
86	0x8000162e	-7.957e-42
87	0xb108f444	-1.9929454e-09
88	0x00005453	3.025e-41
89	0x80002249	-1.2299e-41
90	0xbf2060e7	-0.6264786
91	0x8000a918	-6.066e-41
92	0xbed39996	-0.41328114
93	0x3f4b6a39	0.7945896
94	0x3e08467e	0.1330814
95	0xbdf0fabc	-0.11766574
96	0x0001a6f2	1.51724e-40
97	0x3e413566	0.18868026
98	0x3e0d7bd8	0.13816774
99	0xbf3fc775	-0.7491372
100	0xa16aabba	-7.950956e-19
101	0xbeec810b	-0.46192202
102	0x00000575	1.958e-42
103	0x3f6917f0	0.9105215
104	0x9a5c0a08	-4.5503037e-23
105	0x3e8b61fc	0.27223194
106	0x3b78dbb4	0.003797275
107	0x001d6a6a	2.701404e-39
108	0x2a959a90	2.6574966e-13
109	0xbe741f85	-0.23840149
110	0xa5e4990e	-3.965541e-16
111	0x3beea4e0	0.007282838
112	0xbe629608	-0.22127545
113	0x31c673d0	5.775725e-09
114	0xbf0b980e	-0.5452889
115	0xbf1df831	-0.61706835
116	0xb5e28d9f	-1.6879529e-06
117	0xbdbcbdbc	-0.092158765
118	0x3d25ce9f	0.040480252
119	0x000089fb	4.9498e-41
120	0x00015bb0	1.24727e-40
121	0x000121ae	1.03917e-40
122	0xbc0aaa00	-0.008463383
123	0x8000083e	-2.957e-42
124	0xad81491f	-1.4698074e-11
125	0x80a07b38	-1.4737882e-38
126	0x0000743c	4.1697e-41
127	0x800017ef	-8.586e-42
128	0xb8403230	-4.5823108e-05
129	0x824dcfb7	-1.5120633e-37
130	0x8000bc0d	-6.746e-41
131	0xa9932c39	-6.535783e-14
132	0x00021c51	1.93829e-40
133	0xb551755a	-7.8029336e-07
134	0x80005b64	-3.2785e-41
135	0xa386e56f	-1.4625478e-17
136	0xaabc3433	-3.343173e-13
137	0x9996e4b5	-1.560201e-23
138	0x00016806	1.29152e-40
139	0xaf58def1	-1.972429e-10
140	0x80336f2e	-4.723494e-39
141	0x0000e940	8.3674e-41
142	0xb7227677	-9.683535e-06
143	0x3aa7e057	0.0012807947
144	0xb9d48a42	-0.000405388
145	0x963c0806	-1.5189051e-25
146	0xae998963	-6.982039e-11
147	0xb0098828	-5.00338e-10
148	0x8001a6ee	-1.51719e-40
149	0x0000cdb9	7.38e-41
150	0x3f3f8343	0.74809664
151	0x00014db4	1.1971e-40
152	0xbf107640	-0.56430435
153	0xbef8070e	-0.48442882
154	0x3ec641f2	0.38722187
155	0x3ec302fd	0.38088217
156	0x8000e74d	-8.2975e-41
157	0xbe4ad47a	-0.19807616
158	0xbe9fbfbc	-0.3120097
159	0x3f08e7e1	0.5347882
160	0x29901e88	6.400181e-14
161	0x3e7b00ff	0.24512099
162	0x0000140c	7.191e-42
163	0xbede1c9e	-0.43381208
164	0x9b6c46ec	-1.9544379e-22
165	0xbe1a1b29	-0.15049423
166	0x3ed9a0d2	0.4250551
167	0x3e07bab7	0.1325482
168	0x2a69addf	2.0754881e-13
169	0x3e95f457	0.2928798
170	0x210a0548	4.676321e-19
171	0x2b49907b	7.161005e-13
172	0x3e0e3d2f	0.13890527
173	0xb11dae35	-2.2945532e-09
174	0xbe1737a3	-0.14767317
175	0x3f822ead	1.0170494
176	0xbe0aa4d9	-0.13539447
177	0xbdf45c6b	-0.1193169
178	0x3f3b0991	0.7306147
179	0x3f0aff1d	0.5429552
180	0xbf69d4af	-0.91340154
181	0x00005bec	3.2975e-41
182	0x3efb53b7	0.49087307
183	0xbd15c1c2	-0.036561735
184	0xbe746d91	-0.23869921
185	0x3d8c588a	0.06852825
186	0x000006c8	2.433e-42
187	0xbdcc3562	-0.099711195
188	0xbf0d9ff2	-0.5532218
189	0x3e9d5a0e	0.3073277
190	0x0000fc78	9.0569e-41
191	0x3c80c802	0.015720371
192	0x80011f72	-1.03116e-40
193	0x3f1ba841	0.6080361
194	0x1fe14056	9.539764e-20
195	0x3e491635	0.19637378
196	0x3f1b92f6	0.6077112
197	0x3f9c9eee	1.2236001
198	0x2b67af8e	8.2311317e-13
199	0xbc357433	-0.011075067
200	0xa6d09d6b	-1.4475568e-15
201	0xbe4fb398	-0.20283353
202	0x3e16f57a	0.1474208
203	0x31598214	3.1651597e-09
204	0x3f27d06a	0.6555239
205	0x3fc94dfc	1.5726924
206	0x3e2efa3d	0.17087646
207	0xbf8766bf	-1.0578231
208	0xbe888618	-0.26664805
209	0xbcb80b4e	-0.022466328
210	0x3f8a0ad5	1.0784556
211	0x0000a7ed	6.024e-41
212	0xbecfe5b7	-0.40604946
213	0xbeb498e8	-0.35272908
214	0xbe5a7841	-0.21334936
215	0x3df80110	0.12109578
216	0x00004a4e	2.6655e-41
217	0xbe42a293	-0.1900733
218	0x3f083cb1	0.5321761
219	0x3e24251b	0.1602978
220	0x258ed102	2.4774703e-16
221	0xbe9c6636	-0.3054673
222	0x80001469	-7.322e-42
223	0xbf04d36a	-0.5188509
224	0x9ac8bcb2	-8.3022915e-23
225	0xbe39528a	-0.18097892
226	0xbf27d606	-0.6556095
227	0xbefaa32f	-0.48952624
228	0xaae495b7	-4.0604821e-13
229	0x3d6f6c72	0.05845303
230	0xa5141fbf	-1.284771e-16
231	0x92940ace	-9.342777e-28
232	0xbc8dce19	-0.01731019
233	0x2ea7c31c	7.628939e-11
234	0xbe4021e7	-0.18762933
235	0xbfb873e7	-1.441037
236	0xbc6f1cbd	-0.014594254
237	0x3e13014e	0.14355966
238	0xbe87cf7f	-0.26525494
239	0x0000faa4	8.9913e-41
240	0xac67dfaa	-3.2951233e-12
241	0x000076ae	4.2574e-41
242	0xb79a2ce3	-1.8379133e-05
243	0xac0ced67	-2.0026981e-12
244	0x2f404e26	1.7490062e-10
245	0x2c86184c	3.8112066e-12
246	0x8000535e	-2.9907e-41
247	0x2b6bf2b3	8.3825584e-13
248	0xb0b23a81	-1.2967832e-09
249	0x2dbbfe8e	2.1372484e-11
250	0x800015de	-7.844e-42
251	0x2ca6a9a4	4.7368377e-12
252	0x800032e0	-1.825e-41
253	0xb1c8124a	-5.8228453e-09
254	0x000ea5bf	1.345155e-39
255	0xab945942	-1.0540807e-12

0.linears.1.bias f4 [30]
0	0x3f124b5c	0.5714624
1	0xbf8afbce	-1.0858095
2	0xb1b48db4	-5.2547993e-09
3	0xbef22884	-0.47296536
4	0xb8405f44	-4.586509e-05
5	0xbf6c6e09	-0.923554
6	0xc002cc52	-2.0437207
7	0x3d9f00f9	0.077638574
8	0xb4be87fa	-3.5489194e-07
9	0xb5dcf32f	-1.6462053e-06
10	0xbf1ca455	-0.6118825
11	0x3eff68fb	0.4988478
12	0xbc73c02c	-0.01487736
13	0xb59d3cb6	-1.1715081e-06
14	0x3e9a0c82	0.30087668
15	0xa64d2d59	-7.118512e-16
16	0xbe1c2852	-0.15249756
17	0xbf2ad7a0	-0.6673527
18	0x3fb32f9c	1.3998904
19	0xbe868dd7	-0.2628009
20	0xbe018c65	-0.12651213
21	0xb4cc59a9	-3.8063197e-07
22	0xa766bee9	-3.2022405e-15
23	0xb9fa3262	-0.00047721254
24	0xb7c601ff	-2.3604369e-05
25	0xaa08892b	-1.2126816e-13
26	0x3f27a7d3	0.65490454
27	0xbe9d6a97	-0.30745384
28	0xacfdad85	-7.209957e-12
29	0xbf20881d	-0.6270769

0.linears.2.weight f4 [30, 30]
0	0x3e8563b2	0.26052624
1	0x3e189ba0	0.14903116
2	0x80004bc2	-2.7177e-41
3	0xbe981b21	-0.29708198
4	0x000040c0	2.3228e-41
5	0x3c250a08	0.010073192
6	0xbb4820a0	-0.0030537024
7	0xbef65f28	-0.48119473
8	0x2c0505e4	1.8903707e-12
9	0x000225ee	1.97278e-40
10	0x2d95ecb3	1.7044454e-11
11	0xbe2171c0	-0.15766048
12	0x2fc94947	3.6613754e-10
13	0xb46267da	-2.1085671e-07
14	0xbf127f64	-0.5722563
15	0xa6680ec3	-8.0511175e-16
16	0x31bb1fce	5.446032e-09
17	0x00002ba2	1.5653e-41
18	0x3ef57cd5	0.47946802
19	0xbf55b6e5	-0.834822
20	0xbee7bf6a	-0.45263225
21	0xaa6d44b8	-2.107367e-13
22	0x00004635	2.5186e-41
23	0xb0590012	-7.894424e-10
24	0xb003e886	-4.798796e-10
25	0x0e8531e2	3.2835067e-30
26	0xbf0889a8	-0.53335047
27	0x3f9920fa	1.1963189
28	0x25d2480c	3.6478014e-16
29	0xa9c75a14	-8.8530013e-14
30	0xbda1929c	-0.07889292
31	0xa5adff6e	-3.0183802e-16
32	0x2ae0ee20	3.9955626e-13
33	0xbe73526b	-0.23761909
34	0xac1b57e4	-2.2075614e-12
35	0xaf690c4a	-2.1195593e-10
36	0xbb94188c	-0.004519528
37	0xb61c8784	-2.3324692e-06
38	0x80005ba3	-3.2873e-41
39	0x00020320	1.84792e-40
40	0x2f1c6348	1.4223389e-10
41	0xbf16bd93	-0.5888302
42	0x80018179	-1.38282e-40
43	0xa1c4ebdf	-1.3343911e-18
44	0xbf061fc4	-0.5239222
45	0x0001ce0e	1.65754e-40
46	0x801edc2a	-2.834045e-39
47	0xbaf4a957	-0.001866619
48	0xb7902bd1	-1.7186541e-05
49	0x254232f8	1.6844087e-16
50	0x2999c7bd	6.829214e-14
51	0x997e6a93	-1.3153015e-23
52	0x0001f838	1.8088e-40
53	0x29ecdd98	1.0518946e-13
54	0x34f98118	4.6473792e-07
55	0x8001228c	-1.04229e-40
56	0xae949869	-6.757334e-11
57	0xbde5ab77	-0.11214345
58	0x0000686a	3.7457e-41
59	0x2efcb928	1.14925236e-10
60	0x2b61da77	8.023924e-13
61	0x2c2695ee	2.3673247e-12
62	0xa6dc3952	-1.5281103e-15
63	0xaa4d9465	-1.8259142e-13
64	0x00022274	1.9603e-40
65	0xac8e1ddb	-4.0391974e-12
66	0xbc5366fc	-0.012902971
67	0xb26b04af	-1.3679865e-08
68	0x298bd340	6.209486e-14
69	0x80008067	-4.6062e-41
70	0x27c887fe	5.5658594e-15
71	0xabc1a132	-1.3758215e-12
72	0x005b738e	8.398483e-39
73	0x8011c428	-1.631571e-39
74	0xb8217d6f	-3.850221e-05
75	0x80005fc2	-3.4351e-41
76	0xa8885894	-1.5137448e-14
77	0x2c646347	3.2455859e-12
78	0x2c146e91	2.1093442e-12
79	0xbb2426c1	-0.0025047513
80	0xbb1e84c8	-0.002418803
81	0x22c72a90	5.3984123e-18
82	0xb480e1e0	-2.4006204e-07
83	0xae04eaa0	-3.0221714e-11
84	0xa52760e4	-1.4517769e-16
85	0x8001122f	-9.8359e-41
86	0xbda4907f	-0.08035373
87	0xac94ca55	-4.2288764e-12
88	0x008f6b61	1.3170996e-38
89	0xa910c5d9	-3.214603e-14
90	0x3f08f103	0.53492755
91	0x3f6335bc	0.8875387
92	0x00011dc9	1.0252e-40
93	0xbf17c0ce	-0.5927857
94	0xa7430b2e	-2.7067747e-15
95	0x3f4a3939	0.78993565
96	0xbe5320b0	-0.20617938
97	0xbe711249	-0.23542131
98	0xac8bdfd7	-3.975469e-12
99	0x00008a69	4.9652e-41
100	0xbba7470f	-0.0051049064
101	0xbed0af7a	-0.40758878
102	0xbb4b363d	-0.003100767
103	0x3486d5e2	2.5115065e-07
104	0x3e68c212	0.22730282
105	0x24935bf5	6.390687e-17
106	0xb3902a89	-6.7132596e-08
107	0x3f78b06b	0.9714419
108	0x3ec25cd6	0.37961453
109	0xbe6d05b7	-0.23146711
110	0x3eb29b29	0.34884003
111	0x2c13ce34	2.1004422e-12
112	0x82a44612	-2.4137853e-37
113	0x3270a4c0	1.4007298e-08
114	0xb91b0ad9	-0.00014785993
115	0x9c5fbb35	-7.402647e-22
116	0xbf54acc7	-0.8307614
117	0x3e9470fa	0.28992444
118	0x2b8a68a1	9.83453e-13
119	0xaaf19612	-4.2914332e-13
120	0x80022958	-1.98502e-40
121	0x8000a8ba	-6.0528e-41
122	0x8000bde7	-6.8124e-41
123	0x8000e2cb	-8.1358e-41
124	0x8000a44f	-5.8943e-41
125	0x80019bbf	-1.47707e-40
126	0xbadbc557	-0.0016767186
127	0x80003d6e	-2.2037e-41
128	0xb78409ce	-1.5740192e-05
129	0x800156f3	-1.23027e-40
130	0x80000c74	-4.467e-42
131	0xaaa1778e	-2.8682303e-13
132	0x80008a53	-4.9621e-41
133	0x0000464b	2.5216e-41
134	0x80076f91	-6.82871e-40
135	0x0000486d	2.5981e-41
136	0x00003580	1.9192e-41
137	0xb89c150e	-7.4425814e-05
138	0xa95898e5	-4.809425e-14
139	0x0d13e91c	4.5578467e-31
140	0xbb2cb7c6	-0.0026354655
141	0x0000bf30	6.8585e-41
142	0x80001df5	-1.0747e-41
143	0x000006b3	2.403e-42
144	0x00007350	4.1366e-41
145	0x8000584e	-3.1678e-41
146	0xbe6175de	-0.22017619
147	0x80022aa9	-1.98975e-40
148	0x8001dcd4	-1.71054e-40
149	0x00013a2e	1.12706e-40
150	0xa89cd172	-1.7410312e-14
151	0x275869d9	3.0033402e-15
152	0x00003dbb	2.2145e-41
153	0x27c12c7a	5.3616483e-15
154	0x00008dfa	5.0932e-41
155	0xa8221918	-8.998248e-15
156	0xa8d8fd22	-2.4090596e-14
157	0xa8dafe0c	-2.4313037e-14
158	0xb84dbf92	-4.9054222e-05
159	0x00015696	1.22897e-40
160	0x00013814	1.11953e-40
161	0x2a578084	1.9140424e-13
162	0x00005697	3.1063e-41
163	0xbb38c5be	-0.0028194035
164	0x2a410bc0	1.714592e-13
165	0x800083a2	-4.7221e-41
166	0x0001c3d4	1.62085e-40
167	0xa8ce4902	-2.2902256e-14
168	0x2827afd3	9.308488e-15
169	0x269470d1	1.0300142e-15
170	0xa98e4037	-6.317206e-14
171	0xa64fc0da	-7.2078915e-16
172	0x2d5f68a0	1.2699314e-11
173	0x800015a1	-7.759e-42
174	0xbb8073e2	-0.0039200643
175	0x8000048e	-1.634e-42
176	0xb2d1aa99	-2.4408381e-08
177	0x28ebd6ba	2.6183364e-14
178	0x0000b895	6.6216e-41
179	0x00001bf7	1.0032e-41
180	0xbd98cea9	-0.07461292
181	0xbc2716a1	-0.010198266
182	0x9707dd40	-4.390011e-25
183	0xbddb9e22	-0.10723521
184	0xb099aa96	-1.1180699e-09
185	0xbc119e8e	-0.0088879
186	0xba934ebd	-0.0011238676
187	0xbd872a68	-0.06599885
188	0xad150bd0	-8.472292e-12
189	0x00012582	1.05291e-40
190	0x348f7aa4	2.6725058e-07
191	0xbedb07db	-0.4277943
192	0x1a306a53	3.6481835e-23
193	0x398cc093	0.0002684636
194	0xbf12146d	-0.5706242
195	0x00010657	9.411e-41
196	0x2cf5cd44	6.986108e-12
197	0xbbe7fe59	-0.007079881
198	0xbce2df7d	-0.027694458
199	0xbd92ac19	-0.07161731
200	0xbbbe2347	-0.005802545
201	0xabb6a83c	-1.2978572e-12
202	0xb1781cc4	-3.6105101e-09
203	0xaf01155e	-1.1740073e-10
204	0x29b5345e	8.047099e-14
205	0x00000283	9.01e-43
206	0xbd39405c	-0.045227394
207	0xbe5931b2	-0.21210364
208	0x191276c0	7.5720045e-24
209	0x800197ac	-1.46245e-40
210	0xbdad8432	-0.0847248
211	0x3f2e7258	0.68143225
212	0xb8cf1cf0	-9.875919e-05
213	0x3f51b065	0.8190978
214	0xb9930b11	-0.0002804627
215	0x3eaa8d8a	0.3331111
216	0xbf1968c8	-0.5992551
217	0x3e354cef	0.17705129
218	0x366b7194	3.508384e-06
219	0x8000cc0d	-7.32e-41
220	0x3ebacc21	0.36483863
221	0xbdbaaba8	-0.09114772
222	0xbe0d03fb	-0.1377105
223	0x33bc6555	8.7728644e-08
224	0xbecf6b80	-0.40511703
225	0xa68f013d	-9.922954e-16
226	0xbc692ed9	-0.014232361
227	0x3efa2b07	0.48860952
228	0x3e648f99	0.22320403
229	0xbf15147e	-0.58234394
230	0xbf08087e	-0.5313796
231	0xac47efc0	-2.8412689e-12
232	0x057b2f99	1.18107056e-35
233	0xbbb0cac3	-0.005395265
234	0xb798e3bf	-1.8225865e-05
235	0x108fe6f9	5.6759424e-29
236	0x3f830ff3	1.0239242
237	0x3f0e1c89	0.5551229
238	0x2c7509a3	3.4821944e-12
239	0x3c5891a6	0.013218319
240	0xbbc5f7a6	-0.006041485
241	0x374b331e	1.21116445e-05
242	0x2660310c	7.778208e-16
243	0xba7ff55d	-0.000976404
244	0x000218c9	1.92562e-40
245	0x38d638f9	0.00010214927
246	0xbad84b72	-0.0016501977
247	0xb9efad31	-0.0004571467
248	0x2af6953c	4.380193e-13
249	0x80010f84	-9.7401e-41
250	0x800206c1	-1.86094e-40
251	0xbb33ef98	-0.0027456041
252	0xb6eb8720	-7.0192764e-06
253	0x8001653e	-1.28154e-40
254	0xba2302d1	-0.0006218376
255	0x9e193a3e	-8.111797e-21

0.linears.2.bias f4 [30]
0	0xbfb9e2b6	-1.4522312
1	0xbeb17a0e	-0.34663433
2	0xb81409d0	-3.529509e-05
3	0x3ede54a3	0.43423948
4	0xba0c9777	-0.0005363146
5	0xb64f2e39	-3.0872309e-06
6	0xbed55c49	-0.4167197
7	0x3e9884ab	0.29788718
8	0xbaa137e9	-0.0012299988
9	0xbefca06a	-0.49341136
10	0x3fb9db31	1.4520017
11	0xbd6384d4	-0.055546597
12	0xbe805629	-0.25065735
13	0xba65c32f	-0.00087647414
14	0xb2cef80f	-2.409436e-08
15	0xb75872d5	-1.290134e-05
16	0xba228083	-0.00061989593
17	0xbe60512e	-0.21905968
18	0xb6546886	-3.1651302e-06
19	0xb85522d7	-5.0815604e-05
20	0xb22887a4	-9.809728e-09
21	0xae67577c	-5.260102e-11
22	0xbf08add0	-0.53390217
23	0xbaad0867	-0.0013201357
24	0xbb9afddd	-0.00472997
25	0xbf048017	-0.5175795
26	0xbecd9da8	-0.40159345
27	0xbb27df03	-0.0025615103
28	0x3ed789f9	0.42097452
29	0x3dce758f	0.10081016

0.output_layer.weight f4 [21, 30]
0	0xbf394761	-0.7237454
1	0x39353a45	0.00017283212
2	0x368b625e	4.1539743e-06
3	0x3e27845a	0.16359082
4	0x8cd7dc5b	-3.3258617e-31
5	0x3a0be340	0.0005336292
6	0x3f234476	0.6377634
7	0x3e0864ef	0.13319753
8	0xb981d344	-0.00024762203
9	0x3f0d273c	0.5513799
10	0xbf30207a	-0.68799555
11	0x3cbffb2e	0.023435201
12	0x3dd8f60d	0.105938055
13	0xb854c5f5	-5.07291e-05
14	0x251ab9c9	1.3420317e-16
15	0xb690b145	-4.3121713e-06
16	0x3c5af388	0.013363726
17	0xbe5ba5a6	-0.21449909
18	0xbcabc1c4	-0.020966418
19	0xbb8bcbc8	-0.004266236
20	0x354873b7	7.4674193e-07
21	0x80000716	-2.542e-42
22	0x3dc423ed	0.09577165
23	0xb594e3ed	-1.1093194e-06
24	0x3ec46f6e	0.38366264
25	0x3d9cc407	0.07654577
26	0xbf87f1c4	-1.0620656
27	0xba86336f	-0.0010238717
28	0x3f5bbdc1	0.85836416
29	0xbf1df55e	-0.61702526
30	0x3ba147bd	0.004921882
31	0x9f23f004	-3.471513e-20
32	0xa9d9b698	-9.668411e-14
33	0xbc09cf97	-0.00841131
34	0x800145b4	-1.1684e-40
35	0xa777bb59	-3.4379697e-15
36	0x362da6cf	2.5876104e-06
37	0x3ad61de6	0.0016335815
38	0x363d96a1	2.8250872e-06
39	0x3c4cbda4	0.012496386
40	0xba6b5e76	-0.00089786144
41	0xafcddf28	-3.7447845e-10
42	0x3bdf804e	0.006820715
43	0xb4ebabd8	-4.3897194e-07
44	0x0d5020f4	6.4134614e-31
45	0xb4138e81	-1.3742284e-07
46	0x00021d54	1.94192e-40
47	0xbbaa9fb9	-0.0052070287
48	0x125422fe	6.6938536e-28
49	0xadc90dce	-2.2857185e-11
50	0x2944112f	4.3535647e-14
51	0x80018d42	-1.42509e-40
52	0xa8812b27	-1.4340591e-14
53	0xa7880b31	-3.7759717e-15
54	0xb5a1fe25	-1.20694e-06
55	0xbc2d96dd	-0.010595051
56	0x39eea400	0.00045517087
57	0x24ce0207	8.9341693e-17
58	0xbb401ce4	-0.0029314095
59	0xba9e0610	-0.001205625
60	0x3cb80b9f	0.022466479
61	0x22d7b484	5.8466995e-18
62	0x2a86b21f	2.3926778e-13
63	0x3ccb0169	0.024780946
64	0x8000f782	-8.8789e-41
65	0x24d0fb26	9.063108e-17
66	0xb6b3b05c	-5.3551466e-06
67	0xbc116d8c	-0.008876216
68	0xb6eb5460	-7.0133683e-06
69	0xbd775de4	-0.060392275
70	0xbbf7248c	-0.0075421985
71	0xaed36f90	-9.6149866e-11
72	0xbc4b423b	-0.012405927
73	0x37536d16	1.2601979e-05
74	0x10c94c59	7.9398153e-29
75	0xb53fd4fb	-7.146297e-07
76	0x83025d08	-3.831036e-37
77	0x3cb7ce46	0.022437226
78	0x15f24381	9.7849524e-26
79	0x2bdf0588	1.5846638e-12
80	0x2924580b	3.649168e-14
81	0x0000bc29	6.7499e-41
82	0x280ef429	7.935527e-15
83	0x2816b256	8.365343e-15
84	0x33a0c644	7.486645e-08
85	0x3c6265c9	0.013818213
86	0xbc439585	-0.011937504
87	0xb63d4958	-2.8205886e-06
88	0xba6be2d8	-0.0008998341
89	0xbc32f23b	-0.01092201
90	0xbba09405	-0.004900458
91	0xa2f48d4b	-6.6285932e-18
92	0x2b83bd51	9.360656e-13
93	0x3cac6cc1	0.021047952
94	0x00004789	2.5662e-41
95	0xa7e2ff7c	-6.3004598e-15
96	0x3732b339	1.0651355e-05
97	0xbc3cb38d	-0.011517418
98	0xb6fe238d	-7.5739285e-06
99	0xbc509389	-0.012730488
100	0xbbff8f5f	-0.0077990736
101	0x2ec4cad1	8.9490755e-11
102	0xbb78d188	-0.0037966687
103	0x37c6e20f	2.3708706e-05
104	0x8eb34268	-4.4190854e-30
105	0xb5aaaaa5	-1.2715651e-06
106	0x00003296	1.8147e-41
107	0x3c01829a	0.007904673
108	0x980291f7	-1.68758e-24
109	0x2d92110c	1.6605849e-11
110	0x2a2fe1ed	1.5621506e-13
111	0x00007a34	4.3838e-41
112	0xa7bc35b6	-5.2238716e-15
113	0xa87e765f	-1.41255e-14
114	0x35836e85	9.792426e-07
115	0x3c4602cb	0.012085627
116	0xba7e65cd	-0.00097045006
117	0x33206c82	3.735159e-08
118	0x3c3dcd62	0.011584612
119	0x39df0e8f	0.00042544722
120	0xbb23fcd0	-0.0025022514
121	0xa05498b8	-1.8007629e-19
122	0x2b6b226c	8.353654e-13
123	0x3b4d6ac9	0.0031344166
124	0x0000b740	6.5738e-41
125	0xa8abc83a	-1.9071648e-14
126	0xb7447ea9	-1.1712001e-05
127	0x3abeff41	0.0014571921
128	0x36ed9aa8	7.0811548e-06
129	0xbbb74e0b	-0.0055940202
130	0x3acd7a05	0.0015676623
131	0xb0259925	-6.024428e-10
132	0x3c759f6a	0.014991621
133	0xb6ea1b12	-6.976895e-06
134	0x8e07d1cb	-1.6741046e-30
135	0x349919cc	2.851724e-07
136	0x00008a37	4.9582e-41
137	0x3bcf1ca6	0.006320554
138	0x9b6f6cd3	-1.980478e-22
139	0x2dc65158	2.2546118e-11
140	0x2a68ce33	2.0677279e-13
141	0x000129a6	1.06776e-40
142	0x375c6122	1.3135637e-05
143	0xa8e83373	-2.5779487e-14
144	0xb53b704f	-6.982636e-07
145	0x3b6671bb	0.0035163003
146	0x3a4d7514	0.00078375754
147	0x2318f046	8.290816e-18
148	0x3b492746	0.0030693575
149	0xbac6d6c7	-0.001517021
150	0xb892cadc	-6.999608e-05
151	0xa10cfab8	-4.776567e-19
152	0x2bc90be3	1.4285208e-12
153	0x3c87b514	0.016565837
154	0x8001a7f1	-1.52082e-40
155	0xa8d0ede4	-2.3195808e-14
156	0xb6e7a191	-6.9031453e-06
157	0xbc31f093	-0.01086058
158	0xb738f928	-1.1025266e-05
159	0xbcdb07d8	-0.026737139
160	0xbba166eb	-0.004925599
161	0xaf9d265f	-2.8585398e-10
162	0x39a129d2	0.00030739472
163	0x37acbcc7	2.0591904e-05
164	0x8f5821f7	-1.06561636e-29
165	0xb4b1b0d2	-3.3097473e-07
166	0x8000bc64	-6.7582e-41
167	0x3b818592	0.0039526904
168	0x16061380	1.0830587e-25
169	0x2d743e2e	1.3883601e-11
170	0xa7afa300	-4.8748982e-15
171	0x00012d60	1.08113e-40
172	0x341048d4	1.343754e-07
173	0x28fabae7	2.7836632e-14
174	0xb5ad8041	-1.2926831e-06
175	0x3bd43bbb	0.006476847
176	0xbb3bd3aa	-0.0028660097
177	0x8000c584	-7.0855e-41
178	0x39e4a620	0.00043611322
179	0xbb57e9f4	-0.0032945843
180	0x3d7a4637	0.06110212
181	0xa3636277	-1.2326545e-17
182	0x2a82a8e2	2.3209825e-13
183	0x3e07903f	0.1323862
184	0x0000ca8e	7.2663e-41
185	0x295883cb	4.8075947e-14
186	0x3a2b4833	0.0006533891
187	0xbd8c33ba	-0.068458036
188	0xb887b098	-6.470195e-05
189	0xbe5ffe78	-0.21874416
190	0xbd510f41	-0.051039938
191	0x2ff3e5f3	4.436483e-10
192	0xbcd6039e	-0.026124772
193	0x3980808c	0.00024509837
194	0x8edc5ca9	-5.4323416e-30
195	0xb6c1f68b	-5.7805496e-06
196	0x000061e9	3.5124e-41
197	0x3d16df04	0.036833778
198	0x94d2ceac	-2.1286099e-26
199	0x2f66de94	2.0997454e-10
200	0x2a361316	1.6171469e-13
201	0x8001977c	-1.46178e-40
202	0xba8861ae	-0.0010405087
203	0xa8ac671b	-1.9140551e-14
204	0xb5556eb2	-7.9509766e-07
205	0x3d88b53d	0.066751935
206	0x3c31f28e	0.010861052
207	0x00018f86	1.43322e-40
208	0x3d257860	0.040398
209	0xbd1b19a3	-0.037866246
210	0xbf000bc9	-0.5001798
211	0x3b4324d3	0.0029776588
212	0xb7705505	-1.432491e-05
213	0xbe96d1e0	-0.29456997
214	0x8000c719	-7.1423e-41
215	0xa9937411	-6.548246e-14
216	0x3f12e1b8	0.5737567
217	0x3ec9a756	0.3938548
218	0xb9a036b5	-0.00030558338
219	0x3f5bbb8f	0.85833067
220	0xbe810913	-0.25202236
221	0xbc607e39	-0.013701969
222	0xbe81dcf1	-0.25363877
223	0xb9e69edc	-0.00043987378
224	0x9f5ae772	-4.6354743e-20
225	0x378d4b85	1.6843676e-05
226	0x37e2f8e1	2.7057193e-05
227	0x3d7b9818	0.061424345
228	0x3cc8b6e1	0.024501266
229	0xb8178c50	-3.613188e-05
230	0x2b2f9520	6.237944e-13
231	0x00004ddc	2.793e-41
232	0xbd736f6f	-0.059432443
233	0x3b3d9caa	0.002893249
234	0xbad82ac4	-0.0016492237
235	0x3e945e89	0.28978375
236	0x3f800377	1.0001057
237	0x3a841c5e	0.0010079255
238	0xbf22253f	-0.63338083
239	0xbf550ea6	-0.83225477
240	0x3c42f234	0.011898566
241	0xa2f6b6ab	-6.687184e-18
242	0x2985dd43	5.944769e-14
243	0xbd054246	-0.032533906
244	0x800047be	-2.5736e-41
245	0x290d0c64	3.1319036e-14
246	0xb7d7e3a6	-2.5736004e-05
247	0x3cb1edd4	0.02171985
248	0x38035596	3.1312542e-05
249	0x3d7b4380	0.06134367
250	0x3c6ce230	0.014458224
251	0x2f97da05	2.7621652e-10
252	0x3cfa4adf	0.03055328
253	0xb86d5f01	-5.6593683e-05
254	0x8e7f74e4	-3.1487457e-30
255	0x35486a83	7.46608e-07

0.output_layer.bias f4 [21]
0	0x3ca4d24d	0.02011981
1	0x3bd85c01	0.0066027646
2	0x3c10b7e0	0.008832902
3	0xbd1ab7fa	-0.03777311
4	0xbc3326f7	-0.010934583
5	0xba7db057	-0.0009677461
6	0xbdc0c3e7	-0.094123654
7	0x3e5286d7	0.2055925
8	0xbd6a9cff	-0.05727863
9	0xbd8238a5	-0.0635846
10	0xbbc0e7f4	-0.005887026
11	0xbd6b7cac	-0.057491943
12	0xbf63336a	-0.88750327
13	0x3dcf96c3	0.101361774
14	0xbe306509	-0.17226042
15	0xbce3baad	-0.027798975
16	0x3df2291d	0.11824248
17	0x3c20903a	0.009800011
18	0xbb97cf2e	-0.004632852
19	0x3cc9d079	0.02463554
20	0x3da31417	0.07962816

1.linears.0.weight f4 [30, 21]
0	0x3c8867e5	0.016651103
1	0x39c914be	0.00038353162
2	0x3be52373	0.0069927513
3	0x3bcb78ae	0.0062094545
4	0x3a0ad531	0.000529605
5	0x3ba42c26	0.0050101457
6	0x3d0d913e	0.034562342
7	0xbc4ca952	-0.012491541
8	0xbc26e56a	-0.0101865325
9	0x3f1da604	0.61581445
10	0xba01599e	-0.00049343135
11	0x3caeefe8	0.02135463
12	0xbf8523bb	-1.0401529
13	0xbc6894d3	-0.014195639
14	0x3de4b5f2	0.11167516
15	0x3b803e25	0.003913658
16	0xbc038e47	-0.008029527
17	0xbab39c6e	-0.0013703236
18	0xbb6aab3e	-0.0035807635
19	0xba857348	-0.0010181451
20	0xbbd8fdd7	-0.006622057
21	0x39983413	0.00029030498
22	0x38439d3a	4.663805e-05
23	0xb78c8d8c	-1.6755213e-05
24	0xb82be6fe	-4.0984705e-05
25	0xb89dd67b	-7.5262935e-05
26	0x379307a1	1.7527318e-05
27	0x3a7465f2	0.00093230524
28	0x3c7cc3c8	0.015427537
29	0x38a817be	8.0152866e-05
30	0xbbfde307	-0.007748011
31	0x36665fc4	3.4328414e-06
32	0x39227041	0.00015491342
33	0xbba7b0b7	-0.0051175016
34	0xb96d41d0	-0.00022626598
35	0xbcece2aa	-0.028916676
36	0xba2eb68c	-0.0006664775
37	0xb975606e	-0.00023400944
38	0x374f57c8	1.23586e-05
39	0x3a2b093c	0.00065245084
40	0xb80bb12b	-3.3305183e-05
41	0xb892738e	-6.983346e-05
42	0xbb8e3722	-0.0043400684
43	0x3a35a88e	0.00069297187
44	0x3a9f22d5	0.0012141118
45	0x39ff1a39	0.00048656928
46	0xb9a2cb73	-0.0003105063
47	0x3a390e18	0.000705929
48	0x3b768125	0.0037613597
49	0x3ce0afad	0.027427519
50	0xbb0b5de2	-0.0021265675
51	0xbbaf645f	-0.0053525413
52	0x37bc0ef7	2.2418315e-05
53	0xba922167	-0.0011148871
54	0xba39cf8f	-0.00070881186
55	0xb9876354	-0.00025823212
56	0xbbd7777b	-0.0065755225
57	0xb9975bb9	-0.00028869303
58	0x3aa2bea7	0.0012416438
59	0xba8f9830	-0.001095539
60	0x3ab8f2c9	0.0014110442
61	0x391ca488	0.00014938612
62	0x3a2d5837	0.00066125713
63	0xbd4b09e6	-0.049569987
64	0xbb331643	-0.0027326501
65	0x3b8561da	0.0040705027
66	0x3b5303db	0.0032198343
67	0xba318120	-0.0006771255
68	0x3c22205d	0.009895411
69	0x3cf1b02e	0.029502954
70	0x3ebed277	0.37269947
71	0xbc2bab39	-0.010477834
72	0xbdd3fc31	-0.10350836
73	0x3b065256	0.0020495853
74	0x3c2b021f	0.010437517
75	0xbd4528f1	-0.048134748
76	0x3c8820d9	0.016617225
77	0xbef2eee8	-0.47447896
78	0xba8e39bc	-0.0010850946
79	0x3bb7f2fc	0.005613683
80	0xbc187029	-0.009304085
81	0xbb7ff505	-0.0039055955
82	0x3adc4df0	0.0016807895
83	0x39a5dc59	0.00031635424
84	0x380acf90	3.309507e-05
85	0xb9b60ffa	-0.0003472565
86	0x3b827a1b	0.0039818413
87	0x3c72c29d	0.014816907
88	0x39201d7f	0.00015269777
89	0x3b41b734	0.002955866
90	0x3d78c9be	0.06073927
91	0x3e2ccc1b	0.16874735
92	0xbb536581	-0.0032256546
93	0xbda8196b	-0.08207973
94	0x3b5c17c4	0.0033583501
95	0x3c7e0f70	0.01550661
96	0xbd0d1071	-0.034439508
97	0xbca05e1f	-0.01957613
98	0xbe39ba51	-0.1813748
99	0x3b761cbe	0.0037553753
100	0xbcffcdf5	-0.031226138
101	0xbbfd34bd	-0.007727234
102	0xbc137017	-0.008998892
103	0xb6f03b08	-7.1594295e-06
104	0xbcca7257	-0.024712725
105	0xbc86910d	-0.016426587
106	0xbbe178ea	-0.006880869
107	0x3ba8785a	0.0051413
108	0x3cbfde5d	0.02342146
109	0x3bc17c03	0.005904676
110	0x3c23e3d4	0.010003049
111	0x3dcfdffc	0.101501435
112	0x3d8c0518	0.06836909
113	0xbc34b9cc	-0.011030626
114	0xbd70d800	-0.058799744
115	0x3c3fd245	0.011707847
116	0x3cbc4c16	0.0229855
117	0xbce8b9a8	-0.02840884
118	0xbcbccfe4	-0.023048349
119	0xbd4ad9d5	-0.049524147
120	0x3b719aa8	0.0036865864
121	0xbdcdde27	-0.10052138
122	0xbc538c9b	-0.012911941
123	0xbca23777	-0.019801838
124	0xbb915a5d	-0.004435821
125	0xbd628dc7	-0.05531099
126	0xbd3a22d0	-0.045443356
127	0xbc0a820e	-0.008453859
128	0x3c44efe0	0.012020081
129	0x3c9719ff	0.018445013
130	0x3afe2164	0.0019388613
131	0x3c294fbd	0.0103339525
132	0x3d4bb69d	0.0497347
133	0x3d063b29	0.032771263
134	0xbc779b7e	-0.015112756
135	0xbcffc627	-0.031222416
136	0x3c246a2a	0.010035077
137	0x3ce77fa3	0.028259104
138	0x3c80d69a	0.01572733
139	0xbcb0bc01	-0.021574022
140	0xbe019e8e	-0.1265814
141	0xbb51b20c	-0.0031996993
142	0xbaa7cb78	-0.0012801727
143	0xbc92b50a	-0.017908592
144	0xbb845cda	-0.004039389
145	0xbaff2596	-0.0019466158
146	0xbb8d2b8b	-0.0043081692
147	0xbe549444	-0.20759684
148	0x3a81e324	0.0009909612
149	0x3bc86654	0.006115714
150	0x3e325087	0.17413531
151	0x3a94cdc2	0.0011352825
152	0x3d5b79c5	0.053582925
153	0x3f1599cb	0.58437794
154	0x3f645d8c	0.8920524
155	0xbb2219c1	-0.0024734589
156	0xbef0f7c0	-0.47064018
157	0x39cdbe5b	0.00039242473
158	0xbe540e12	-0.20708492
159	0xbf0e0e8b	-0.5549094
160	0xbc3e2b74	-0.01160704
161	0xbf8ea7e3	-1.1144985
162	0xbeba0cd0	-0.363379
163	0xbeac1ebd	-0.336172
164	0xbe8d8f4e	-0.27648395
165	0xbdf8caee	-0.12148081
166	0x3d42b19c	0.047532663
167	0xbebad8e2	-0.36493593
168	0xbd3331e1	-0.04374874
169	0x3b02035d	0.001983843
170	0xba8fdf31	-0.001097655
171	0x3b1e8fb2	0.0024194536
172	0x3b69a256	0.0035649738
173	0xb9ca086c	-0.00038534717
174	0x3cc056f5	0.023478964
175	0xbd8ed0fe	-0.06973456
176	0x3b97f399	0.0046371934
177	0xbf2ed67c	-0.6829603
178	0x3b4e23a5	0.0031454351
179	0x3c96af84	0.01839424
180	0x3f88f6bf	1.0700301
181	0xbc08d703	-0.008352044
182	0x3e796701	0.24355699
183	0x3b2ad076	0.0026064194
184	0xbbefa44c	-0.007313287
185	0x3a1d7c7e	0.00060076255
186	0x3bd59b26	0.0065187393
187	0xbb2f23b4	-0.0026724162
188	0xbbe0c86b	-0.006859829
189	0xbf219e78	-0.6313243
190	0xbb21755a	-0.0024636597
191	0xbb79f66a	-0.003814126
192	0xbb965c1c	-0.004588617
193	0x3a7be736	0.0009609343
194	0xbb927b7e	-0.004470288
195	0xbd138414	-0.03601463
196	0xbf1a673d	-0.6031378
197	0x3bb051ec	0.0053808596
198	0xbee7b162	-0.4525252
199	0x3a8ebfcc	0.00108909
200	0xbc119156	-0.008884748
201	0xbe98cb89	-0.29842785
202	0xbb40abc8	-0.0029399265
203	0xbdf40500	-0.11915016
204	0x3bb77899	0.005599093
205	0x3bcbe797	0.006222676
206	0x3b449db0	0.0030001216
207	0x3b017cce	0.0019758227
208	0x3973acde	0.00023238684
209	0x3ba8f682	0.005156339
210	0xba49c271	-0.00076965155
211	0xb708d746	-8.156354e-06
212	0x3852e513	5.0281244e-05
213	0xb7c65ad8	-2.3645742e-05
214	0xb66288bc	-3.3756214e-06
215	0xb83b5b1e	-4.4669134e-05
216	0x39517fa1	0.00019979339
217	0x3ac47fb7	0.0014991675
218	0x38771099	5.8904847e-05
219	0xbaf1f661	-0.0018460267
220	0xb7e62530	-2.7435453e-05
221	0xb96c70a1	-0.00022548671
222	0xbac3abcf	-0.0014928522
223	0x388ad31f	6.619677e-05
224	0xbb4b8aa7	-0.0031057985
225	0xb832ce31	-4.2630538e-05
226	0x38c55671	9.409793e-05
227	0xb84891f7	-4.7819656e-05
228	0x37aa9a15	2.033733e-05
229	0x37735934	1.4504698e-05
230	0x38d9bd3b	0.00010382613
231	0xbdf88563	-0.121348165
232	0xbacb341a	-0.0015503198
233	0x3ba6a510	0.005085595
234	0x3b3467b8	0.0027527642
235	0x36cb9072	6.066687e-06
236	0x3b2947f6	0.0025830246
237	0x3ceacc57	0.02866189
238	0x3e3af128	0.18256056
239	0xba36d6f7	-0.0006974781
240	0xbd4b21c9	-0.049592767
241	0x3b458961	0.0030141699
242	0x3c227bf8	0.009917252
243	0x3c5d5636	0.013509324
244	0xbb67547c	-0.003529816
245	0xbe92d7f6	-0.2868039
246	0x3abc22db	0.001435365
247	0xbbbb9c41	-0.005725414
248	0xbb460f53	-0.0030221536
249	0x3adb8d95	0.0016750569
250	0xbba7be75	-0.00511914
251	0xbba61d89	-0.005069439
252	0x3c3013c4	0.0107469
253	0xbba1581e	-0.0049238345
254	0x3ca81a7c	0.020520441
255	0x3c8c9fec	0.0171661

1.linears.0.bias f4 [30]
0	0x3ed2c9a8	0.41169477
1	0xbc79b6b3	-0.015241313
2	0xbcc125ee	-0.023577657
3	0xbe5c4fb4	-0.2151478
4	0xbe87a8ec	-0.26496065
5	0xbdb30c97	-0.08742636
6	0xbe6f3c36	-0.23362812
7	0xbf850e18	-1.0394926
8	0xbf32f3ed	-0.6990345
9	0xbe5ab156	-0.21356711
10	0xbb3de5fb	-0.002897619
11	0xbde4e708	-0.11176878
12	0xbf05dac3	-0.5228693
13	0xbdb81300	-0.08987999
14	0x3fb2b191	1.3960439
15	0xbec69e50	-0.38792658
16	0xbd0f8f36	-0.035048686
17	0xbf153d8f	-0.58297056
18	0xb3cc7ceb	-9.522213e-08
19	0xbe9c877f	-0.30572125
20	0xbcc81bb0	-0.024427265
21	0xbbdba1d5	-0.0067026415
22	0xbdac83d3	-0.08423581
23	0xbe6f3db8	-0.23363388
24	0xbec21a2e	-0.379106
25	0xbd8b07f2	-0.06788625
26	0x3e35c8d6	0.17752394
27	0x3e0afbc2	0.135726
28	0xbf7b5507	-0.98176616
29	0xbeb63477	-0.35586902

1.linears.1.weight f4 [30, 30]
0	0xbe7ba1ed	-0.24573489
1	0xb6d8be4f	-6.4594565e-06
2	0x3a4be6b2	0.0007778212
3	0x2f801054	2.3294666e-10
4	0xbacf664f	-0.0015823337
5	0x38adafa4	8.2819985e-05
6	0x36b4042f	5.364905e-06
7	0x1a0cfffe	2.915811e-23
8	0xbdc6ca13	-0.09706511
9	0xbf940c1d	-1.1566197
10	0xb6bfc12c	-5.7147317e-06
11	0x3b156aee	0.002279933
12	0x0000cb78	7.2991e-41
13	0x171cd348	5.0672993e-25
14	0xbf8ae636	-1.0851505
15	0x3ab85ecc	0.0014066338
16	0x986aa879	-3.0328848e-24
17	0x8000cc93	-7.3387e-41
18	0x0fd8adf1	2.1366244e-29
19	0xb7900c72	-1.7171933e-05
20	0x379d272e	1.8734103e-05
21	0x0001e787	1.74892e-40
22	0xbdcb5fba	-0.09930368
23	0x00013baf	1.13246e-40
24	0xbbdfe0af	-0.0068322043
25	0xb85a8390	-5.2097777e-05
26	0xbe7ac26a	-0.24488226
27	0x3c74692f	0.014917656
28	0xb7903d75	-1.7194756e-05
29	0x00015a2a	1.2418e-40
30	0xb110f861	-2.1095945e-09
31	0x8000d9b3	-7.8096e-41
32	0x00060cfb	5.5567e-40
33	0x8000c4fd	-7.0666e-41
34	0x800051e0	-2.9371e-41
35	0x8001d1b4	-1.67063e-40
36	0x8001abd0	-1.5347e-40
37	0x0000af8e	6.2977e-41
38	0x80020fc9	-1.89334e-40
39	0xb994c54b	-0.00028375754
40	0x00020365	1.84889e-40
41	0x800083db	-4.7301e-41
42	0x000022c1	1.2467e-41
43	0x00002090	1.1681e-41
44	0xb99cd334	-0.00029911997
45	0x00010cc3	9.6414e-41
46	0x000058fc	3.1922e-41
47	0x000c159d	1.10978e-39
48	0x80011809	-1.00458e-40
49	0x00008431	4.7421e-41
50	0x80005596	-3.0702e-41
51	0x8004b4a0	-4.32138e-40
52	0x00014bfe	1.19096e-40
53	0x0001e3d2	1.73562e-40
54	0x00010f48	9.7317e-41
55	0x80002ef8	-1.6849e-41
56	0xba833fe0	-0.0010013543
57	0x80003eff	-2.2599e-41
58	0x80010c98	-9.6353e-41
59	0x8001edb5	-1.77109e-40
60	0xb52f806f	-6.5379476e-07
61	0x00068067	5.97075e-40
62	0x0001e582	1.74167e-40
63	0x00dcbd48	2.027171e-38
64	0x8001f7b3	-1.80693e-40
65	0x000f0603	1.379689e-39
66	0x8001a2f9	-1.50299e-40
67	0x80006a95	-3.8234e-41
68	0xa85edbb6	-1.2371118e-14
69	0x8000e203	-8.1078e-41
70	0x80002f9b	-1.7078e-41
71	0x8002e50f	-2.65842e-40
72	0x0000e9e4	8.3904e-41
73	0x0000c420	7.0356e-41
74	0xab4d1aec	-7.286799e-13
75	0x8000d170	-7.5132e-41
76	0x001775ad	2.15443e-39
77	0x0000b8a7	6.6241e-41
78	0x0019631c	2.331441e-39
79	0x8000a0af	-5.7642e-41
80	0x80049ed2	-4.24316e-40
81	0x8000152f	-7.599e-42
82	0x80009f14	-5.7066e-41
83	0x0005156a	4.6686e-40
84	0xaa706f6e	-2.1354942e-13
85	0x803678cd	-5.002452e-39
86	0xb899e5cb	-7.338411e-05
87	0xac527cd5	-2.991209e-12
88	0x158515a6	5.375243e-26
89	0x80046b25	-4.05778e-40
90	0xadbf70ef	-2.1764339e-11
91	0x0001a09b	1.4945e-40
92	0x00009db1	5.6569e-41
93	0x8001ee3d	-1.77299e-40
94	0x8000b5ba	-6.5191e-41
95	0x00018e98	1.42988e-40
96	0x8000a167	-5.79e-41
97	0x8000a1dc	-5.8064e-41
98	0x0001cabb	1.64561e-40
99	0x059bf3d8	1.4665704e-35
100	0x00005351	2.9888e-41
101	0x80019b15	-1.47468e-40
102	0x0000327b	1.8109e-41
103	0x80006c09	-3.8756e-41
104	0xb2b48954	-2.1017208e-08
105	0x0001e5b7	1.74242e-40
106	0x0001ec92	1.76701e-40
107	0x000015d2	7.828e-42
108	0x80011ef9	-1.02946e-40
109	0x0001a97d	1.52636e-40
110	0x0001668c	1.28622e-40
111	0x8001ea29	-1.75836e-40
112	0x00015812	1.23429e-40
113	0x8001e0e3	-1.7251e-40
114	0x80006164	-3.4937e-41
115	0x00017990	1.35444e-40
116	0x9bf9495e	-4.1241007e-22
117	0x80eb4215	-2.1605047e-38
118	0x0001819a	1.38328e-40
119	0x000161f6	1.26977e-40
120	0xbf042a60	-0.5162716
121	0x2e4d396f	4.6662615e-11
122	0xae944840	-6.743095e-11
123	0xb9ebdec8	-0.00044988678
124	0x2d40edf8	1.0966776e-11
125	0xb09c9c82	-1.1394976e-09
126	0x80198802	-2.344678e-39
127	0x90eaf7c2	-9.267846e-29
128	0xbd0fd123	-0.035111558
129	0xbf210282	-0.6289445
130	0x00982e1a	1.3975534e-38
131	0x0e237469	2.014735e-30
132	0xaa23e245	-1.4555811e-13
133	0x2e25f1c4	3.7731387e-11
134	0xbf6cafab	-0.9245555
135	0x12800117	8.078204e-28
136	0x0eace537	4.2622e-30
137	0x306fa8da	8.7187646e-10
138	0xa0924c28	-2.4783758e-19
139	0x161d6174	1.271311e-25
140	0x30395e57	6.7436673e-10
141	0x8f43ba2d	-9.6500984e-30
142	0xb1e33295	-6.61232e-09
143	0x8ed2afa0	-5.1938118e-30
144	0xbc76dffe	-0.015068052
145	0x310d7521	2.058478e-09
146	0xbf60143a	-0.87530863
147	0xbeb43dc0	-0.35203362
148	0xb0d0c50e	-1.5189998e-09
149	0xabeb09c0	-1.670046e-12
150	0xb4926f94	-2.7275803e-07
151	0x80014cb9	-1.19358e-40
152	0x8000fe28	-9.1174e-41
153	0x000204fc	1.85459e-40
154	0x00002563	1.3412e-41
155	0x0002118e	1.89968e-40
156	0x000097eb	5.4498e-41
157	0x000027d6	1.429e-41
158	0x8000ea6c	-8.4095e-41
159	0xa402de05	-2.8377314e-17
160	0x0001e7ea	1.7503e-40
161	0x00002ab6	1.5322e-41
162	0x80000f40	-5.47e-42
163	0x801f226f	-2.859253e-39
164	0xb6a7e050	-5.0031013e-06
165	0x800182e8	-1.38796e-40
166	0x00007f98	4.5772e-41
167	0x80016b95	-1.30429e-40
168	0x800d9c05	-1.249831e-39
169	0x0000b376	6.4378e-41
170	0x80001e49	-1.0864e-41
171	0x80007841	-4.3139e-41
172	0x80000d97	-4.875e-42
173	0x80022d27	-1.99869e-40
174	0x80017c15	-1.36348e-40
175	0x00018dd7	1.42718e-40
176	0xb7b1f7ea	-2.1215488e-05
177	0x00001ec5	1.1038e-41
178	0x80093dfa	-8.48752e-40
179	0x00013d05	1.13725e-40
180	0xb8050b56	-3.172023e-05
181	0xb03c0a63	-6.840876e-10
182	0x952df7b1	-3.5132466e-26
183	0x9914c01a	-7.690215e-24
184	0x2e83c487	5.9921006e-11
185	0x1b078980	1.1211367e-22
186	0x1901da62	6.713246e-24
187	0x8001fbe7	-1.82201e-40
188	0xbc2ba1ef	-0.01047562
189	0x2e44c1da	4.4737415e-11
190	0x979481b6	-9.597019e-25
191	0x97b41944	-1.1638605e-24
192	0x80010c92	-9.6345e-41
193	0x1e0f46db	7.5850095e-21
194	0xb899cd94	-7.3339004e-05
195	0x9e34cd26	-9.571544e-21
196	0x2123fa3d	5.5557736e-19
197	0x93802ef4	-3.2358042e-27
198	0x9c75f082	-8.137455e-22
199	0x122aafd4	5.3859266e-28
200	0x2f871cf4	2.457693e-10
201	0x12dbeac3	1.3878716e-27
202	0xb8207853	-3.8259033e-05
203	0x91e13167	-3.5529187e-28
204	0xadc2a777	-2.2129616e-11
205	0x25ab912a	2.9762138e-16
206	0xb60d0e51	-2.101897e-06
207	0xaf679183	-2.1061024e-10
208	0xa8cad1f6	-2.2517561e-14
209	0x945453ee	-1.0719817e-26
210	0x80001c87	-1.0234e-41
211	0x0000bfd5	6.8816e-41
212	0x0000d138	7.5054e-41
213	0x8013a86a	-1.80529e-39
214	0x00005247	2.9516e-41
215	0x8001ab25	-1.5323e-40
216	0x800026e8	-1.3957e-41
217	0x00013c6c	1.13511e-40
218	0x00009c5a	5.6088e-41
219	0x80000b77	-4.113e-42
220	0x800148c6	-1.17942e-40
221	0x80012b80	-1.0744e-40
222	0x000ad2e0	9.94003e-40
223	0x0001a1e7	1.49915e-40
224	0x8a0b8ab2	-6.718692e-33
225	0x8000774a	-4.2793e-41
226	0x00008095	4.6127e-41
227	0x00010949	9.5166e-41
228	0x00006088	3.4629e-41
229	0x8000790a	-4.342e-41
230	0x000234e4	2.02645e-40
231	0x8001eadc	-1.76087e-40
232	0x8000b0f0	-6.3473e-41
233	0x00011eaf	1.02843e-40
234	0xae08ec8f	-3.1132926e-11
235	0x8000494f	-2.6298e-41
236	0xb8c44440	-9.358721e-05
237	0x988bc2f3	-3.6127506e-24
238	0x80014af6	-1.18726e-40
239	0x0000ef8b	8.5932e-41
240	0xb9f7ae30	-0.0004724129
241	0x17de25de	1.4355973e-24
242	0x11aef87a	2.7605495e-28
243	0x0001a927	1.52516e-40
244	0x10b4a6a4	7.125423e-29
245	0x000012d0	6.749e-42
246	0x8000206e	-1.1634e-41
247	0x0c18dd06	1.1776166e-31
248	0x23812069	1.3999934e-17
249	0xb6189871	-2.2738498e-06
250	0x9a2133ce	-3.3335867e-23
251	0x80017be7	-1.36283e-40
252	0x0000f528	8.7945e-41
253	0x193988f1	9.591931e-24
254	0xbd332658	-0.04373774
255	0x9bbe280b	-3.145874e-22

1.linears.1.bias f4 [30]
0	0xbea6adb4	-0.325544
1	0xab92492d	-1.0394234e-12
2	0xab96c842	-1.0713724e-12
3	0x9c0addfe	-4.594729e-22
4	0xbe8db97c	-0.27680576
5	0xa1aa402a	-1.1536632e-18
6	0x3250e9fc	1.2160395e-08
7	0x994f79cd	-1.0726247e-23
8	0xb9a1dca8	-0.00030872715
9	0xbcd43e96	-0.02590875
10	0x3f7bd260	0.9836788
11	0x3db31c8c	0.08745679
12	0xbc7cf031	-0.0154381255
13	0x3f0af73b	0.54283494
14	0xae04499d	-3.0078707e-11
15	0x9cabc363	-1.1366337e-21
16	0xa598ff48	-2.6540782e-16
17	0xba9ad837	-0.0011813705
18	0xba375627	-0.00069937337
19	0xb801abc3	-3.0915962e-05
20	0xba764a06	-0.00093951856
21	0x3d862b3d	0.06551216
22	0xbe1729d1	-0.14762045
23	0xb623daca	-2.4416245e-06
24	0xbcc12732	-0.02357826
25	0xb93788af	-0.00017503159
26	0x3f3898bb	0.7210805
27	0x3d46fb77	0.04857966
28	0x9fed407b	-1.0048008e-19
29	0xb680c301	-3.8373987e-06
