data/MTMR_28002/real/uniform/N5/D5/dual/result/model/Two_ReLuNet_DT_MLSE4POL.pt (torch_old, 25290 bytes, 16 tensors)

0.linears.0.weight f4 [30, 5]
-0.56226337 -0.051608194 0.020800289 0.033624772 0.007976247 -0.026395772 -0.0031990635 0.55734044
-0.031633012 0.24217552 0.39125893 0.080976546 -0.03812972 0.0053175334 -0.021342702 -0.013519546
-0.016476415 -0.79762846 0.66373837 -0.05694835 1.1049828e-26 5.50314e-26 -3.4771475e-13 -4.4739987e-26
-3.372047e-19 -0.059714988 -0.039566197 -0.014309656 0.007837614 0.0051061246 0.0016981685 0.011496235
-0.39702767 -0.3699122 -0.001397471 0.015296986 -0.019331805 -0.99901605 -0.011798215 0.3125404
0.9736394 -0.37413776 -0.031896833 0.016665686 -0.011499411 -0.36145756 -0.40357575 -0.07030734
0.053908356 0.022860844 -0.064270675 -0.04902825 0.2068182 0.33964354 -0.040842943 0.031579874
0.0238064 -0.037591934 0.017470904 -0.006905606 -0.07465285 -0.046451252 0.5289209 -0.03163471
-0.0483663 0.004603553 0.010462241 -0.8269083 -0.042268466 -0.30509087 -0.008765902 0.030636033
0.3716775 1.0476626 0.05100531 0.70601577 0.8337464 0.01133305 -0.011451727 -0.0024489658
0.027178874 0.042705525 -0.45423576 0.40326133 0.051725697 -0.006765425 0.0031384304 0.8098635
-0.76898205 0.029588003 0.01652978 0.0021982186 0.4349147 -0.3532214 0.04245172 0.002557943
-1.25279275e-05 5.483943e-07 8.6855206e-10 -7.028267e-10 0.15228829 0.13771519 -0.132059 0.19738665
-0.047448926 -0.8630483 0.31018233 0.027085643 -0.012529657 -0.0091448985 0.32069263 0.005130521
-0.028302737 0.01229349 -0.0008679554 -0.024481036 -0.048235618 0.5488795 0.11574312 -0.43743008
-0.010748587 0.0065583456 1.0662886 0.1173711 0.024412796 -0.026680848 -0.027655847 -0.5665901
-0.8956121 -0.07253645 0.23007472 0.31744722 -0.06077452 -0.016662247 -0.02363711 0.14075729
0.096786566 0.011547834 -0.4131825 -0.018682318 -0.7110165 -0.8251326 -0.008258299 0.031478886
-0.0009734784 0.12203349 0.14062303 0.13416551 0.3556667 0.0062262765
00000000: 7ef0 0fbf 1d63 53bd 5e65 aa3c 21ba 093d
00000010: ceae 023c f23b d8bc 61a7 51bb ddad 0e3f
00000020: 9e91 01bd dcfc 773e 1753 c83e 08d7 a53d
00000030: e92d 1cbd b43e ae3b e4d6 aebc 1681 5dbc
00000040: 8cf9 86bc 6131 4cbf c2ea 293f ac42 69bd
00000050: 49dd 5a14 4b40 8815 fabe c3aa ac8a 5d95
00000060: ef0c c7a0 b497 74bd 2a10 22bd 0c73 6abc
00000070: 5669 003c 4751 a73b 1495 de3a b45a 3c3c
00000080: 3647 cbbe 2265 bdbe 582b b7ba 36a0 7a3c
00000090: bc5d 9ebc 84bf 7fbf 4d4d 41bc 4c05 a03e
000000a0: 6f40 793f fc8e bfbe 41a6 02bd 7a86 883c
000000b0: 0768 3cbc f710 b9be 7ba1 cebe 4bfd 8fbd
000000c0: 02cf 5c3d aa46 bb3c 58a0 83bd d9d1 48bd
000000d0: 26c8 533e c2e5 ad3e ee4a 27bd e659 013d
000000e0: a405 c33c 00fa 19bd 241f 8f3c 6c48 e2bb
000000f0: 98e3 98bd ab43 3ebd 5c67 073f 6693 01bd
00000100: be1b 46bd 67d9 963b d269 2b3c 43b0 53bf
00000110: b321 2dbd df34 9cbe dc9e 0fbc 6bf8 fa3c
00000120: 834c be3e cf19 863f f2ea 503d 73bd 343f
00000130: 6770 553f 42ae 393c 06a0 3bbc d47e 20bb
00000140: 3ba6 de3c fdeb 2e3d 9791 e8be 4578 ce3e
00000150: 53de 533d 80b0 ddbb 20ae 4d3b 3753 4f3f
00000160: 02dc 44bf 8a62 f23c 7669 873c fd0f 103b
00000170: 24ad de3e 6fd9 b4be dbe1 2d3d 2aa3 273b
00000180: 0a2f 52b7 5f35 1335 ebbe 6e30 0831 41b0
00000190: 76f1 1b3e 3605 0d3e 793a 07be ba1f 4a3e
000001a0: ce59 42bd bcf0 5cbf 38d0 9e3e b6e2 dd3c
000001b0: 3149 4dbc 7cd4 15bc d331 a43e ee1d a83b
000001c0: 24db e7bc a26a 493c 8087 63ba 748c c8bc
000001d0: b692 45bd 5e83 0c3f bb0a ed3d d6f6 dfbe
000001e0: d71a 30bc 64e7 d63b 257c 883f 4260 f03d
000001f0: 58fd c73c cb91 dabc 848e e2bc 0c0c 11bf
00000200: d646 65bf fe8d 94bd b598 6b3e 7188 a23e
00000210: b4ee 78bd 447f 88bc 9da2 c1bc ae22 103e
00000220: 0938 c63d 2033 3d3c a88c d3be a90b 99bc
00000230: 2d05 36bf e43b 53bf d14d 07bc 01f0 003d
00000240: 0831 7fba b2ec f93d 7cff 0f3e af62 093e
00000250: f219 b63e cb05 cc3b

0.linears.0.bias f4 [30]
-0.34210178 -0.4257832 -0.30376047 0.1399605 -1.2535851e-11 -0.08933464 -0.35658464 0.03889742
0.05635022 -0.494124 -0.26360852 -0.05040987 -0.32976434 0.08665708 0.33021268 -0.0742201
-0.51323324 -0.06692696 -0.37918788 -0.006209989 -0.3056115 -0.030132994 -0.25453067 0.07057738
-0.20529434 0.017796954 -0.41244268 -0.3637619 0.10325469 -0.2563451
00000000: f727 afbe 4100 dabe 7e86 9bbe ce51 0f3e
00000010: 7488 5cad 14f5 b6bd 4392 b6be e752 1f3d
00000020: 7dcf 663d d2fd fcbe b2f7 86be 947a 4ebd
00000030: dfd6 a8be 4479 b13d a311 a93e b500 98bd
00000040: 4163 03bf 0111 89bd ea24 c2be 2a7d cbbb
00000050: 1c79 9cbe 78d9 f6bc d851 82be e08a 903d
00000060: ae38 52be ebca 913c b02b d3be 003f babe
00000070: 3277 d33d aa3f 83be

0.linears.1.weight f4 [30, 30]
-7.7499457e-10 1.9231635e-12 9.18415e-11 -1.5292745e-09 -1.0352196e-36 3.792509e-11 1.772279e-09 -3.6055032e-09
-7.245966e-10 -2.60889e-10 -3.480164e-13 3.0073683e-11 5.7695347e-13 -2.7193328e-09 -2.6282644e-11 -7.74172e-10
-3.3110712e-11 -2.421742e-10 2.5269504e-12 1.2077128e-14 -2.5244213e-11 -1.5713807e-09 -2.2824016e-10 -5.832109e-11
-1.9009646e-12 -3.867905e-09 8.2100805e-11 1.9668195e-10 -1.2506953e-09 -1.6343362e-12 -0.05564651 -0.37448946
0.007801364 -0.47113797 5.215153e-27 0.0078944545 -0.09039942 0.077164635 0.031413436 0.054569382
-0.20861019 -0.008790312 -0.06388194 -0.41080955 -0.3274608 0.023428956 -0.0940352 -0.24704732
-0.39386237 9.0275853e-10 -0.08580778 0.063984334 -0.014125724 0.23840915 -0.12363543 -0.253357
0.008084574 -0.06148411 -0.0069201207 -0.092252314 -0.02401515 0.05131718 0.08676629 0.32902166
-2.5587869e-27 0.0033677176 -0.04465425 0.021786489 0.0034045603 0.04976941 0.06415429 0.0039205127
0.040267084 -0.05564608 0.3015904 0.13759282 0.32807577 0.22131208 0.1070826 -1.2148593e-09
0.123296276 -0.06512458 0.069994435 0.0057365512 -0.001736637 -0.05971784 0.05438501 0.106387675
-0.17041191 0.23552862 -0.13692543 -0.026964106 0.17884304 -0.00709234 -6.6573093e-26 -0.00036993605
0.036392227 -0.022946231 0.0022534435 -0.00037744796 0.0010288449 0.041069433 -0.14007933 0.04953154
0.118510395 1.0617113 -0.02385902 0.06934089 0.07797367 3.4570057e-05 0.21348701 -0.010694778
0.10244802 -0.014188983 -0.014556203 0.029573249 0.31846356 0.31994322 -0.37788817 0.15782313
0.0176299 0.18079768 -0.057262763 -0.49293372 -1.6739155e-27 -0.020278214 -0.11832918 -0.21317042
0.006334779 -0.09439318 0.082456954 -0.0017103835 0.17427725 -0.1439898 0.39275685 0.002010514
-0.03132422 0.5727961 0.21902862 -1.5581747e-10 0.034692362 0.028405523 -0.026460536 0.14970428
0.67466605 -0.20632471 -0.0870854 -0.08316389 0.050479632 0.2495001 -0.027322747 0.07315302
0.008577468 0.5139019 -8.315391e-27 0.006348776 -0.14611486 0.64027923 -0.000106903724 0.03617373
0.07052042 0.010728711 0.024914807 0.06893958 0.007409326 0.11752493 0.38776013 -0.053376466
-0.040654343 4.3716683e-10 0.06275779 0.01641443 -0.0035261689 -0.19952719 -0.0060212538 -0.4881123
0.034356367 0.018341048 -0.05336326 -0.11147709 -3.2220094e-35 -2.2054214e-35 -3.3187672e-35 -5.1189995e-30
6.3288226e-35 8.727732e-35 1.0650695e-34 9.271876e-31 1.497987e-34 -9.21477e-35 6.746927e-36 2.2275942e-35
-3.0756698e-36 -3.9659748e-28 -8.1089664e-35 -1.6129175e-34 -2.8371205e-35 5.932433e-35 -1.7146354e-35 -3.871184e-35
-2.9601508e-35 5.790682e-34 -3.8792749e-35 -1.2162271e-34 -3.5739172e-35 4.5310142e-33 3.8913857e-35 -5.3655067e-35
2.2433214e-32 -3.969397e-35 0.002017386 0.018030677 0.029464234 -0.058640517 1.1345378e-27 0.0009992333
0.0151112 -0.05554403 -0.11249214 -0.0062131616 0.0053046253 0.00021558983 0.0036782867 -0.05510596
-0.061142787 -0.07627671 0.020209247 -0.044414744 0.014648826 9.939374e-12 0.00019344036 -0.013399616
0.018663222 -0.011672673 -0.02027998 -0.050734155 0.010592153 0.0112442495 -0.01632341 0.0070707873
-3.8750903e-05 3.3620472e-07 -7.0889446e-06 -0.00018388608 7.0156293e-28 6.899723e-06 -8.62002e-06 -0.00016145832
-0.00010213599 7.750621e-06 2.1020605e-05 2.083509e-07 1.8282235e-06 -0.0001365861 -0.00017326011 -4.6726418e-05
00000000: 6507 55b0 a254 072c 2bf6 c92e 902e d2b0
00000010: 2c22 b083 dbcb 262e 8694 f330 afc4 77b1
00000020: f42c 47b0 dd6c 8faf 73ea c3aa f543 042e
00000030: e165 222b 02df 3ab1 412f e7ad 83cd 54b0
00000040: 599f 11ae fd22 85af 7ed1 312c ec8f 5928
00000050: ea0c dead 0bf8 d7b0 e5f3 7aaf db3f 80ae
00000060: bcc4 05ac 74e6 84b1 a58a b42e 0c41 582f
00000070: eee4 abb0 2b03 e6ab 98ed 63bd 15bd bfbe
00000080: 96a2 ff3b ff38 f1be ef97 ce13 be57 013c
00000090: 5523 b9bd 7e08 9e3d 60ab 003d 2584 5f3d
000000a0: e99d 55be 3e05 10bc 89d4 82bd a155 d2be
000000b0: f1a8 a7be 15ee bf3c 8795 c0bd f9f9 7cbe
000000c0: 54a8 c9be fc25 7830 fdbb afbd 380a 833d
000000d0: 956f 67bc 8721 743e 9334 fdbd 02b8 81be
000000e0: 2975 043c c3d6 7bbd 2ec2 e2bb c8ee bcbd
000000f0: 6bbb c4bc f731 523d 86b2 b13d 8775 a83e
00000100: 5dba 4a93 edb4 5c3b 60e7 36bd 9479 b23c
00000110: 0b1f 5f3b 02db 4b3d 5363 833d a577 803b
00000120: 19ef 243d 25ed 63bd 0f6a 9a3e 22e5 0c3e
00000130: 8cf9 a73e a29f 623e 1f4e db3d 10f8 a6b0
00000140: c282 fc3d 0960 85bd 3e59 8f3d aef9 bb3b
00000150: de9f e3ba b29a 74bd d1c2 5e3d c8e1 d93d
00000160: 7680 2ebe 6a2e 713e 2e36 0cbe d4e3 dcbc
00000170: a122 373e dc66 e8bb b6d3 a495 faf3 c1b9
00000180: 0410 153d bcf9 bbbc 82ae 133b 35e4 c5b9
00000190: 4eda 863a 6c38 283d f570 0fbe 96e1 4a3d
000001a0: 94b5 f23d 28e6 873f fe73 c3bc 9902 8e3d
000001b0: a9b0 9f3d 51ff 1038 579c 5a3e 2639 2fbc
000001c0: 44d0 d13d e878 68bc 247d 6ebc 9943 f23c
000001d0: a80d a33e 99cf a33e 8f7a c1be 639c 213e
000001e0: 946c 903c 0723 393e 5c8c 6abd cf61 fcbe
000001f0: 0a9f 0493 7f1e a6bc 9256 f2bd 5949 5abe
00000200: fa93 cf3b 3651 c1bd 31df a83d f22e e0ba
00000210: bc75 323e 1072 13be 6d17 c93e d4c2 033b
00000220: d34d 00bd c4a2 123f 0a49 603e b852 2baf
00000230: 9419 0e3d b3b2 e83c c4c3 d8bc 144c 193e
00000240: eab6 2c3f c946 53be d559 b2bd d451 aabd
00000250: bbc3 4e3d f47c 7f3e f4d3 dfbc 40d1 953d
00000260: 8288 0c3c 138f 033f 0bb4 2494 6509 d03b
00000270: 229f 15be 57e9 233f 8031 e0b8 e82a 143d
00000280: 036d 903d 7ac7 2f3c 231a cc3c 3230 8d3d
00000290: eec9 f23b e9b0 f03d 7f88 c63e 48a1 5abd
000002a0: 2b85 26bd c355 f02f 2887 803d 8e77 863c
000002b0: 4c17 67bb db50 4cbe f04d c5bb dbe9 f9be
000002c0: 43b9 0c3d f73f 963c 6f93 5abd 1a4e e4bd
000002d0: b84f 2b86 4885 ea85 b874 3086 bba6 cf8e
000002e0: bc3f a806 de05 e806 7092 0d07 de71 960d
000002f0: db1d 4707 7af8 f486 c47d 0f05 e2e0 ec05
00000300: 14d3 8284 9f5f fb91 c492 d786 bd64 5687
00000310: e2d8 1686 0cb6 9d06 d154 b685 d4d3 4d86
00000320: 7c63 1d86 ad6d 4008 f441 4e86 10aa 2187
00000330: a405 3e86 0236 bc09 cce6 4e06 bfa3 8e86
00000340: b6f5 e80a a20c 5386 1f36 043b 12b5 933c
00000350: fa5e f13c 0a31 70bd 52c6 b312 b5f8 823a
00000360: f794 773c 2382 63bd 4762 e6bd c797 cbbb
00000370: 6cd2 ad3b f40f 6239 690f 713b cab6 61bd
00000380: dc70 7abd f736 9cbd dd8d a53c 3cec 35bd
00000390: a101 703c f6da 2e2d 40d6 4a39 108a 5bbc
000003a0: 9de3 983c bd3e 3fbc 3322 a6bc 9ece 4fbd
000003b0: b68a 2d3c cd39 383c acb8 85bc 10b2 e73b
000003c0: 7788 22b8 a07f b434 92dd edb6 8bd1 40b9
000003d0: 8c55 5e12 2b84 e736 b49e 10b7 234d 29b9
000003e0: d831 d6b8 aa08 0237 6855 b037 0fb7 5f34
000003f0: 4861 f535 8d38 0fb9 28ad 35b9 1cfc 43b8

0.linears.1.bias f4 [30]
-1.9782729e-09 1.0918843 -0.5533028 0.07373816 0.06658978 -0.21278636 -7.244269e-20 -0.1081794
-0.00017781637 0.50790554 -0.5389909 -0.0030716488 -6.3078005e-06 0.47853282 0.4423955 -3.9402534e-05
0.2548817 -0.054976404 -3.6093759e-06 -0.07977552 -0.02329557 -0.031894747 0.20963503 -2.2197244e-09
-0.23583162 -0.025614519 -0.0016300718 -0.08509305 -0.7112639 0.13752128
00000000: 25f2 07b1 ddc2 8b3f 41a5 0dbf 0804 973d
00000010: 3960 883d abe4 59be eb0c ab9f 298d ddbd
00000020: 3874 3ab9 1906 023f 4ffb 09bf b74d 49bb
00000030: 98a7 d3b6 4102 f53e aa81 e23e 2644 25b8
00000040: db7f 823e f02e 61bd 9b38 72b6 5961 a3bd
00000050: 5ad6 bebc 11a4 02bd 91aa 563e ce89 18b1
00000060: d87d 71be 8ad5 d1bc 22a8 d5ba 4445 aebd
00000070: 6415 36bf 61d2 0c3e

0.linears.2.weight f4 [30, 30]
-3.6660136e-10 -0.12772042 0.19430566 -0.21572965 -0.119998075 0.16099003 1.7757316e-35 0.0058170417
7.122191e-06 -0.20063597 0.22112325 0.0003231328 1.4218188e-07 -0.0905019 0.1348136 2.062989e-17
-0.014109803 0.012474003 1.0390016e-07 -0.015261627 -0.0019150297 0.5097657 -0.11114498 2.9123537e-10
-0.07367918 0.029845556 -0.0009510005 0.21570964 0.1674647 0.075398386 2.5588862e-10 -0.3753785
0.12405204 0.05002038 -0.19928715 0.005887187 6.6300916e-36 -0.02368307 8.902996e-06 0.3767684
-0.19250134 0.00015626139 5.617884e-07 0.22726834 0.057675704 6.939489e-17 0.017583795 0.0069876
2.2539874e-07 -0.18428588 0.007790451 -0.017999342 0.40449882 9.906125e-11 -0.04000231 -0.093906984
-7.879689e-05 0.4292618 -0.037356038 0.0043963124 5.1754906e-10 0.15308101 -0.036479972 0.2589386
-0.007025177 -0.042388234 -6.037526e-35 0.0101097785 0.00020516591 0.056551054 0.06871623 -0.0005216851
-5.4485236e-07 0.0807808 0.45047468 -1.8819582e-16 0.007953707 0.0069269524 -2.461287e-06 0.002894246
0.038938284 -0.0060365684 0.054132048 2.6050664e-10 1.0660276 -0.08417051 4.3750522e-05 0.0051491656
-0.07390753 -0.598178 7.0031586e-10 0.35781118 -0.2875009 0.012306739 -0.4157616 0.25829142
1.1967877e-34 0.007905491 -6.2905046e-06 0.7563992 -0.4019626 0.0006209352 2.373735e-06 -0.035759095
-0.045403816 1.2352537e-16 0.46481103 0.060500775 1.9658487e-06 -0.090707354 0.0011390628 -0.374583
-0.31759492 2.9205666e-12 0.011053719 0.08982238 0.0007662985 -0.07276307 0.15459141 -0.013953287
-2.7662736e-08 -0.08987464 -0.013236895 -0.020153314 -0.04739661 -0.058774266 -3.8885206e-10 -3.4986733e-05
-1.6757448e-07 -0.10695295 -0.0071327183 -2.6971753e-05 -1.1757708e-08 -0.052503332 -0.06933272 -7.4757934e-21
-0.022505503 2.4419824e-05 9.622241e-06 -0.0060124183 -5.933989e-07 -0.009635288 -0.042109042 -2.0186797e-11
-0.049034208 -0.09175015 0.0002762826 -0.119868115 -0.016084716 -0.09891221 4.5030102e-10 0.011443794
-0.16375579 -0.24907745 -0.3962089 0.23843098 -4.208349e-35 0.037515093 0.00013243008 -0.28047135
-0.03555423 -0.00036132787 -1.4249557e-06 -0.07475556 0.18625961 6.441431e-17 0.38410196 0.018293388
1.4966739e-07 -0.0010081357 -0.019012377 -0.08998587 -0.1504012 -1.61717e-10 -0.08167441 0.14880721
-0.00016864891 -0.28278545 0.018337429 0.10651105 -5.0438815e-12 0.65704113 -0.30825713 0.049463417
-0.08480863 -0.30274764 -3.0178317e-36 0.029586494 1.8827875e-05 -0.36831805 -0.53347385 -0.00018080378
-1.5192518e-06 0.3021948 0.011519717 -8.9218865e-18 -0.2143017 -0.0047512995 5.572286e-07 -0.2520765
0.0025610586 -0.5142162 0.2327176 1.535804e-10 -0.0046063033 -0.057769347 -7.353083e-07 -0.15860064
0.052720282 -0.017011859 1.34408e-13 -0.23431002 -0.060248237 -0.09678038 0.20256174 -0.10468494
4.0188637e-35 0.021405531 6.541626e-05 0.42423943 0.13270366 0.00014041453 2.1433439e-06 -0.11292696
-0.16534549 -3.2402807e-18 -0.07126322 -0.0013739844 4.8146825e-07 0.44962075 0.022614503 -0.2661814
0.49407667 -1.7270568e-10 0.06269384 0.09274287 -0.00089726155 -0.122671224 -0.00034001213 -0.052074015
-6.1707855e-10 -0.12879014 -0.010574343 0.18401065 0.14380485 0.2763396 -1.288312e-34 -0.030333156
1.6711529e-06 -0.26641375 0.20300987 0.0009771149 -3.4661554e-07 -0.24112831 0.14786802 3.0118688e-18
00000000: 8e8a c9af 24c9 02be 10f8 463e 3ce8 5cbe
00000010: 8dc1 f5bd 92da 243e 03d4 bc05 e29c be3b
00000020: 28fb ee36 8473 4dbe 226e 623e 266a a939
00000030: a8aa 1834 0f59 b9bd 940c 0a3e f346 be23
00000040: ce2c 67bc c35f 4c3c b81f df33 e70b 7abc
00000050: bc01 fbba 0180 023f fb9f e3bd bc1b a02f
00000060: 1ce5 96bd ab7e f43c 904c 79ba fde2 5c3e
00000070: de7b 2b3e 786a 9a3d 1fad 8c2f 9c31 c0be
00000080: ff0e fe3d 2ce2 4c3d ee11 4cbe 4ee9 c03b
00000090: a701 0d05 ff02 c2bc 145e 1537 cae7 c03e
000000a0: 121f 45be 19da 2339 cecd 1635 08b9 683e
000000b0: 5c3d 6c3d 8303 a024 e40b 903c 3df8 e43b
000000c0: 2205 7234 70b5 3cbe 0a47 ff3b 5b73 93bc
000000d0: 781a cf3e 87d6 d92e 76d9 23bd 4e52 c0bd
000000e0: c23f a5b8 34c8 db3e a502 19bd f10e 903b
000000f0: 4743 0e30 45c1 1c3e 066c 15bd 9a93 843e
00000100: 7533 e6bb 499f 2dbd 4681 a086 7ca3 253c
00000110: ce21 5739 14a2 673d 18bb 8c3d b2c1 08ba
00000120: f841 12b5 6770 a53d 9ea4 e63e 9af9 58a5
00000130: 4450 023c 7dfb e23b 972c 25b6 64ad 3d3b
00000140: c07d 1f3d 68ce c5bb 91b9 5d3d 0d37 8f2f
00000150: 9873 883f 9761 acbd c480 3738 55ba a83b
00000160: d55c 97bd 3222 19bf 5980 4030 0733 b73e
00000170: 5133 93be 34a2 493c b4de d4be c63e 843e
00000180: 9314 1f07 0886 013c 0613 d3b6 61a3 413f
00000190: 0bce cdbe 42c6 223a 754c 1f36 2178 12bd
000001a0: 5af9 39bd 416a 0e25 b6fb ed3e a9cf 773d
000001b0: 06ed 0336 c7c4 b9bd 9b4c 953a 58c9 bfbe
000001c0: cd9b a2be 4084 4d2c a81a 353c ccf4 b73d
000001d0: 6ce1 483a ce04 95bd 364d 1e3e 549c 64bc
000001e0: 009f edb2 3210 b8bd 90df 58bc 9018 a5bc
000001f0: f322 42bd 49bd 70bd 10c6 d5af b8be 12b8
00000200: 86ee 33b4 260a dbbd 94b9 e9bb 6641 e2b7
00000210: f2fe 49b2 bc0d 57bd 50fe 8dbd b836 0d9e
00000220: 765d b8bc 2cd9 cc37 366f 2137 d203 c5bb
00000230: 104a 1fb5 54dd 1dbc 887a 2cbd a090 b1ad
00000240: 18d8 48bd 81e7 bbbd 06da 9039 6a7d f5bd
00000250: 18c4 83bc 7c92 cabd 3c8e f72f c07e 3b3c
00000260: 99af 27be 290e 7fbe e5db cabe 4027 743e
00000270: 14c1 5f86 6da9 193d eedc 0a39 f199 8fbe
00000280: 50a1 11bd 9b70 bdb9 1b41 bfb5 7119 99bd
00000290: d7ba 3e3e 7f87 9424 03a9 c43e 04dc 953c
000002a0: 42b4 2034 6c23 84ba d8bf 9bbc 834a b8bd
000002b0: c602 1abe 4acf 31af ea44 a7bd eb60 183e
000002c0: 59d7 30b9 41c9 90be 6038 963c 7722 da3d
000002d0: 3f77 b1ac d933 283f e1d3 9dbe 279a 4a3d
000002e0: 26b0 adbd bd01 9bbe 475d 8084 605f f23c
000002f0: 8ef0 9d37 2f94 bcbe be91 08bf 2596 3db9
00000300: 18e9 cbb5 47b9 9a3e 32bd 3c3c 6b94 24a3
00000310: e871 5bbe cab0 9bbb 7594 1535 2c10 81be
00000320: 6fd7 273b aca3 03bf 864d 6e3e 0add 282f
00000330: 79f0 96bb 8d9f 6cbd 0062 45b5 3568 22be
00000340: 39f1 573d 745c 8bbc 7854 172a f7ee 6fbe
00000350: dbc6 76bd cb34 c6bd 586c 4f3e 0f65 d6bd
00000360: f0ad 5506 a75a af3c 1630 8938 e935 d93e
00000370: 78e3 073e 3d3c 1339 5ed6 0f36 4046 e7bd
00000380: 5450 29be 2c17 6fa2 73f2 91bd 4417 b4ba
00000390: 3f3e 0135 b134 e63e 0d42 b93c ee48 88be
000003a0: 9ef7 fc3e 54e4 3daf a165 803d f9ef bd3d
000003b0: 3436 6bba 0d3b fbbd a843 b2b9 904b 55bd
000003c0: 0b9f 29b0 90e1 03be 0240 2dbc 4a6d 3c3e
000003d0: 9441 133e 627c 8d3e fc3e 2b87 3d7d f8bc
000003e0: 604c e035 6267 88be d2e1 4f3e 8912 803a
000003f0: 7a16 bab4 57ea 76be b76a 173e 983c 5e22

0.linears.2.bias f4 [30]
-0.1680114 0.059750978 0.041764624 0.24268174 -0.0812631 0.19794998 0.4364955 -0.28281417
-0.061002232 -1.131944e-07 -0.16729222 0.11203018 -0.028301895 -7.0994144e-09 -1.9862114e-11 0.9539264
-0.07911109 -8.033288e-06 0.23851301 0.43738317 0.10833119 -0.0009871006 -0.0008857059 0.22831334
0.31124273 -0.17325313 0.27126762 -0.000116162606 -1.7889135e-11 0.40450203
00000000: 2e0b 2cbe 71bd 743d 6211 2b3d 9081 783e
00000010: 456d a6bd 66b3 4a3e 577c df3e 05cd 90be
00000020: 7add 79bd 4815 f3b3 a74e 2bbe 1470 e53d
00000030: 60d9 e7bc 1cef f3b1 81b5 aead 8534 743f
00000040: ff04 a2bd b6c6 06b7 c13c 743e b0f0 df3e
00000050: bedc dd3d 9a61 81ba b72e 68ba f9ca 693e
00000060: 355b 9f3e 4569 31be 97e3 8a3e 539c f3b8
00000070: c05a 9dad e41a cf3e

0.output_layer.weight f4 [21, 30]
1.774534e-05 -3.058184e-05 1.3632589e-05 -8.109329e-06 1.7158747e-05 1.5852009e-05 -2.7829974e-05 1.45260665e-05
9.03482e-06 3.364119e-10 -7.383656e-06 -3.5845507e-05 4.211657e-06 -1.7726237e-11 -1.0409717e-14 -3.2588134e-05
5.0124312e-05 -7.69867e-09 -3.9749786e-05 -1.9204592e-05 -8.0060745e-06 -4.676149e-07 -4.451221e-06 -6.0643706e-05
-3.5848174e-05 1.2003119e-05 -2.338979e-05 1.1688979e-09 7.255331e-15 1.1524383e-05 -0.031713024 -0.017078914
0.48603228 0.045649927 0.09539629 -0.046336967 0.043762527 -0.08682104 -0.0144899525 -4.710007e-08
0.003169837 0.01194641 0.003631701 6.634699e-08 1.2318207e-12 -0.006967816 -0.020084178 9.736375e-06
-0.6626842 0.040215906 -0.0023034243 3.5818528e-05 0.000403974 0.05047099 0.04761729 -0.05240534
-0.020250542 -8.946519e-05 2.6455004e-12 -0.05509894 -0.06776791 0.07142448 -1.1185656 0.033004973
0.22456808 -0.045833353 0.0789501 -0.0064776936 -0.026178794 2.2578785e-08 0.043839198 0.088954754
-0.09449475 6.155279e-09 5.4601003e-12 0.1095603 -0.068625994 1.1281563e-05 -0.0376138 0.015795613
0.0830217 -8.823743e-06 0.0010931314 0.20465022 0.0643123 -0.052177917 0.03655514 4.9033133e-05
5.695909e-13 0.020855647 -8.072964e-07 -1.5029877e-07 5.802948e-07 -5.5997975e-07 8.774212e-06 -6.5383695e-08
-1.045472e-06 2.577656e-07 8.349784e-08 -2.375968e-12 -2.830114e-07 -1.6227884e-06 1.2107803e-06 2.168239e-12
2.679036e-15 -9.2442815e-07 -8.581405e-07 -1.8953512e-09 -1.0082192e-06 -6.0947497e-07 -7.5680293e-07 -2.5281786e-09
4.4619618e-08 -1.8291796e-06 -1.7702185e-06 1.3813037e-06 3.231445e-07 1.276621e-10 -8.2692894e-16 -9.248173e-07
0.068304256 -0.11880526 -0.42442954 -0.058874276 -0.08771755 0.04625235 -0.09221238 0.11860125
0.08549691 -1.7500208e-08 -0.033838548 -0.115639724 0.0032887496 -1.361619e-07 -2.1676905e-13 -0.04269001
0.11869482 9.464869e-07 0.69036263 0.11514006 0.026801128 0.00027824624 -0.00071476283 -0.22195685
0.17322382 0.027314875 -0.0057691396 0.00011286599 1.0793934e-11 0.13132685 -0.060137447 -0.19269384
0.46963093 -0.009212556 -0.034262225 0.048969522 0.0061230185 -0.110125355 0.01448133 -7.716263e-08
-0.08562936 -0.08537675 0.024478609 -3.1170515e-08 2.9634285e-12 -0.03530644 0.13262387 -2.0674674e-06
-0.047500037 -0.47938597 0.043404005 -0.0005511361 -0.001511005 -0.031199088 0.29689428 -0.059182655
-0.0013112805 -1.0965268e-06 2.1167998e-12 0.044475522 -0.4269516 0.3980343 0.07522139 0.2856648
-0.23867121 0.17661808 -0.36258972 -0.09377019 -0.16488226 -8.6479155e-08 -0.07747142 -0.24798098
0.0534907 1.0552789e-07 8.075023e-13 1.1136582 -0.014626196 -1.6451555e-05 -0.1914557 -0.06391003
-0.15369406 -0.00023882894 0.00063292694 -0.43971822 -0.23845488 0.12927584 -0.06547729 -3.3656048e-05
-7.15037e-12 0.5025443 -0.2933584 0.17732726 -0.10376613 0.21710694 -0.018405728 -0.5238103
0.37839893 -0.13768004 -0.031617638 -4.0274646e-09 -0.42886713 0.11106939 0.033080544 -1.0140156e-07
-7.596843e-12 -0.5597854 -0.20967121 1.976412e-06 0.42325726 0.22422127 -0.14959379 -0.00030121423
-0.001293222 -0.521113 0.47002405 0.066872835 -0.0020707226 -1.859021e-05 7.642057e-12 0.18819071
-0.48856124 -0.21676828 0.17003343 -0.06175647 0.10456006 -0.23943762 -0.054789163 -0.053619325
0.78255457 -8.33526e-08 -0.025468238 -0.07004632 0.018500742 2.1040678e-09 -3.1334544e-12 0.12903053
00000000: d4db 9437 0045 00b8 86b7 6437 4e0d 08b7
00000010: 21f0 8f37 eef9 8437 6a74 e9b7 fbb4 7337
00000020: 4294 1737 c4f1 b82f 1fc1 f7b6 d258 16b8
00000030: dc51 8d36 f0eb 9bad 5986 3ba8 3eaf 08b8
00000040: 923c 5238 1c43 04b2 02b9 26b8 8c19 a1b7
00000050: d451 06b7 810c fbb4 b25b 95b6 af5b 7eb8
00000060: af5b 16b8 0161 4937 3135 c4b7 f0a6 a030
00000070: 4fb3 0228 d958 4137 84e5 01bd 14e9 8bbc
00000080: 39d9 f83e 6bfb 3a3d 215f c33d d5cb 3dbd
00000090: 5640 333d 3bcf b1bd 4467 6dbc 134b 4ab3
000000a0: 0abd 4f3b e0ba 433c d501 6e3b a57a 8e33
000000b0: 055d ad2b 4752 e4bb 9387 a4bc 6a59 2337
000000c0: aca5 29bf 6fb9 243d 0cf5 16bb da3b 1638
000000d0: 79cc d339 abba 4e3d 590a 433d fba6 56bd
000000e0: 77e4 a5bc 429f bbb8 1929 3a2c 6daf 61bd
000000f0: e7c9 8abd ff46 923d 282d 8fbf 3930 073d
00000100: 2df5 653e c1bb 3bbd 97b0 a13d d542 d4bb
00000110: e974 d6bc 46f3 c132 bb90 333d e92d b63d
00000120: 7786 c1bd 687e d331 361c c02c 2761 e03d
00000130: c98b 8cbd f245 3d37 ee10 1abd cd65 813c
00000140: 4807 aa3d b009 14b7 6747 8f3a d48f 513e
00000150: 2bb6 833d 83b8 55bd d8ba 153d eda8 4d38
00000160: 5a53 202b 76d9 aa3c fcb4 58b5 d061 21b4
00000170: 8ec5 1b35 8451 16b5 f434 1337 1169 8cb3
00000180: 2552 8cb5 0963 8a34 6c4f b333 a231 27ac
00000190: caf0 97b4 96ce d9b5 1882 a235 8593 182c
000001a0: 7e0b 4127 3826 78b5 f75a 66b5 5f3f 02b1
000001b0: 2652 87b5 cd9a 23b5 1a27 4bb5 30bc 2db1
000001c0: caa3 3f33 2282 f5b5 3f98 edb5 3c65 b935
000001d0: a47c ad34 b05d 0c2f 9658 6ea6 f640 78b5
000001e0: 1ae3 8b3d 2c50 f3bd d44e d9be 2726 71bd
000001f0: 42a5 b3bd 1b73 3d3d d8d9 bcbd 36e5 f23d
00000200: 0119 af3d 5d53 96b2 4a9a 0abd 85d4 ecbd
00000210: 1088 573b e633 12b4 6d0f 74aa b8db 2ebd
00000220: 4516 f33d 1612 7e35 9bbb 303f 8dce eb3d
00000230: 0a8e db3c 94e1 9139 ec5e 3bba a848 63be
00000240: 9661 313e 72c3 df3c 0d0b bdbb 78b2 ec38
00000250: 8fe3 3d2d 8c7a 063e af52 76bd 8951 45be
00000260: 7773 f03e 43f0 16bc 8c56 0cbd 4494 483d
00000270: 9aa3 c83b 6789 e1bd 1a43 6d3c 9bb4 a5b3
00000280: 725e afbd 01da aebd 5d87 c83c 58e0 05b3
00000290: 6288 502c 7c9d 10bd 8dce 073e d2be 0ab6
000002a0: 668f 42bd 1472 f5be 66c8 313d 1e7a 10ba
000002b0: ea0c c6ba 3b95 ffbc 8702 983e 8369 72bd
000002c0: 46df abba 602c 93b5 e0f4 142c f72b 363d
000002d0: 6699 dabe 27cb cb3e ac0d 9a3d a842 923e
000002e0: 3a66 74be 5fdb 343e 5ca5 b9be 960a c0bd
000002f0: e5d6 28be 6bb6 b9b3 56a9 9ebd baee 7dbe
00000300: 1019 5b3d 929e e233 ac4a 632b 5a8c 8e3f
00000310: b6a2 6fbc 7201 8ab7 f70c 44be 43e3 82bd
00000320: fa61 1dbe 286e 7ab9 02eb 253a bf22 e1be
00000330: 842d 74be e360 043e f518 86bd e829 0db8
00000340: cf94 fbac bea6 003f 1233 96be 4795 353e
00000350: 5683 d4bd 4851 5e3e 9cc7 96bc 6f18 06bf
00000360: 81bd c13e fffb 0cbe 7f81 01bd f461 8ab1
00000370: 7994 dbbe 5978 e33d 777f 073d 19c2 d9b3
00000380: 24a5 05ad 194e 0fbf 0db4 56be 80a2 0436
00000390: 2db5 d83e 439a 653e 1d2f 19be 4aec 9db9
000003a0: 5481 a9ba a967 05bf fea6 f03e a0f4 883d
000003b0: f6b4 07bb 2cf2 9bb7 c470 062d 11b5 403e
000003c0: b324 fabe 81f8 5dbe 3e1d 2e3e 5af4 7cbd
000003d0: 9623 d63d 232f 75be 9a6a 60bd f09f 5bbd
000003e0: 7f55 483f 94ff b2b3 c4a2 d0bc 7274 8fbd
000003f0: de8e 973c 2797 1031 4c7f 5cac 9420 043e

0.output_layer.bias f4 [21]
0.00018286426 -0.06231558 0.46756762 5.4027464e-06 -0.1035087 -0.15753324 -0.07674236 0.21065743
-0.054059863 0.0013261945 -0.018199084 -0.027719425 0.23564997 -0.08822234 -0.058793213 0.0058793686
1.8464752e-05 0.0004037401 0.0038704341 3.3493811e-06 -2.3864202e-06
00000000: 40bf 3f39 9f3e 7fbd 0665 ef3e 3d49 b536
00000010: 5ffc d3bd 6550 21be 192b 9dbd 95b6 573e
00000020: e06d 5dbd b4d3 ad3a 3f16 95bc d913 e3bc
00000030: 3a4e 713e eaad b4bd 27d1 70bd b8a7 c03b
00000040: c1e4 9a37 14ad d339 1ca7 7d3b eec5 6036
00000050: 6326 20b6

1.linears.0.weight f4 [30, 21]
0.0044673467 -0.14661057 0.081186116 0.0008688318 0.27806643 -0.010400955 0.7940148 0.3644702
0.060304914 -1.2549095 -0.27440152 0.4490315 0.38598424 -0.6557977 0.15821344 -0.008584991
0.0005157256 -0.007392945 0.003100234 6.3192456e-05 -3.1808813e-05 0.0024375007 0.07058796 0.07656148
0.0001373692 -0.05583988 0.2238241 -0.61726296 -1.0977532 0.69496906 -0.84477687 0.93970674
-0.4963614 0.54995453 0.15206793 -0.35853976 -0.036367048 0.00024308785 0.0013324497 0.002718868
-0.0007069474 -2.5802365e-06 0.0038091969 -0.14294039 -0.30108193 0.00019076047 0.18385762 -0.46866614
0.24410497 0.4323213 -0.5647267 -1.2283144 -1.0209793 0.00844019 -0.05497233 0.28980398
0.6260027 -0.03286634 -0.00068722613 -0.0001757741 -0.08288678 -0.0018355099 -0.0018255814 -2.1201512e-20
-0.0018423602 0.0065200906 -5.234286e-21 -0.00040658572 -0.004247939 -1.5632776e-07 -1.7543692e-07 0.00835829
-1.3429544e-05 -0.00036973864 -0.0063035125 1.7830225e-05 -0.00018148049 -0.0014904435 3.035617e-20 4.9115763e-21
7.3664136e-20 -8.5368296e-20 0.0010007829 -5.6299484e-07 -0.010273959 0.14714967 -0.20719299 0.0030778504
0.7952331 -0.39441344 -0.3071966 -0.3688807 -0.6112458 -0.27363333 -1.0106674 -0.007999051
0.15692893 0.31533 0.188157 -0.009136202 -0.0009050346 -0.00721815 -0.031540222 0.0016917053
-0.0001872094 0.0040416457 0.7379158 0.41957983 0.0025970358 1.4232436 0.53693885 0.05113545
0.5432863 1.6710807 -0.2750404 -1.3395875 0.14495489 0.254314 -0.07336565 0.06184756
-0.002674412 -0.0013071813 -0.009359482 -0.097862855 -1.6409991e-05 -0.0017088167 0.00044744578 0.007939032
-0.37392256 -0.0008464111 -0.4694987 -1.1658772 -0.47333422 -0.44393376 -1.7746909 -0.42520314
-0.49240384 2.267873 0.36025253 1.3873048 -0.18886773 0.012116419 0.0003103321 0.011172142
-0.005775657 -0.0018681114 -0.0003374844 0.001260418 -0.102176145 -0.09728035 -0.0019103024 -0.796177
-0.118859455 -0.48767766 0.8950423 -0.59420604 0.42033768 1.0715896 1.3772621 0.1868607
-0.9591633 -1.177384 0.040981896 0.00019716262 0.0036341222 0.06923518 0.00015944435 -0.0002012077
-0.001832996 0.38795975 -0.37742457 -0.0004522727 -0.065072924 -0.14473164 -0.004977371 -0.03362251
-0.1579501 -0.06910499 0.06260646 0.07648433 -0.005572943 -0.1341396 -0.068188295 0.0056962585
0.0010726403 0.003359355 -0.001677162 -0.0022399193 0.00040935675 -0.009027049 0.4288845 0.20617849
0.002009272 0.48380232 0.09760251 0.7473829 0.3184972 0.20541315 -0.011191045 -0.4879691
0.62169224 0.9808017 0.09022074 -0.099694714 0.008077882 0.00011508691 -0.014582914 -0.016000455
0.00023692986 -0.00066913763 0.022708654 -0.3877232 0.050950285 -0.006755286 -1.3291357 0.1260967
0.53139967 0.9448552 0.39871114 -0.03293597 -1.7960272 -0.6147411 0.34788325 1.9815046
-0.5384821 0.022323808 -0.0013182692 0.01749282 0.35339177 -0.0008070533 0.00037612446 0.0030365372
0.12035459 0.43678275 0.0006739944 1.2612253 0.5468299 0.71521 -1.3071511 0.36130106
-0.21353453 -0.40137243 0.8295029 0.15060626 0.123125546 -0.6738817 -0.036163915 -0.00063410343
-0.0010156054 -0.22112454 0.0003072592 -0.0014770064 -0.00086535607 0.133144 -0.018388588 -0.0021122186
00000000: d262 923b 1521 16be e844 a63d 51c2 633a
00000010: b95e 8e3e c468 2abc 8e44 4b3f d79b ba3e
00000020: 4902 773d e0a0 a0bf 5b7e 8cbe 75e7 e53e
00000030: ba9f c53e 5ce2 27bf b402 223e 10a8 0cbc
00000040: c231 073a 8440 f2bb 4c2d 4b3b 3186 8438
00000050: 746a 05b8 7abe 1f3b 6c90 903d 44cc 9c3d
00000060: c40a 1039 5cb8 64bd 2532 653e f204 1ebf
00000070: 2d83 8cbf 7ee9 313f 4c43 58bf 9f90 703f
00000080: 1523 febe d2c9 0c3f b2b7 1b3e 8692 b7be
00000090: 9df5 14bd 66e5 7e39 98a5 ae3a 092f 323b
000000a0: 7052 39ba 2028 2db6 b8a3 793b f75e 12be
000000b0: 6927 9abe e006 4839 2c45 3c3e 02f5 efbe
000000c0: a7f6 793e 3859 dd3e ee91 10bf 6839 9dbf
000000d0: 73af 82bf b948 0a3c aa2a 61bd 3061 943e
000000e0: b741 203f db9e 06bd f726 34ba 0050 38b9
000000f0: 8bc0 a9bd 7e95 f0ba 5948 efba 1c3e c89e
00000100: 5a7b f1ba 7ca6 d53b e8be c59d 032b d5b9
00000110: 4c32 8bbb 0cdb 27b4 bc5f 3cb4 36f1 083c
00000120: 744f 61b7 7bd9 c1b9 b28d cebb 1e92 9537
00000130: cc4b 3eb9 fc5a c3ba 5c5a 0f1f da8d b91d
00000140: 3def ad1f f891 c99f b42c 833a b620 17b5
00000150: 1b54 28bc 67ae 163e 662a 54be c3b5 493b
00000160: 6594 4b3f 8ff0 c9be df48 9dbe eedd bcbe
00000170: 9b7a 1cbf ab19 8cbe 8d5d 81bf 740e 03bc
00000180: fab1 203e ef72 a13e 3bac 403e 02b0 15bc
00000190: d83f 6dba 3b86 ecbb 5230 01bd 36bc dd3a
000001a0: a44d 44b9 c86f 843b 0de8 3c3f 2bd3 d63e
000001b0: 0833 2a3b d92c b63f d374 093f 6873 513d
000001c0: d014 0b3f f9e5 d53f 18d2 8cbe 9a77 abbf
000001d0: 0e6f 143e 7235 823e bb40 96bd de53 7d3d
000001e0: 3045 2fbb ba55 abba 8358 19bc 526c c8bd
000001f0: 30a8 89b7 60fa dfba 2897 ea39 b712 023c
00000200: c772 bfbe b0e1 5dba 2262 f0be 773b 95bf
00000210: dd58 f2be 494b e3be 1229 e3bf 3ab4 d9be
00000220: 5b1c fcbe d524 1140 0573 b83e 3493 b13f
00000230: 8b66 41be f283 463c 12b4 a239 5c0b 373c
00000240: b941 bdbb 6bdb f4ba 64f0 b0b9 9c34 a53a
00000250: ba41 d1bd ec3a c7bd 1d63 faba 42d2 4bbf
00000260: 966c f3bd e3b0 f9be 7e21 653f e31d 18bf
00000270: 8036 d73e d929 893f 204a b03f 6958 3f3e
00000280: ba8b 75bf 85b4 96bf a2dc 273d 70bd 4e39
00000290: 742a 6e3b 2dcb 8d3d 8430 2739 48fb 52b9
000002a0: 2441 f0ba a9a2 c63e cb3d c1be 041f edb9
000002b0: f444 85bd 8834 14be 3719 a3bb c2b7 09bd
000002c0: acbd 21be eb86 8dbd d137 803d d1a3 9c3d
000002d0: 3c9d b6bb e45b 09be 4ea6 8bbd aea7 ba3b
000002e0: d697 8c3a a028 5c3b 38d4 dbba 9ccb 12bb
000002f0: ef9e d639 30e6 13bc c096 db3e 7420 533e
00000300: fead 033b f0b4 f73e d3e3 c73d 7c54 3f3f
00000310: 1112 a33e d357 523e a55a 37bc 16d7 f9be
00000320: 3927 1f3f d215 7b3f a7c5 b83d be2c ccbd
00000330: 1859 043c d05a f138 2ded 6ebc 6313 83bc
00000340: 6070 7839 1169 2fba 8007 ba3c a883 c6be
00000350: 3fb1 503d 725b ddbb 1e21 aabf 7e1f 013e
00000360: cf09 083f 08e2 713f de23 cc3e dee7 06bd
00000370: 38e4 e5bf ac5f 1dbf c11d b23e f1a1 fd3f
00000380: f7d9 09bf 6be0 b63c c6c9 acba 1a4d 8f3c
00000390: c4ef b43e 6e90 53ba 9232 c539 a400 473b
000003a0: 787c f63d fda1 df3e 00af 303a d56f a13f
000003b0: 0bfd 0b3f 0118 373f ba50 a7bf 74fc b83e
000003c0: cca8 5abe b080 cdbe 4d5a 543f 8738 1a3e
000003d0: 3f29 fc3d 8383 2cbf 9d20 14bd f639 26ba
000003e0: 101e 85ba 796e 62be a217 a139 1c98 c1ba
000003f0: 10d9 62ba e756 083e aaa3 96bc 266d 0abb

1.linears.0.bias f4 [30]
-0.78410196 -1.1176326 -2.2887533 -0.05753799 -0.95781165 -0.50620204 -0.70885414 0.2174282
0.10503162 -0.5177506 0.68182516 0.07820008 -1.0914853 -0.4758267 0.0038406923 -0.9619654
-0.043841504 -0.9665772 0.022611668 0.53942424 -0.0355971 -0.8881235 -1.1561466 -1.1810962
-0.58041745 -1.2575244 -1.3371792 -0.402056 -0.20704259 -0.1665215
00000000: e8ba 48bf 960e 8fbf ef7a 12c0 f5ac 6bbd
00000010: 2533 75bf 7596 01bf 7777 35bf 80a5 5e3e
00000020: d11a d73d 4e8b 04bf 188c 2e3f 5d27 a03d
00000030: cab5 8bbf 8f9f f3be 20b4 7b3b 5d43 76bf
00000040: 2693 33bd 9a71 77bf 1b3c b93c b517 0a3f
00000050: 44ce 11bd 105c 63bf 9dfc 93bf 292e 97bf
00000060: 3d96 14bf 8ff6 a0bf b028 abbf 49da cdbe
00000070: f902 54be 9d84 2abe

1.linears.1.weight f4 [30, 30]
0.4699059 -0.4127851 0.013271394 -1.0087865e-18 0.20925348 0.13580447 -0.0232251 -0.3412611
-0.103967845 -0.59320325 -0.0008290071 -0.13899046 -0.20355943 0.72552544 0.5041387 -0.11143344
-0.38378218 -0.087580204 -0.05718311 -0.7180701 0.39903355 0.19211456 -0.19908027 -0.29506782
0.13126788 -0.35799298 0.067852214 -0.20714906 -2.5330971e-08 -0.8928591 1.9262862e-12 -0.0011009461
-2.4351148e-12 -3.5105e-41 -1.9551478e-12 -0.021554843 -0.0011929739 -0.056605797 -0.039204072 -0.036847007
-0.13524221 -0.06248208 -2.6079729e-06 -0.0069603403 -0.01794285 -3.7996873e-05 -0.0009107419 -0.0059480164
2.1318685e-12 -0.17014915 -0.0032941876 -8.876193e-12 8.896872e-12 -3.6639853e-14 -0.0003579416 -9.332205e-08
-1.221866e-06 -0.120701075 -2.250063e-12 -0.014189873 -0.08109751 -0.023189653 0.004182951 -0.0356521
0.01946905 -0.00863733 0.00843636 0.039532423 -0.78668463 -0.009096522 -0.01511048 0.015831783
-0.0035699396 -0.032847337 0.032777082 0.116666585 0.020873966 -0.035478815 1.0428584 0.02323516
-0.00010003371 0.048599392 -0.044362362 0.0769505 0.036789816 0.010716358 0.012590457 0.009052341
0.0014228136 0.00646585 1.8461089e-08 6.1920242e-09 -6.6253354e-09 -1.4186e-40 -2.3750216e-08 1.3579608e-08
6.4164056e-11 -2.9504557e-07 -2.5897688e-08 -1.0904343e-07 -1.7889055e-07 -1.4656416e-07 -5.107882e-09 3.92226e-09
-1.0920039e-07 1.7415678e-09 -3.330348e-08 -3.9201165e-10 -6.476469e-08 -1.5771e-07 -4.951951e-08 6.6156445e-09
2.4382361e-08 3.3290423e-08 -1.0465341e-07 -2.2882187e-08 1.4186302e-08 -1.4464315e-07 -3.7553e-41 -7.98978e-08
4.3299e-41 -6.3302245e-11 -8.4673e-41 6.73795e-40 4.3866e-41 -2.2753544e-30 -7.2297835e-18 -8.047294e-07
-5.5323e-41 4.2493e-41 -1.1620298e-25 1.15e-41 -9.995929e-17 -7.5624e-41 -4.2563312e-15 4.5056777e-37
-7.377383e-19 -2.0612073e-18 -1.2567919e-08 -4.0206372e-10 -5.6854274e-14 -1.1576e-40 3.4867e-41 -3.298239e-35
-2.2190189e-33 8.4871e-41 4.6512e-41 2.0837e-41 4.95e-42 1.4e-42 -0.08138709 0.14845575
0.2798202 -1.3264182e-08 0.2760054 0.17688794 1.2555267 0.4223522 0.036917478 0.08518955
-0.84096164 0.10881362 0.109052494 0.103725486 -0.98849386 -0.13553682 0.4461937 0.26011273
-0.0139121385 -0.29687092 -0.1140637 0.47652212 0.08378584 0.49122253 0.0699059 0.38942042
-0.421923 0.46520898 -0.00014715141 0.43857688 0.003963866 -0.07812613 0.00052866666 -1.5333566e-28
-0.00010711755 -0.00805605 -0.0030896696 -0.51802003 -0.23636971 -0.14448966 -0.35749805 -0.021988569
-0.019880671 -0.12083797 -0.41239327 0.008061871 -0.27255842 -0.39861175 0.0055929446 -0.7931514
-0.12374232 -0.00023434887 0.003436658 -0.003436622 0.008177056 -0.0021882534 -0.003611271 -0.584204
-7.889914e-34 -0.01677556 0.12160432 -0.07915715 -0.15618224 5.8672893e-05 -0.2424945 0.5925442
0.026257597 -0.25991264 0.0025086098 0.349607 1.1732415 -0.29309797 -0.12844342 0.2561782
0.042926826 0.55720323 -0.020165224 -0.18925588 0.053632542 -0.72606385 -0.02281588 -0.1987513
0.09124443 -0.91771036 -0.27635393 -0.012257747 -0.6573836 0.18368843 -0.028746104 -0.20044988
0.0019729624 -0.010320897 0.0002574241 -6.8600854e-17 -0.0010795321 0.005412504 -0.00077442714 -0.014758108
0.007846642 0.07218946 -0.0009154938 0.0030201348 0.00044648536 0.05132764 -0.020885758 0.0011184458
00000000: 8297 f03e 9258 d3be 4370 593c e0de 94a1
00000010: 8b46 563e 5410 0b3e 9142 bebc c6b9 aebe
00000020: 18ed d4bd 2bdc 17bf ba51 59ba 8453 0ebe
00000030: e271 50be 09bc 393f 3c0f 013f 3737 e4bd
00000040: 197f c4be 405d b3bd d638 6abd 71d3 37bf
00000050: 204e cc3e aeb9 443e b3db 4bbe 2113 97be
00000060: 166b 063e db4a b7be 1af6 8a3d e21e 54be
00000070: 6597 d9b2 6a92 64bf e38c 072c 9f4d 90ba
00000080: 215b 2bac dc61 0080 d094 09ac c893 b0bc
00000090: 905d 9cba 7bdb 67bd 7394 20bd e3ec 16bd
000000a0: ef7c 0abe 36ed 7fbd a204 2fb6 9113 e4bb
000000b0: e2fc 92bc d55e 1fb8 dbbe 6eba 94e7 c2bb
000000c0: 5404 162c 943b 2ebe 4ce3 57bb d226 1cad
000000d0: f383 1c2d e002 25a9 1caa bbb9 5768 c8b3
000000e0: fffe a3b5 2032 f7bd 8855 1eac a47c 68bc
000000f0: 7416 a6bd 3af8 bdbc 2311 893b f007 12bd
00000100: 8f7d 9f3c 9683 0dbc a938 0a3c c0ec 213d
00000110: 2a64 49bf 9409 15bc f291 77bc a8b1 813c
00000120: a6f5 69bb ee8a 06bd 4341 063d e4ee ee3d
00000130: e1ff aa3c 3c52 11bd 627c 853f aa57 be3c
00000140: 30c9 d1b8 2810 473d 4fb5 35bd 3998 9d3d
00000150: ebb0 163d aa93 2f3c 3448 4e3c 4550 143c
00000160: b47d ba3a 7bdf d33b 5d94 9e32 9fc1 d431
00000170: 11a5 e3b1 738b 0180 4703 ccb2 bf4b 6932
00000180: 2719 8d2e c166 9eb4 9e75 deb2 422b eab3
00000190: 0f15 40b4 405f 1db4 6881 afb1 90c4 8631
000001a0: 8d81 eab3 f85b ef30 9009 0fb3 bc82 d7af
000001b0: c414 8bb3 ff56 29b4 47af 54b3 d34f e331
000001c0: 6171 d132 35fb 0e33 d2bd e0b3 768e c4b2
000001d0: 04b8 7332 354f 1bb4 af68 0080 4894 abb3
000001e0: b378 0000 ff33 8bae 09ec 0080 4456 0700
000001f0: 487a 0000 4399 388e b05d 05a3 9504 58b5
00000200: 389a 0080 7476 0000 32da 0f96 0f20 0000
00000210: 8d7d e6a4 cfd2 0080 ba59 99a7 fd51 1903
00000220: eebd 59a1 1b17 18a2 4bea 57b2 7009 ddaf
00000230: 4206 80a9 b142 0180 3261 0000 4e5d 2f86
00000240: 5059 3889 96ec 0000 a881 0000 163a 0000
00000250: cc0d 0000 e703 0000 46ae a6bd c904 183e
00000260: 9844 8f3e 7de0 63b2 9450 8d3e 1d22 353e
00000270: 19b5 a03f 8c3e d83e c836 173d dc77 ae3d
00000280: 4349 57bf add9 de3d ea56 df3d 076e d43d
00000290: ef0d 7dbf 2aca 0abe 8073 e43e 7f2d 853e
000002a0: bdef 63bc 77ff 97be 3b9a e9bd b5fa f33e
000002b0: e997 ab3d 8581 fb3e d32a 8f3d 1d62 c73e
000002c0: 4b06 d8be df2f ee3e a84c 1ab9 268d e03e
000002d0: 51e3 813b 9800 a0bd 3896 0a3a 4460 4291
000002e0: 4ca4 e0b8 86fd 03bc 0e7c 4abb f69c 04bf
000002f0: e70a 72be 19f5 13be fc09 b7be 5f21 b4bc
00000300: cadc a2bc e679 f7bd 3625 d3be f015 043c
00000310: c78c 8bbe d716 ccbe 0545 b73b f80b 4bbf
00000320: 9d6c fdbd 8cbb 75b9 8e39 613b f338 61bb
00000330: 0ff9 053c cd68 0fbb 13ab 6cbb 658e 15bf
00000340: fc17 8388 e66c 89bc b00b f93d 251d a2bd
00000350: 3dee 1fbe 8a17 7638 7a50 78be fab0 173f
00000360: 2c1a d73c 4513 85be 7d67 243b b0ff b23e
00000370: c72c 963f f010 96be ac86 03be ca29 833e
00000380: 0ad4 2f3d dfa4 0e3f 8a31 a5bc 4bcc 41be
00000390: ccad 5b3d 52df 39bf 5ee8 babc 7685 4bbe
000003a0: 5cde ba3d 11ef 6abf 437e 8dbe b8d4 48bc
000003b0: 4b4a 28bf d218 3c3e f37c ebbc bc42 4dbe
000003c0: d14c 013b fb18 29bc e1f6 8639 cc2e 9ea4
000003d0: 167f 8dba 605b b13b ed02 4bba fecb 71bc
000003e0: 348f 003c 11d8 933d c0fd 6fba 74ed 453b
000003f0: 4016 ea39 ee3c 523d 9c18 abbc d098 923a

1.linears.1.bias f4 [30]
0.0061948425 -0.17520423 1.0009685 -2.4302906e-07 -8.417815e-07 -0.5227475 -0.6895007 0.26419985
-0.052562438 -0.0329797 0.28633118 0.38954172 -0.55974364 0.27599314 -1.1032522e-09 -3.559404e-17
-0.4223847 -0.7110456 -0.049761914 -0.0005969922 -0.7772008 -0.7142445 -1.0853684 0.19130528
-0.5991074 0.14787556 -0.0043736417 0.07100529 -3.291677e-08 -0.8249548
00000000: 1bfe ca3b bd68 33be bc1f 803f a979 82b4
00000010: c9f6 61b5 c8d2 05bf 1e83 30bf 3445 873e
00000020: b64b 57bd b915 07bd 009a 923e 0372 c73e
00000030: 5c4b 0fbf f94e 8d3e 3ca1 97b0 0626 24a4
00000040: cf42 d8be 1607 36bf 26d3 4bbd 787f 1cba
00000050: a2f6 46bf bad8 36bf 5aed 8abf 88e5 433e
00000060: 1a5f 19bf b16c 173e c450 8fbb 396b 913d
00000070: 5f60 0db3 3d30 53bf

1.linears.2.weight f4 [30, 30]
0.1726668 0.0125288 -0.33397686 -1.0708397e-07 1.23421e-40 0.00027292687 -0.12927331 0.507495
-0.08881296 0.00084276515 -0.38740125 -0.18479575 0.5944828 -0.24943891 1.7987764e-28 1.2849802e-08
-0.3758555 0.03918803 0.2884177 -0.16458918 -0.20262258 0.0076961285 -0.50773245 -0.11008381
-0.25622433 -0.1817431 0.0009479658 0.11250852 2.104365e-06 -0.022410125 -0.06821947 -1.0408058e-05
-0.103730135 7.266335e-08 2.2243667e-12 0.26126745 0.0018639565 0.48485473 -0.0010818692 -0.0011464278
0.43304566 0.092851646 -0.4806826 -0.506302 5.3386177e-25 6.0472935e-14 0.09681702 -0.4069366
0.0008265909 -0.09947029 -1.0974342 -0.6391941 0.5831752 -0.2916343 -0.23723239 0.6525949
2.3708093e-05 -0.41696638 5.231998e-35 0.38879383 0.28626165 5.7702833e-13 -0.0043730577 -1.3384314e-07
6.8064e-41 -0.2199898 0.36266607 0.12279991 -0.04440989 -0.0019291589 0.6278436 0.024576614
-0.31978405 -0.44568682 6.8218256e-29 -4.0753346e-13 0.25342065 0.51361257 -0.93688375 -0.5636481
-0.0965973 -0.08808161 -0.41352212 0.5488102 -0.3928265 0.52803713 -0.0020274487 0.3648751
-5.79e-43 -0.71349883 1.5339653e-34 0.0020899195 -0.025330257 1.6478883e-07 2.086475e-38 -3.6954239e-06
9.094349e-39 -1.4990211e-05 -6.229533e-39 1.8381e-41 -0.00014792824 -0.00963533 -0.00087429583 -8.634176e-06
-1.29931e-40 -2.1997433e-11 8.3117035e-27 -1.7327988e-12 -0.00043158417 -6.3997885e-10 4.476993e-34 -1.3306128e-07
5.327385e-25 -5.243623e-15 -3.3538554e-09 -0.00026563 0.0006108703 -0.0018192126 -3.5489e-41 4.2990405e-20
0.0691863 1.2346426e-06 -0.09499192 -2.2746846e-07 -1.39641e-40 -0.6858099 0.0028827998 -0.08963887
0.11529287 0.0036748925 -0.270065 -0.39268017 0.20722927 -0.3547043 3.0732573e-29 1.768873e-11
0.033307828 0.09575527 -0.15265054 0.5947561 0.51711524 -0.5391719 -0.16914453 -0.19671465
0.003433329 -0.45398882 -0.00074158603 -0.40545705 -1.03822e-40 -0.1455632 -0.24830191 1.1120634e-05
-0.21177556 -9.938736e-08 -7.5892e-41 -0.0104865655 -0.007872107 0.19947648 -0.023819728 -0.0009225379
-0.3652167 -0.22053716 0.02207857 -0.5495454 -4.942493e-30 4.7599755e-27 -0.1560397 0.2085656
-0.4529193 0.07905528 -0.19600214 0.546728 5.224701e-05 -0.13400835 -0.007759002 -0.31769213
1.9359761e-06 -0.44511533 -8.576571e-30 -1.0440871e-06 5.085688e-06 -3.247034e-39 -0.015151437 -8.6514e-40
-1.832663e-39 0.00046505372 1.3665542e-06 2.9961566e-05 0.00021540886 -1.0524968e-06 -0.032675665 -0.21338978
-0.003427037 -0.019402282 -1.0556327e-38 1.23058e-40 -1.3814379e-06 1.3495008e-06 -0.007964126 0.0056816456
5.9257445e-07 -0.17639503 -4.6184277e-06 9.504e-06 -5.3828324e-05 -1.1865808e-05 0.00010120688 -2.744087e-05
-9.618e-41 1.7269846e-05 0.00021539436 -1.3970047e-38 -0.0017538302 -1.2189413e-20 9.917797e-10 -0.0004520549
-0.00046138282 -0.00037136505 -6.301579e-39 1.89744e-40 -0.00010441566 -0.002813219 -0.0004281868 -0.0015017834
3.1482e-41 -7.9041554e-20 -0.00034002413 2.3096247e-05 -0.0014713795 -0.000584339 0.00014729686 -0.00012434232
-0.0015227951 -0.0011637198 0.0016001705 -0.0008623591 0.00091819745 -0.002627233 -1.35731e-40 -0.0006064171
-2.0239287e-07 2.1846698e-19 -0.6074855 4.8915e-41 8.773874e-39 -0.0018520713 1.235442e-09 -0.2050422
-8.988192e-15 4.485214e-20 -0.002552563 -0.0056055896 -0.0033125845 -0.11181512 1.669e-41 -6.6876646e-06
00000000: 91cf 303e 9945 4d3c 04ff aabe 09f6 e5b3
00000010: 0c58 0100 a017 8f39 3960 04be 31eb 013f
00000020: 92e3 b5bd 03ed 5c3a 7559 c6be 193b 3dbe
00000030: 0630 183f ea6c 7fbe a205 6411 07c2 5c32
00000040: 2270 c0be a183 203d 7cab 933e 118a 28be
00000050: 4b7c 4fbe ce2f fc3b c1fa 01bf 9f73 e1bd
00000060: d62f 83be dd1a 3abe e880 783a de6a e63d
00000070: b738 0d36 7095 b7bc a6b6 8bbd 459e 2eb7
00000080: 7770 d4bd 190b 9c33 a186 1c2c d9c4 853e
00000090: 0050 f43a e13e f83e 82cd 8dba bc43 96ba
000000a0: 29b8 dd3e 0129 be3d 081c f6be 029d 01bf
000000b0: e338 2517 462c 8829 0048 c63d fe59 d0be
000000c0: 94af 583a 14b7 cbbd b978 8cbf 39a2 23bf
000000d0: f84a 153f 1751 95be 0ced 72be 7610 273f
000000e0: bee0 c637 9e7c d5be 2217 8b06 fc0f c73e
000000f0: e390 923e 466b 222b de4b 8fbb 86b6 0fb4
00000100: bcbd 0000 0245 61be 5eaf b93e 857e fb3d
00000110: 25e7 35bd d5db fcba 5cba 203f e554 c93c
00000120: bcba a3be 1031 e4be 2ef4 ac10 c36b e5aa
00000130: 5ac0 813e 1d7c 033f 9dd7 6fbf 3e4b 10bf
00000140: ced4 c5bd 2264 b4bd 2cb9 d3be d37e 0c3f
00000150: 8e20 c9be 712d 073f f2de 04bb e9d0 ba3e
00000160: 9d01 0080 dca7 36bf 22e6 4b07 08f7 083b
00000170: 6681 cfbc cff0 3034 6f32 e300 e6fe 77b6
00000180: 5807 6300 777e 7bb7 67d5 4380 3d33 0000
00000190: 2f1d 1bb9 81dd 1dbc 0031 65ba 81db 10b7
000001a0: 326a 0180 d17d c1ad 58a1 2414 a8de f3ab
000001b0: 3f46 e2b9 82ea 2fb0 0bc6 1408 9bdf 0eb4
000001c0: e4df 2417 e3eb bca7 a679 66b1 4144 8bb9
000001d0: d022 203a a572 eeba ee62 0080 3604 4b1f
000001e0: 8cb1 8d3d ffb5 a535 208b c2bd 0e3e 74b4
000001f0: 4385 0180 3d91 2fbf 5bed 3c3b 9594 b7bd
00000200: ab1e ec3d 77d6 703b f645 8abe 600d c9be
00000210: e933 543e cd9b b5be 29d5 1b10 7b97 9b2d
00000220: ca6d 083d 571b c43d 6c50 1cbe f041 183f
00000230: aa61 043f 2b07 0abf 3934 2dbe 916f 49be
00000240: b401 613b 3971 e8be ff66 42ba 1198 cfbe
00000250: 6a21 0180 850e 15be db42 7ebe c292 3a37
00000260: b1db 58be c76e d5b3 8ed3 0080 d8cf 2bbc
00000270: 03fa 00bc 9043 4c3e 9721 c3bc 78d6 71ba
00000280: affd babe 7ed4 61be 1ede b43c 02af 0cbf
00000290: c87d c88e e38f bc13 dfc8 1fbe 3892 553e
000002a0: 0ae5 e7be bce7 a13d c9b4 48be 5ef6 0b3f
000002b0: cd23 5b38 7c39 09be 3a3f febb 8ba8 a2be
000002c0: d1eb 0136 28e6 e3be 1af4 2d8f 8f22 8cb5
000002d0: baa5 aa36 695b 2380 bc3d 78bc a96b 0980
000002e0: b8f4 1380 74d2 f339 726a b735 f955 fb37
000002f0: 60df 6139 8443 8db5 ebd6 05bd da82 5abe
00000300: 2498 60bb 89f1 9ebc bff2 7280 0957 0100
00000310: d869 b9b5 7f20 b535 f77b 02bc 192d ba3b
00000320: 6811 1f35 e6a0 34be fef7 9ab6 5f73 1f37
00000330: b9c5 61b8 4213 47b7 083f d438 d230 e6b7
00000340: 1c0c 0180 b6de 9037 7cdb 6139 cf1e 9880
00000350: c7e0 e5ba 6240 669e 254f 8830 c801 edb9
00000360: c1e5 f1b9 c6b3 c2b9 3d9e 4480 ee10 0200
00000370: bbf9 dab8 fc5d 38bb 427e e0b9 7dd7 c4ba
00000380: c257 0000 b0a1 ba9f 4445 b2b9 d0be c137
00000390: 4edb c0ba 542e 19ba b373 1a39 e361 02b9
000003a0: 8698 c7ba f587 98ba d0bc d13a f10f 62ba
000003b0: 30b3 703a a82d 2cbb 5d7a 0180 f6f7 1eba
000003c0: 5451 59b4 ccf5 8020 2b84 1bbf 5b88 0000
000003d0: fe89 5f00 33c1 f2ba 40cc a930 95f6 51be
000003e0: b8ea 21a8 e9ce 531f e748 27bb 18af b7bb
000003f0: f217 59bb 53ff e4bd 862e 0000 9a66 e0b6

1.linears.2.bias f4 [30]
-0.8553346 -0.40072078 0.7664765 -0.0048887213 0.5190493 -1.0725964 -0.03528961 -0.00101166
-0.36925453 -5.3098715e-12 -0.009464995 0.14555007 -0.16718364 -0.0010188752 -0.17495939 -1.1228321
0.63880455 -0.27234846 -0.4511016 -0.0026009448 0.9896238 -0.6407093 0.059184834 -0.0020959515
-4.855539e-05 -2.9841335e-06 -0.22026615 -0.7760335 -0.11792202 0.12959015
00000000: 35f7 5abf 462b cdbe ce37 443f 9131 a0bb
00000010: 6ae0 043f d74a 89bf d78b 10bd ad99 84ba
00000020: ee0e bdbe 12d3 baac 1113 1bbc 140b 153e
00000030: 3032 2bbe c78b 85ba 8e28 33be f6b8 8fbf
00000040: b288 233f 4271 8bbe caf6 e6be 9d74 2abb
00000050: fc57 7d3f 8605 24bf cc6b 723d 3b5c 09bb
00000060: f4a7 4bb8 0643 48b6 738d 61be 22aa 46bf
00000070: 1a81 f1bd 48b3 043e
