backup/stable_controller/test_Controller.pt (torch_old, 661567 bytes, 6 tensors)

_input_linear.weight f4 [400, 5]
000000 c3 4d d7 b2 c9 62 34 b3 47 a9 80 b2 16 3b ad b1
       -2.5064656e-08 -4.199936e-08 -1.497814e-08 -5.04168e-09
000010 78 72 91 b0 68 6e ff 38 22 e7 35 b9 38 ea c6 38
       -1.0582673e-09 0.00012179912 -0.00017347609 9.4850024e-05
000020 0d a0 14 b8 20 9d 22 b9 de 9e 04 b7 8e 36 17 38
       -3.543501e-05 -0.00015508058 -7.904802e-06 3.6052013e-05
000030 53 17 13 b7 a0 a4 fa 36 56 d8 d2 37 d3 79 bf 33
       -8.767313e-06 7.4697455e-06 2.513469e-05 8.91629e-08
000040 4a 9b ca b3 f4 9d 0d 32 21 a5 cd 32 fb 3d 8b b4
       -9.434605e-08 8.243195e-09 2.3940233e-08 -2.5935864e-07
000050 e8 38 84 b4 b1 6f d3 32 98 af d1 33 4a ec df b3
       -2.462832e-07 2.4614424e-08 9.764261e-08 -1.04272274e-07
000060 f2 4b 00 35 54 6a a9 37 77 93 0d b5 a6 b7 a4 36
       4.779423e-07 2.0195883e-05 -5.274118e-07 4.9089604e-06
000070 d4 3c 17 b8 01 84 c7 38 27 9a c0 35 32 d6 31 36
       -3.6057856e-05 9.513647e-05 1.4349979e-06 2.6499733e-06
000080 e9 95 a2 34 af 05 2b 35 7f 4d 1e b6 e5 3e 88 b6
       3.0283925e-07 6.3710735e-07 -2.3588943e-06 -4.0604377e-06
000090 85 9d 1d b8 84 b7 92 b7 7b be 50 37 0d 57 cd b7
       -3.757842e-05 -1.7490012e-05 1.2442116e-05 -2.447844e-05
0000a0 f3 72 b8 b7 17 ee 83 b8 3b 33 bd 37 08 c1 7c b7
       -2.1988037e-05 -6.2909145e-05 2.2554412e-05 -1.5065314e-05
0000b0 4b 9d ee b7 d7 0b 38 35 57 4b 98 b4 66 58 62 b3
       -2.8445056e-05 6.856257e-07 -2.8367023e-07 -5.2700123e-08
0000c0 af 97 54 34 6b 4b 4c b5 b8 32 3c b6 75 00 4d b5
       1.9799221e-07 -7.610567e-07 -2.8043705e-06 -7.6369116e-07
0000d0 0e b0 9a b5 33 21 aa b5 18 a9 08 35 c4 67 30 b8
       -1.1525133e-06 -1.2675649e-06 5.091001e-07 -4.205831e-05
0000e0 a1 65 ae 38 79 1b 2e b8 e2 42 7d b6 d3 f0 9f 38
       8.3158964e-05 -4.151042e-05 -3.7738869e-06 7.626568e-05
0000f0 3c a8 d2 bd 54 1a 40 3d b5 63 a8 3c 6a 36 79 3a
       -0.102859944 0.04690011 0.020555357 0.00095067045
000100 1f 51 86 3c 3f a3 a8 3b 68 0c 3c b9 23 a9 21 39
       0.016396103 0.0051464136 -0.00017933699 0.00015417165
000110 3c a7 da b8 61 80 06 bb 91 95 c6 38 df ba 14 b9
       -0.000104262 -0.0020523297 9.469235e-05 -0.00014183995
000120 46 b2 87 38 7a 40 b6 36 60 37 06 b9 20 8e 03 ba
       6.470508e-05 5.4315287e-06 -0.00012799865 -0.00050184317
000130 91 18 8d 3a 51 6d ab 39 93 4c cc 39 44 59 09 3a
       0.0010764768 0.0003269711 0.00038966964 0.0005239437
000140 0a 92 05 b9 45 af 5d b8 c4 71 af 38 27 26 72 b9
       -0.00012738272 -5.285374e-05 8.365841e-05 -0.00023093131
000150 64 58 a5 38 d9 67 85 3d d4 33 8c 3d 1c 31 50 3e
       7.884277e-05 0.06513948 0.06845823 0.20331234
000160 0c 91 10 3d 95 3f 98 3c 48 e1 06 34 60 36 6a b5
       0.035294577 0.018585006 1.256168e-07 -8.725092e-07
000170 80 cb 49 30 6a e8 26 b5 12 41 6a 34 10 94 d6 34
       7.3412565e-10 -6.2178026e-07 2.181662e-07 3.9968336e-07
000180 cc ce e4 34 2d 44 29 34 01 72 46 34 4b 36 29 b5
       4.2618774e-07 1.5764154e-07 1.8481661e-07 -6.303641e-07
000190 38 29 e5 34 b4 31 37 35 40 b9 ff 33 92 20 50 33
       4.2684565e-07 6.824514e-07 1.19080596e-07 4.8458396e-08
0001a0 2c 62 64 b4 f4 6a 34 35 e8 3d 3a 35 14 9d ca 33
       -2.126987e-07 6.721086e-07 6.9380485e-07 9.43493e-08
0001b0 22 ee 5b 34 a5 62 5a b5 3e f0 53 3a c3 18 5b 3b
       2.0482597e-07 -8.1354875e-07 0.000808481 0.0033431507
0001c0 ea 0b 18 3a 4a f5 86 3a 20 f9 4e 3a ef c4 b5 b3
       0.0005800115 0.001029649 0.0007895399 -8.464291e-08
0001d0 8a 6c 1c b3 66 a4 29 32 f5 6c 88 b2 fb 50 ca 33
       -3.6420296e-08 9.874475e-09 -1.5882032e-08 9.421088e-08
0001e0 c5 78 96 36 b2 c4 e7 36 22 cb 24 34 3c fc f3 34
       4.484408e-06 6.907235e-06 1.534759e-07 4.5445802e-07
0001f0 e4 29 89 b3 96 67 75 3a 96 0c 96 39 8c 86 61 39
       -6.3871795e-08 0.0009361444 0.00028619607 0.00021507795
000200 6a 67 d3 38 5e af c6 b9 71 70 35 b6 19 63 70 b6
       0.000100805264 -0.00037896162 -2.7036551e-06 -3.582047e-06
000210 86 ae 1c b5 a3 98 91 b4 0c b9 67 b3 0a 2a d3 36
       -5.8368494e-07 -2.7119412e-07 -5.3952178e-08 6.293184e-06
000220 39 1e 6d 37 30 ff 5f 34 29 c8 54 35 0d 01 bb 36
       1.4133338e-05 2.086133e-07 7.9267426e-07 5.5731566e-06
000230 bc 8c c0 3b 12 e4 fd 3a 0f 4e 80 39 c3 fd 57 3a
       0.005876152 0.0019370338 0.0002447222 0.00082394126
000240 85 29 16 bb 1f 45 ca 36 69 2f 81 36 8d 87 bb b4
       -0.002291293 6.028116e-06 3.850019e-06 -3.493009e-07
000250 66 6a 3c b5 90 67 8f b4 c1 82 34 38 ca 4a 1d 38
       -7.019029e-07 -2.6711177e-07 4.303712e-05 3.750137e-05
000260 fb e7 85 b5 bd 44 2a 37 a3 42 46 b6 98 e5 d0 33
       -9.976787e-07 1.0148794e-05 -2.9543087e-06 9.7275176e-08
000270 ec 08 26 34 d8 6e 81 32 78 4b c8 33 00 17 b2 b4
       1.54632e-07 1.5067982e-08 9.3269534e-08 -3.3171818e-07
000280 f8 e5 7f 34 fb 9b 98 34 bf 43 49 33 e3 6d 8f 33
       2.3832388e-07 2.8425697e-07 4.6860574e-08 6.678945e-08
000290 ac 62 87 b4 df 28 86 b8 5a ac 9f 38 28 f3 d5 b7
       -2.5217503e-07 -6.397231e-05 7.613814e-05 -2.5504807e-05
0002a0 7a 2d 9d 37 51 86 8f 38 5a 10 ab b4 e2 80 8b b5
       1.8737035e-05 6.84379e-05 -3.186313e-07 -1.0393817e-06
0002b0 6a e8 bd 34 08 63 b0 b2 fe 64 25 b5 99 76 85 b4
       3.5373097e-07 -2.053413e-08 -6.1614253e-07 -2.4859472e-07
0002c0 dc 26 9d 34 b8 58 9d b1 6d b1 9e b3 22 db 89 35
       2.9271803e-07 -4.5793875e-09 -7.389722e-08 1.0271071e-06
0002d0 4a 3d 0f 37 65 28 4d 37 2c 2a 29 34 a7 a6 57 35
       8.537734e-06 1.2228357e-05 1.5754694e-07 8.033625e-07
0002e0 73 9f 13 b6 3c e0 80 b7 48 51 08 b7 54 8f 5c 37
       -2.1997519e-06 -1.5363206e-05 -8.1251565e-06 1.3146393e-05
0002f0 e1 44 55 b8 fa 6f bd 36 1e 39 16 b6 55 9d 20 b6
       -5.0847306e-05 5.6456747e-06 -2.2384988e-06 -2.3933437e-06
000300 35 1f c6 b4 47 09 22 b5 3f 3e 3d 35 f5 bc 78 36
       -3.690308e-07 -6.0363203e-07 7.0498567e-07 3.7064867e-06
000310 c5 9d fa b5 ca fa 99 b5 18 a9 56 35 33 65 cc b5
       -1.8672368e-06 -1.1472378e-06 7.9967276e-07 -1.5228637e-06
000320 85 8b 32 bb 55 f8 89 3a ca 01 da b9 a8 85 04 39
       -0.0027243805 0.0010526279 -0.00041581533 0.00012638292
000330 fc 9b ff 3a e6 19 1b 33 f0 76 5b b5 3c e4 74 b4
       0.0019501443 3.6112304e-08 -8.1756934e-07 -2.2807302e-07
000340 25 db c9 33 5c f8 f5 b4 13 4a 11 b7 07 25 21 b7
       9.399654e-08 -4.581551e-07 -8.65992e-06 -9.604969e-06
000350 22 d5 6d b5 02 86 c2 b5 98 f1 d8 36 69 93 d7 b5
       -8.859953e-07 -1.4493128e-06 6.465427e-06 -1.606165e-06
000360 88 82 f7 34 a8 13 86 b5 1e 6c 52 b4 6a c8 aa 36
       4.610231e-07 -9.989499e-07 -1.9597107e-07 5.089726e-06
000370 7a 72 60 b4 7c 20 89 b4 4c a4 06 b2 6d 35 2d b2
       -2.0903272e-07 -2.5541874e-07 -7.837183e-09 -1.0082073e-08
000380 1e 73 30 33 60 3e 40 b9 13 1c 6c 39 f2 d4 9b 38
       4.108289e-08 -0.00018333783 0.00022517172 7.43064e-05
000390 33 a8 cf 38 11 23 27 39 65 68 f4 33 7c be 3c 34
       9.901859e-05 0.00015939424 1.1381125e-07 1.7578162e-07
0003a0 48 1e 90 b0 77 84 05 33 24 37 9f b3 3d 08 e8 34
       -1.0485985e-09 3.108695e-08 -7.4140445e-08 4.3219362e-07
0003b0 dd b9 a3 35 98 c5 87 34 ee 73 6c b2 2a b9 59 35
       1.219854e-06 2.5289478e-07 -1.3763367e-08 8.110825e-07
0003c0 b9 51 f5 34 ba 33 74 34 f2 c6 db b1 47 dd 83 34
       4.5694267e-07 2.2743089e-07 -6.3963563e-09 2.4561652e-07
0003d0 e7 61 23 b3 d5 07 fd 30 06 a5 3f 33 ee 59 c5 32
       -3.8040437e-08 1.8410399e-09 4.462074e-08 2.2974714e-08
0003e0 b1 59 e0 b2 d4 e6 60 34 a5 1e 24 36 bd 33 b7 36
       -2.6117819e-08 2.09456e-07 2.4455742e-06 5.459848e-06
0003f0 d7 1b 1f 36 45 17 3c b5 57 84 f1 35 6d 26 28 35
       2.3709051e-06 -7.006932e-07 1.7994415e-06 6.2640794e-07

_input_linear.bias f4 [400]
000000 7d 6d 49 32 9a bb 38 38 e9 73 b5 b6 ca d2 9e 34
       1.1724635e-08 4.4043736e-05 -5.407714e-06 2.9583163e-07
000010 38 1c 88 b4 0b 29 21 b8 5f 55 98 35 ee 7f 8a b7
       -2.5352506e-07 -3.8423615e-05 1.1349729e-06 -1.6510454e-05
000020 81 23 60 37 8c 01 3a 35 5d 74 49 b6 77 ef 82 b7
       1.3359707e-05 6.929265e-07 -3.0019066e-06 -1.5608717e-05
000030 fe f0 d0 3a 14 fd eb 39 28 b9 e3 36 e4 56 fb b8
       0.0015940962 0.0004501125 6.786682e-06 -0.00011984797
000040 31 aa 9a b9 8c e2 ff bc 5d b6 78 b5 bf e1 93 34
       -0.0002949997 -0.031235956 -9.2652573e-07 2.7545136e-07
000050 d6 1e b0 b3 37 b3 16 35 78 9e fb b7 f8 98 6c b3
       -8.201248e-08 5.6140146e-07 -2.9995324e-05 -5.5087156e-08
000060 dc 86 10 b6 1c 31 31 39 84 b3 a8 35 ef 90 7d b6
       -2.153617e-06 0.0001689833 1.2569221e-06 -3.77843e-06
000070 03 4d b7 39 f4 64 f0 35 43 b4 31 36 c6 f8 64 34
       0.00034961858 1.7910775e-06 2.6479981e-06 2.1324658e-07
000080 c9 14 a4 33 e5 ee ad b7 d0 2d fe 34 90 27 99 b3
       7.640626e-08 -2.0734451e-05 4.734452e-07 -7.131814e-08
000090 c8 61 09 b6 7e a5 fb b7 78 e3 bd 35 9e f3 a6 36
       -2.0471507e-06 -2.9998595e-05 1.41478e-06 4.9755463e-06
0000a0 b6 20 95 b9 41 25 08 35 f4 01 f1 b5 20 02 2e b6
       -0.00028443866 5.071816e-07 -1.7956468e-06 -2.5929257e-06
0000b0 f3 00 bb 33 2c f6 60 b8 a4 18 ce b1 ae da 93 b5
       8.708039e-08 -5.3635027e-05 -5.9981904e-09 -1.1015998e-06
0000c0 6a a4 19 35 ba 0c 2b b4 d6 90 1f b6 65 bf be 35
       5.7236196e-07 -1.5930246e-07 -2.3777152e-06 1.4211806e-06
0000d0 c9 75 90 bf 70 3c 98 38 02 bd 35 3f fc 82 5a 36
       -1.1285945 7.259182e-05 0.7099153 3.2560774e-06
0000e0 7a 98 b0 33 aa 0f 76 38 5e cd 9e 37 3c 08 ef 38
       8.223374e-08 5.866556e-05 1.89307e-05 0.00011397942
0000f0 d0 9a 27 b9 f0 db fb 36 88 dd 93 3a c1 70 bc b5
       -0.00015984033 7.505987e-06 0.0011281231 -1.4039907e-06
000100 21 ae c2 b3 b0 90 04 b8 3a 68 8c b7 c4 7b 99 34
       -9.065503e-08 -3.1606003e-05 -1.6737835e-05 2.8588522e-07
000110 4f 1b 3d 36 b1 d2 27 b5 00 17 53 32 96 dd 6a b4
       2.817909e-06 -6.2518944e-07 1.2287046e-08 -2.1873561e-07
000120 9e ed 03 b5 1c 0b bf 36 e5 85 a2 b7 ca 06 79 b9
       -4.914708e-07 5.693537e-06 -1.9374254e-05 -0.0002374902
000130 f8 72 dc 38 af ba 8e 35 b5 23 2c b7 e6 da 6b 37
       0.00010511832 1.0634157e-06 -1.0260313e-05 1.4058058e-05
000140 b8 63 49 36 90 40 a8 ba 89 78 0b b3 03 ac 31 b7
       3.0009378e-06 -0.0012836624 -3.2473086e-08 -1.0590072e-05
000150 f5 66 ea ba bf 43 28 3a 2a 63 55 37 08 cb 2a b7
       -0.0017883467 0.00064187864 1.2718878e-05 -1.01800615e-05
000160 cb 87 10 ba c6 af 58 37 72 30 63 36 80 87 07 39
       -0.0005513399 1.2915529e-05 3.3853835e-06 0.00012925081
000170 e7 33 9a 39 6e 78 8f 35 a2 2c aa 38 36 56 08 3a
       0.0002941184 1.068938e-06 8.114545e-05 0.0005200835
000180 78 18 e0 b6 61 92 a6 32 a8 8c ea 36 b4 57 8b 34
       -6.6785688e-06 1.9391509e-08 6.990118e-06 2.595458e-07
000190 22 b9 21 37 d4 4f 7f 3e 7c ea 4f b5 a8 56 c4 35
       9.639452e-06 0.24932796 -7.745473e-07 1.4628358e-06
0001a0 c7 6e 85 3a 7b bb d9 36 43 eb 14 36 97 04 48 b7
       0.0010180109 6.4889296e-06 2.219066e-06 -1.1921998e-05
0001b0 a6 29 89 bb 03 d8 2b bb 43 bc 98 35 75 3b bc 33
       -0.004185873 -0.0026221282 1.1379674e-06 8.7652474e-08
0001c0 40 92 19 b3 7f 34 9a b7 88 54 55 3f b0 c6 35 b6
       -3.5756102e-08 -1.8382676e-05 0.8333211 -2.7086753e-06
0001d0 83 97 83 b8 45 b1 cf 35 ea 5c c2 3a 8a be 58 3f
       -6.274788e-05 1.5474294e-06 0.0014828716 0.8466574
0001e0 0c 0e 21 b8 ed b3 76 3f 6e 9c 00 b8 01 8c 28 37
       -3.8398473e-05 0.96368295 -3.0663265e-05 1.00461775e-05
0001f0 16 e7 9a b5 31 5e 57 b7 f4 c4 8e 35 2d e0 ac b4
       -1.1541149e-06 -1.2836929e-05 1.0637145e-06 -3.2200606e-07
000200 4a 04 04 b9 66 d7 4d 34 42 15 69 b4 b8 b3 a7 34
       -0.00012590099 1.9170474e-07 -2.170755e-07 3.1236937e-07
000210 84 c0 b1 b4 31 2b 50 be 97 af 2e b6 d9 5f 87 bd
       -3.3108893e-07 -0.20328976 -2.6030227e-06 -0.06610078
000220 87 13 58 37 3d 80 a1 b6 28 b5 ea 39 dd 48 98 37
       1.287915e-05 -4.813103e-06 0.0004476693 1.8153742e-05
000230 84 fd 90 b6 2b cb 3c 39 ce 44 7d b4 10 dd 29 b8
       -4.3210475e-06 0.00018004763 -2.3587492e-07 -4.049862e-05
000240 e1 a5 bd 37 24 10 ba 36 85 b6 0d 3e 59 c2 67 35
       2.26078e-05 5.545111e-06 0.13839157 8.633702e-07
000250 df 3e 89 b6 7f 33 8e b9 3d 02 db b6 3d 37 67 35
       -4.0902373e-06 -0.00027122718 -6.526969e-06 8.613459e-07
000260 4b 63 11 39 22 21 43 36 ec 55 b4 36 e4 19 2c 35
       0.00013865267 2.907655e-06 5.3744207e-06 6.411267e-07
000270 db 15 13 35 90 30 e9 b7 18 44 c6 3d 04 8f 53 b6
       5.479357e-07 -2.7798378e-05 0.096809566 -3.1524696e-06
000280 0e 6d 47 b6 a4 77 9c 36 e6 42 dd b6 0e ce 7c 35
       -2.971679e-06 4.6630903e-06 -6.5941013e-06 9.4177165e-07
000290 2d 48 84 b8 23 d1 24 36 4c b6 fe 34 02 29 a3 b2
       -6.307694e-05 2.4559638e-06 4.7443825e-07 -1.8994346e-08
0002a0 c1 7d 7e b8 58 af 95 38 ff 10 fa 38 29 c1 f8 b8
       -6.0675437e-05 7.137534e-05 0.00011924095 -0.000118615404
0002b0 25 64 6d b9 81 b3 8a 34 b2 08 e5 b3 e3 78 68 3b
       -0.00022639388 2.583511e-07 -1.0665225e-07 0.0035472445
0002c0 86 dd 69 3e 7e 1c 22 b7 4e bb 42 bf 60 53 1b b7
       0.2283841 -9.662586e-06 -0.76067054 -9.258132e-06
0002d0 4a 32 1b 3b a2 1d 9b b7 d0 59 32 b9 5a bc f6 b5
       0.0023681098 -1.8491239e-05 -0.0001700886 -1.8383246e-06
0002e0 01 b7 ea be 0d 09 dc 37 3c 09 bd 36 d2 3f 21 33
       -0.45842746 2.6230258e-05 5.633714e-06 3.7543778e-08
0002f0 22 72 21 37 d5 5d 87 b8 db 45 10 3a b0 39 d9 b4
       9.622921e-06 -6.454779e-05 0.00055035733 -4.0461373e-07
000300 49 73 57 b5 67 98 5d b7 19 6c 6a b6 a9 be fd 36
       -8.0261503e-07 -1.320811e-05 -3.4931638e-06 7.5621833e-06
000310 36 9c b6 bf c1 b2 bd bb 34 29 af b7 ce 62 5b 35
       -1.4266422 -0.0057891314 -2.0880812e-05 8.172764e-07
000320 d1 2f ac b8 57 e3 31 b3 6a 2e 44 b9 ac 0d f6 b4
       -8.2105056e-05 -4.141779e-08 -0.00018709307 -4.5831018e-07
000330 19 59 47 35 a5 91 14 b5 24 88 d4 b7 d6 23 11 bb
       7.426293e-07 -5.5346237e-07 -2.5335765e-05 -0.0022146604
000340 2f 60 b0 b5 04 a1 0d b6 b2 72 e6 34 50 d9 f3 35
       -1.3141015e-06 -2.110436e-06 4.292429e-07 1.8168157e-06
000350 4a 3c 85 b0 a2 48 a0 37 8d 32 63 b6 8d 2c 5f b6
       -9.694159e-10 1.9107309e-05 -3.385506e-06 -3.3255521e-06
000360 9c 49 8c 33 c8 fd b0 b3 65 e4 c7 36 57 fe c7 33
       6.5326475e-08 -8.241801e-08 5.957251e-06 9.312924e-08
000370 d6 1a db b7 06 f7 59 3b 74 09 16 3d 86 61 9e 32
       -2.611933e-05 0.003325881 0.03663011 1.843797e-08
000380 d7 70 3f 35 2c f6 1b b8 98 bc e9 34 8f ec 1a b7
       7.131725e-07 -3.7184145e-05 4.3536852e-07 -9.234193e-06
000390 1e 3f 28 b5 1d 35 dd 33 02 85 80 35 1a f8 59 b3
       -6.2676725e-07 1.0300776e-07 9.575454e-07 -5.0749897e-08
0003a0 28 c2 04 40 ec 67 dc bd fe 6e 1d 35 fa f1 9a 39
       2.0743504 -0.10762009 5.864857e-07 0.00029553456
0003b0 79 5a 51 b3 48 6a 9c b8 c4 2f 72 3f c7 bc c3 b9
       -4.874389e-08 -7.458456e-05 0.94604135 -0.00037333948
0003c0 70 f6 80 b6 2b 81 fa 35 a3 cf a4 35 1c a8 f0 3a
       -3.8433864e-06 1.8664044e-06 1.2279382e-06 0.0018360647
0003d0 34 3c 48 b8 79 de 89 b2 e6 9f 33 37 2a 0b d5 38
       -4.7739784e-05 -1.6050068e-08 1.0706461e-05 0.00010158711
0003e0 b0 9d 27 b6 f4 56 98 b8 c8 03 5d b6 01 e6 8f b5
       -2.4976725e-06 -7.264121e-05 -3.2933767e-06 -1.072127e-06
0003f0 00 75 bb 35 67 3b 8c b7 39 4d 0b 37 e4 27 40 3a
       1.3966637e-06 -1.6716962e-05 8.303025e-06 0.0007330163

_middle_linear.weight f4 [400, 400]
000000 ae 61 ef 3c 22 22 db 3c 34 95 75 bc 22 29 89 3c
       0.029221382 0.026749674 -0.014989186 0.016743246
000010 00 c6 48 bc af 48 10 3d 10 68 8c bb 2d 84 2e bd
       -0.012254238 0.035225566 -0.004284866 -0.04260652
000020 60 ef 3d bc f3 fa 42 bd 74 80 27 bc d4 11 07 3c
       -0.011592716 -0.047602605 -0.010223497 0.008243997
000030 f9 a1 45 3d d8 b9 a2 bb 4d 23 c1 bc 1f b9 43 bd
       0.048250172 -0.004966002 -0.023576403 -0.047783967
000040 48 f4 34 bc 4b 18 4b bd 8a e4 df 3c fb 97 10 3d
       -0.011044569 -0.049583714 0.027330656 0.03530119
000050 a7 9b 9d bc c0 55 86 ba 23 9c 2b 3d a1 21 15 3d
       -0.01923926 -0.0010248944 0.04189695 0.036409024
000060 82 aa d9 3c 76 4e 91 3c d8 7d 31 3c 33 fa d4 bc
       0.026570562 0.017737608 0.010833226 -0.02599821
000070 98 4b 0d bd d4 39 18 3c 10 47 92 bb 40 6d a3 3a
       -0.03449592 0.009291131 -0.0044640377 0.0012468472
000080 ca 98 15 bd d5 42 16 bd 08 9a 54 bc ab 0c 18 3d
       -0.036522664 -0.03668483 -0.012976177 0.037121456
000090 e0 ca 09 bd cf 4e 00 3d 80 52 46 ba ae 85 87 3c
       -0.033640742 0.031325158 -0.0007565394 0.016543236
0000a0 b0 51 dc bb 6b 86 3c bd 03 b4 1d bd 6a b7 89 bc
       -0.006723605 -0.04602663 -0.03850175 -0.016811091
0000b0 94 5a 6c 3c 58 b3 2b bc 06 fb de 3c 74 7e 32 3c
       0.014425892 -0.010479771 0.027219307 0.010894407
0000c0 2a 5d 30 bd 40 19 b8 bc 51 f2 2c 3d 0c 1d 1a bc
       -0.0430576 -0.022472978 0.04222328 -0.009406339
0000d0 72 72 bb 3c 8f fa 34 bd 70 2c 9f bc 97 7e e4 bc
       0.02288172 -0.044184264 -0.01943037 -0.027892394
0000e0 6c 71 03 3c 70 42 b9 bb a0 1b b9 bc 00 ab 90 3b
       0.008022647 -0.005653672 -0.02259618 0.004414916
0000f0 dd 47 a8 bc ca f4 a3 bc 62 a0 b7 3c 0a 3f a0 bc
       -0.02054208 -0.020014185 0.022415344 -0.01956131
000100 81 26 26 3d 72 83 d8 3c 01 0c 18 3d 13 58 cf bc
       0.040564064 0.026429866 0.037120823 -0.025310552
000110 a1 c4 0f 3d 84 81 71 3c 40 36 81 3a ae 9c 90 3c
       0.03509963 0.014740352 0.0009858087 0.017652836
000120 e2 32 23 bd 6a 82 c7 3c b0 4b ec bb 73 d0 34 3d
       -0.039843448 0.024354178 -0.007211171 0.044144105
000130 d7 a0 00 3d 2c b7 8c bc 17 fe bf bc 7a 7c a4 bc
       0.03140339 -0.017177187 -0.02343659 -0.020078886
000140 7a 3b f8 3c 82 dc 9e 3c 0d 76 c4 bc c9 7d 12 3d
       0.030301798 0.019392256 -0.023982072 0.03576449
000150 18 f0 39 bc 28 f7 69 bc 2a 42 20 bd b1 e7 3b 3d
       -0.011348747 -0.014280118 -0.0391256 0.045875255
000160 d4 2f 17 bc 40 23 b0 ba 1d 11 4b 3d d0 ab a2 3b
       -0.009227712 -0.001343824 0.049576867 0.0049643293
000170 51 95 2c 3d 34 be 1c bc c5 13 2a bd 06 6d a6 3c
       0.042134587 -0.009566832 -0.04152276 0.020315658
000180 cb d5 23 bd 1a ea f8 3c a7 04 3e bd 5d 10 28 bd
       -0.03999881 0.030385066 -0.046391156 -0.04103123
000190 69 b9 32 3d 44 51 51 3c fb 73 0e 3d 01 96 06 3d
       0.043633852 0.012775723 0.034778576 0.0328579
0001a0 fd 69 30 3d da 65 aa 3c 4b 37 46 bd 13 6c cb bc
       0.04306983 0.02080052 -0.048392575 -0.024831807
0001b0 38 1c 2e 3c 14 72 6a 3c f7 07 06 3d aa 91 cd bc
       0.010626845 0.014309425 0.03272244 -0.025093872
0001c0 12 b8 f7 3c f7 e3 d0 bc 30 fc fb bc ab d8 39 3d
       0.030239139 -0.025499327 -0.0307599 0.045372646
0001d0 38 e6 0e 3c e8 6a c4 bb b8 14 33 bc 81 bc 2f 3d
       0.008721881 -0.0059941895 -0.010930233 0.04290438
0001e0 60 98 a4 bc d0 b3 75 3b 13 cf b1 bc 28 ed f0 bb
       -0.02009219 0.003749121 -0.021705186 -0.00735249
0001f0 8c dc 42 3c 36 ff c2 3c 93 d1 12 bd d3 ef d5 bc
       0.011893403 0.023803335 -0.035844397 -0.026115334
000200 c0 f7 31 bc 40 58 2e 3c 80 da 54 ba 8d 57 22 3d
       -0.010862291 0.010641158 -0.0008119717 0.039634276
000210 30 d9 21 bd 87 25 1a 3d 08 c2 0e bd 80 26 be 3b
       -0.039513767 0.037633445 -0.03485301 0.0058029294
000220 68 af 1c 3c e7 47 db bc ff cb 0d 3d 84 6a 65 3c
       0.0095633045 -0.026767684 0.034618374 0.014002446
000230 dd f4 1b 3d d8 1c 3a bd 40 94 8c bb 00 3c ec bc
       0.038075317 -0.045437664 -0.0042901337 -0.028837204
000240 6e 33 f9 3c 34 86 26 3c 58 95 aa 3b 98 8c 82 bb
       0.030420031 0.010163832 0.0052057914 -0.0039840452
000250 f9 ce 46 3d 14 50 41 3c 72 ed 2f bd 9e af 15 bd
       0.04853723 0.011798877 -0.042951055 -0.036544435
000260 06 8e bd 3c 18 2e 86 3b 3d 0d 2e 3d 33 b7 f0 bc
       0.023139011 0.0040948503 0.042493094 -0.029384231
000270 e5 68 11 bd bd 92 38 3d ea 06 f5 bc 2c 07 0b bc
       -0.035500426 0.045061816 -0.029910523 -0.008485597
000280 45 01 49 bd 9d 26 fc bc 80 16 52 bc 92 be dc 3c
       -0.049073476 -0.030780131 -0.012822747 0.02694634
000290 28 33 b2 3b 30 02 77 3b da 31 d9 3c d3 e1 06 3d
       0.005438227 0.0037690513 0.026513029 0.032930207
0002a0 24 35 6c 3c dd ae 48 3d 10 de 9e 3b 6b 71 10 3d
       0.014416967 0.048994888 0.0048482493 0.035264414
0002b0 43 cc a6 bc e4 30 7a 3c 62 22 81 3c 0c 43 5d bc
       -0.020361071 0.0152704455 0.015763465 -0.013504755
0002c0 42 67 90 3c 6c a7 4b 3c 44 ce 8d bc 82 23 da 3c
       0.017627362 0.012430053 -0.01731027 0.02662826
0002d0 80 55 71 ba a8 68 46 bd a4 42 6e 3c 39 86 47 3d
       -0.0009206161 -0.04843965 0.014542256 0.04871199
0002e0 13 80 0f 3d 80 8c 32 ba 1b 4d 44 3d c0 f0 92 bb
       0.03503425 -0.0006811097 0.047925096 -0.004484266
0002f0 e8 f8 a0 bb a2 a7 f4 3c eb 3c 48 3d 7d 8a e4 bc
       -0.0049124844 0.02986509 0.04888622 -0.027898068
000300 8a 43 c3 3c 29 9f 3b 3d d4 d9 02 3c da 0a 0a bd
       0.023835916 0.045806084 0.007986505 -0.033701755
000310 0e 6b aa 3c 50 63 0f bd ae 7a bf 3c 00 52 79 bc
       0.020803 -0.03500682 0.023373928 -0.015217304
000320 31 e9 33 3d f8 db 60 bc 4a b5 9a bc 4a f8 f7 bc
       0.04392356 -0.01372432 -0.018885273 -0.03026976
000330 ea 64 9c 3c 70 6c 9c 3b dd de 17 3d c0 85 fc bb
       0.019091088 0.004773669 0.037077773 -0.007706374
000340 13 d7 2e 3d ac e8 20 3c 8d 95 43 3d 72 37 49 bd
       0.04268558 0.009821098 0.047750045 -0.049125142
000350 50 f7 38 bd a1 8c 46 3d 4d 9c fb bc 2a 3e c6 3c
       -0.04515773 0.048473958 -0.030714178 0.024199564
000360 00 a7 3e bc f2 94 83 3c d0 e9 9c bc 0d f9 1f 3d
       -0.011636496 0.016062234 -0.01915446 0.039055873
000370 38 eb 29 3c c0 3f 58 bc 43 30 23 3d a0 02 0e bc
       0.010371022 -0.013198793 0.039840948 -0.008667618
000380 50 96 e8 bb fe ff 0d bd 40 0b 99 ba d2 85 82 3c
       -0.007097997 -0.03466796 -0.0011676326 0.015932951
000390 3e c9 be 3c 07 63 10 3d 5e 25 a4 3c 00 9d 63 bb
       0.02328932 0.03525069 0.02003735 -0.003473103
0003a0 80 e3 38 bb 7f a3 27 3d 00 bc bc ba ca 6a d3 3c
       -0.0028211772 0.040927406 -0.001439929 0.025807757
0003b0 30 c5 37 bb 13 75 16 bd 00 10 a8 b9 84 f5 74 3c
       -0.0028041117 -0.036732744 -0.00032055378 0.014951114
0003c0 d6 83 d8 3c 1e 6b ac 3c 98 fe 04 3c ff 41 3d 3d
       0.026430052 0.021047171 0.0081173405 0.046205517
0003d0 78 e8 46 bc 30 6a 07 bb a0 bf 55 3b d0 3f a9 bb
       -0.012140386 -0.0020662658 0.0032615438 -0.0051650777
0003e0 9c 98 66 3c cf 42 43 bd db a0 45 bd e0 02 43 3b
       0.014074471 -0.047671136 -0.048249107 0.0029756352
0003f0 b9 78 35 3d 32 ed f2 3c c2 cc 9a 3c 5a f1 fe bc
       0.044304583 0.02965412 0.018896464 -0.031120945

_middle_linear.bias f4 [400]
000000 88 c5 6b bc 00 3f ff 3a 6b c0 37 3d 40 65 08 bd
       -0.014390357 0.0019473732 0.04486124 -0.033299685
000010 96 8a 89 bc 54 28 27 bc ad 15 33 bd 92 93 2f bd
       -0.016789716 -0.010202486 -0.043721844 -0.042865343
000020 c2 0b ef 3c dc a8 6e 3c e2 bf da 3c c0 4d c9 3b
       0.029180411 0.014566626 0.026702825 0.0061433017
000030 58 51 48 bc a1 ec 37 3d bb 64 09 3d b0 28 35 bb
       -0.012226425 0.0449034 0.03354333 -0.002764266
000040 13 7b 3d bd f6 93 05 bd ef b3 25 3d 28 66 c5 bb
       -0.04625995 -0.03261181 0.0404548 -0.006024141
000050 57 00 f3 bc 78 cc 79 bc fd b7 16 bd f0 96 e4 bc
       -0.029663248 -0.015246503 -0.03679656 -0.027904004
000060 0c 83 3e bc 0a 57 0b bd 08 74 00 3c 17 4b bd bc
       -0.011627924 -0.034018554 0.007840164 -0.023107095
000070 f2 20 9e 3c d0 19 7b bb 98 a4 2d bc d0 38 25 3b
       0.019302819 -0.0038314946 -0.010598324 0.0025210865
000080 cd d6 1d 3d 94 6e 3a bc 77 f3 38 3d 95 0d 19 3d
       0.038534928 -0.011378903 0.04515406 0.03736647
000090 02 78 c6 3c a2 e3 cf 3c 37 7a d4 bc 78 e2 28 bd
       0.024227146 0.025377098 -0.025937183 -0.041231602
0000a0 58 44 8d 3b 3e 4a b7 3c 52 11 16 bd ba 7b 94 bc
       0.0043111257 0.022374269 -0.03663761 -0.018125404
0000b0 e4 b9 80 bc ee 8b f4 3c eb 9d 23 3d 64 ec 67 3c
       -0.01571364 0.02985188 0.039945524 0.014155481
0000c0 20 09 11 3c 8a 52 29 bd 98 47 df bb b3 06 33 bd
       0.008852273 -0.04133848 -0.0068139546 -0.04370756
0000d0 a6 7d 1a bd 08 58 3f bc c0 ce 8b bb a0 05 0b bb
       -0.037717484 -0.011678703 -0.00426659 -0.002121307
0000e0 fb e6 12 bd b0 0e 83 bc 58 19 ea bb d0 21 02 3b
       -0.03586481 -0.015998214 -0.0071441345 0.001985658
0000f0 83 95 32 3d 00 c0 e1 36 aa 05 a2 3c d7 23 09 3d
       0.043599617 6.7278743e-06 0.019778091 0.033481445
000100 ac 7c 65 bc c9 4c 26 3d 03 ce f1 bc 0b b3 12 bd
       -0.014006775 0.04060057 -0.02951718 -0.03581528
000110 20 21 3d bd 29 4d 1b 3d 9b 46 14 3d b2 5c c5 3c
       -0.04617417 0.037915383 0.036200147 0.024092052
000120 d4 86 39 bc 82 db ec 3c 00 3f ed bc f6 2c f9 3c
       -0.011323649 0.028913263 -0.028960705 0.030416947
000130 3d 05 1d bd 93 bb 12 3d 28 bb a1 3b e7 d1 1b 3d
       -0.038335074 0.035823416 0.004935641 0.038041975
000140 2c 54 6f 3c 32 81 a5 3c 83 73 c7 bc 4a 05 f8 bc
       0.0146074705 0.020203207 -0.024347072 -0.03027596
000150 35 b7 0a 3d b0 fe 4d bb fb 3f 10 bd d1 66 2a 3d
       0.033866126 -0.0031432323 -0.035217267 0.04160196
000160 60 6c 90 3a 3c 62 08 bd f0 46 81 3b 88 f4 07 bc
       0.0011018626 -0.03329681 0.003945224 -0.008298047
000170 30 3f 3d bb ba 32 bb 3c 02 07 f8 3c f7 16 40 bd
       -0.0028876774 0.022851337 0.03027678 -0.0468969
000180 56 b5 c1 3c 56 c8 1f bd 40 97 23 3c 6d a5 4b bd
       0.023646038 -0.039009415 0.009984791 -0.04971831
000190 49 be 04 3d 26 c5 80 3c d0 6c d2 bb da e8 2e bd
       0.032408033 0.015719008 -0.006421663 -0.042702533
0001a0 0d 8d c5 bc e0 fd 37 bd 89 20 13 3d 02 3d 46 bd
       -0.02411511 -0.04491985 0.0359197 -0.048398025
0001b0 06 97 13 bd ec e5 32 bc 00 2c 96 38 5d 75 49 bd
       -0.0360327 -0.010919075 7.160753e-05 -0.049184192
0001c0 22 a0 e7 3c bd a5 4b 3d 4c 81 01 3c 28 aa 28 bc
       0.0282746 0.049718607 0.007904362 -0.010294475
0001d0 e2 53 ef 3c c6 67 c8 3c 20 d6 07 3c e8 e7 14 3c
       0.029214803 0.024463546 0.0082907975 0.009088494
0001e0 37 e5 2c bd 28 06 ea 3b e0 26 8a bc b4 d0 78 bc
       -0.042210784 0.007141847 -0.01686424 -0.015186477
0001f0 92 1e b5 3c 80 00 1b bd 8f 28 03 3d 4d 02 14 3d
       0.022109304 -0.037842274 0.0320211 0.036135007
000200 c0 c3 04 bd 42 ee a7 3c f5 e1 25 bd 97 ac 2a 3d
       -0.032413244 0.020499352 -0.040498693 0.0416685
000210 00 b3 e6 bb a1 0c 2b 3d 23 b7 47 3d 75 f1 15 bd
       -0.0070403814 0.04176009 0.048758637 -0.036607224
000220 3b 3c 05 3d 20 2b 5a bb 43 e6 c2 bc 57 d7 03 3d
       0.032528143 -0.0033289865 -0.023791438 0.032187786
000230 62 73 f4 3c 58 5f 1b bd 54 40 02 bc d6 97 8d 3c
       0.029840175 -0.037932724 -0.007949907 0.017284315
000240 73 82 0f bd 74 82 0f 3c 56 5b 83 3c e9 3e 1a 3d
       -0.035036515 0.00875913 0.016034763 0.037657652
000250 1a b9 29 bd 70 ff fe bb c2 40 b6 3c b1 7f 2f 3d
       -0.041436292 -0.0077819154 0.022247676 0.042846385
000260 57 a8 15 3d a6 3c b0 3c 36 5b 91 bc 2c 95 60 3c
       0.036537495 0.021513294 -0.017743688 0.01370744
000270 f3 ee bd bc 74 74 70 bc 47 e5 dd bc 76 e8 1f bd
       -0.023185229 -0.014676202 -0.027086867 -0.03904005
000280 c0 1a 6b ba 1a f9 f8 bc 70 be 8d bb 3a 39 22 bd
       -0.00089685246 -0.030392218 -0.0043256804 -0.039605357
000290 61 02 14 3d 30 e3 8c bc 16 bf 00 bd c0 82 4a 3a
       0.03613508 -0.017198175 -0.031432234 0.0007725172
0002a0 bc f8 59 3c 97 fa 06 3d ec f0 30 3c b2 3a 44 bd
       0.013303932 0.032953825 0.010799628 -0.04790754
0002b0 70 18 f1 3b 82 c5 32 bd 07 ea 2f 3d 5b 61 48 3d
       0.0073576495 -0.04364539 0.042947795 0.04892097
0002c0 50 b2 cd 3b f0 76 91 3b 98 b2 01 bd 33 ce 31 bd
       0.00627736 0.0044392273 -0.03166446 -0.043409538
0002d0 80 65 1a 3a 52 eb db 3c ee 20 93 3c 24 4f 95 bc
       0.00058897585 0.026845608 0.017960038 -0.018226214
0002e0 62 80 ce 3c 80 f8 22 bb d0 51 34 bd e0 aa 15 bb
       0.025207702 -0.0024867356 -0.044023335 -0.0022837445
0002f0 c3 66 05 3d f3 6e 2a bd 90 bb 3b bd a7 5b 3f 3d
       0.032568704 -0.041609716 -0.04583317 0.046718266
000300 66 c0 16 bd 90 21 aa bc 1e c1 f8 3c e2 f8 ec 3c
       -0.03680458 -0.020767957 0.030365523 0.02892727
000310 68 ec 0c 3c 82 21 a8 3c ed 3f 34 3d 87 98 a9 bc
       0.0086012855 0.02052379 0.044006277 -0.020702614
000320 80 7c 7b bc ac 8e 0c bc 20 d6 42 bb 8a 1b b6 bc
       -0.015349507 -0.0085789375 -0.002972968 -0.022229929
000330 d9 43 34 3d 98 ac be bb 70 9e ae bb 5e 62 ad 3c
       0.044010017 -0.0058189146 -0.005328946 0.02116507
000340 8e 48 82 3c ae 1b f7 3c 1d 42 13 bd 80 6c 92 3b
       0.015903737 0.030164566 -0.035951722 0.0044685006
000350 e0 3f 13 bb 00 b7 17 3c e8 c0 47 3c d0 6c e8 bc
       -0.0022468492 0.009259939 0.0121919885 -0.028372198
000360 d7 b0 cb bc 58 e2 ea bb 60 8c 44 bd 08 b0 47 bc
       -0.024864597 -0.0071680956 -0.047985435 -0.012187965
000370 c1 fd 25 3d 10 e5 80 bb 2a 08 c1 bc 0b 60 11 3d
       0.0405252 -0.0039335564 -0.023563463 0.035491984
000380 b6 78 95 bc f3 f9 a6 bc a1 d3 3c 3d e5 ea 17 bd
       -0.018246036 -0.020382857 0.046100263 -0.037089247
000390 8a 52 b1 bc 06 1d b8 3c 75 e7 29 bd 66 b1 86 bc
       -0.021645803 0.022474777 -0.0414805 -0.016442012
0003a0 72 31 2f bd bf 37 3b bd 0d 2b 3b 3d c9 4c 2b 3d
       -0.042771764 -0.04570746 0.045695353 0.041821275
0003b0 5f 93 48 3d 65 42 1f bd b2 4e a6 3c 68 8a e3 3b
       0.04896867 -0.038881678 0.020301197 0.0069439895
0003c0 9a 82 af 3c c2 d9 ec 3c 60 db 86 ba 26 5e f5 3c
       0.02142458 0.028912429 -0.0010288768 0.02995212
0003d0 8a 15 a6 bc 2a da 17 bd cc 4a 0b bd ea 6b 84 3c
       -0.020273943 -0.03707329 -0.03400688 0.016164739
0003e0 d0 27 14 bb b3 63 37 3d 38 1e 21 bc 0c f4 51 3c
       -0.0022606738 0.044772815 -0.009833865 0.012814533
0003f0 e0 fd 1c 3c ad 43 b0 bc 75 cc 4b bd 81 9f 15 3d
       0.009582013 -0.021516645 -0.049755532 0.036529068

_output_linear.weight f4 [5, 400]
000000 98 99 0e b1 fe 4b 11 39 02 6e b5 b7 c6 6b 6f 34
       -2.0751028e-09 0.00013856587 -2.1628108e-05 2.2297817e-07
000010 a3 4a 5b b4 9e e3 4e b8 53 f3 ca 34 e6 04 69 38
       -2.0423117e-07 -4.9326212e-05 3.7802474e-07 5.555609e-05
000020 17 c2 04 38 4d ca ac 34 49 a4 6c b5 16 94 b8 b8
       3.1652013e-05 3.218469e-07 -8.815592e-07 -8.801387e-05
000030 46 8f fc bd eb 42 68 3b 31 62 64 39 be 75 43 ba
       -0.12332015 0.0035440277 0.00021780354 -0.00074562046
000040 c8 35 4d b9 7d 31 5b bd 78 b6 28 b3 4d 17 15 34
       -0.00019570359 -0.053513993 -3.9281502e-08 1.3885183e-07
000050 bb 98 2f b3 f1 9c a7 34 f7 d8 a5 ba ec a2 19 b3
       -4.088427e-08 3.1220364e-07 -0.0012653162 -3.5771265e-08
000060 8d 2d db b5 99 6a 5b 3a a3 a6 f5 34 15 f3 1f b6
       -1.6330029e-06 0.00083700713 4.575605e-07 -2.3834339e-06
000070 8f aa b2 3b 90 09 f1 31 f6 4e 06 37 98 46 07 34
       0.005452461 7.0151103e-09 8.005407e-06 1.2598537e-07
000080 6c 13 b8 32 7f 79 a3 b8 8b 61 b4 34 2c 6d 9b b4
       2.1429251e-08 -7.795076e-05 3.3598585e-07 -2.8950433e-07
000090 d5 73 79 b6 5b a5 66 b7 b7 75 25 b4 06 2f f5 34
       -3.7171314e-06 -1.3747568e-05 -1.5409647e-07 4.566902e-07
0000a0 55 61 21 bb 45 08 43 35 05 4c 27 b6 95 f8 65 b6
       -0.0024624665 7.2655195e-07 -2.4929188e-06 -3.4268353e-06
0000b0 3e 90 1a 33 20 01 72 b9 ed 04 81 b1 f2 c7 32 b5
       3.5987107e-08 -0.00023079338 -3.754954e-09 -6.6601126e-07
0000c0 9d 15 3d 34 fa d5 56 b3 af 66 f9 b5 d4 d8 85 33
       1.760986e-07 -5.002037e-08 -1.858183e-06 6.232736e-08
0000d0 b6 0a 2f 3f be 2e bd b8 f4 97 0c 3d 33 cb e1 35
       0.6837572 -9.020929e-05 0.0343246 1.6822945e-06
0000e0 e6 97 72 37 ae dc 40 38 88 f9 c9 36 63 97 0a 39
       1.4459691e-05 4.598189e-05 6.019316e-06 0.00013217102
0000f0 7d 40 07 ba a4 6f 54 36 a6 77 1d bc b1 13 1c b5
       -0.0005159451 3.1655445e-06 -0.009611046 -5.8143183e-07
000100 76 9c 08 33 71 32 86 b9 3b 68 db b9 ba 57 03 b4
       3.1807268e-08 -0.00025596053 -0.00041848593 -1.223224e-07
000110 e9 e3 6f 36 31 85 20 b5 9b 57 dc b2 6e e0 64 b3
       3.5746436e-06 -5.9798464e-07 -2.565121e-08 -5.3289504e-08
000120 ec fd 30 35 8c 1d b0 35 da e6 bf b6 06 87 1d bb
       6.5934614e-07 1.3121621e-06 -5.7191182e-06 -0.002403678
000130 90 4c 5e 36 58 9e 27 36 19 47 bd b6 45 2b 92 36
       3.3125143e-06 2.4977107e-06 -5.640916e-06 4.3561763e-06
000140 b5 b4 80 36 08 5c 8d b9 96 7e 19 34 83 be 85 b8
       3.8357343e-06 -0.00026962184 1.4295287e-07 -6.37742e-05
000150 d5 2b 0a bd ee 5f a3 3c eb 46 28 38 3c e5 15 b7
       -0.033733208 0.019943204 4.012037e-05 -8.934465e-06
000160 f2 e9 c7 bc aa 4b 88 b6 a7 17 64 37 fe 76 34 3a
       -0.024403546 -4.0619243e-06 1.3595366e-05 0.00068841863
000170 57 e2 9e bc ff 1d 95 35 80 14 53 bb ca c5 34 39
       -0.019395037 1.1110095e-06 -0.0032208264 0.0001723982
000180 80 1f 76 3a b2 f5 2d 33 81 b8 ee 35 2b 49 d7 b3
       0.0009388849 4.050316e-08 1.778608e-06 -1.0025027e-07
000190 f4 80 35 b8 23 84 67 3e a7 2e a6 b4 72 c4 87 b4
       -4.327386e-05 0.22609 -3.0953854e-07 -2.5288642e-07
0001a0 f4 a3 f7 bc d2 0f 18 38 84 5d 33 35 b9 21 3f b7
       -0.030229546 3.6254358e-05 6.681878e-07 -1.1392339e-05
0001b0 4c b7 13 bb e8 59 42 ba de b7 22 35 79 e5 96 32
       -0.0022539673 -0.000741391 6.0617265e-07 1.756665e-08
0001c0 e4 e1 87 36 61 ec d4 b9 f5 22 f3 3d 95 21 4b b5
       4.0496107e-06 -0.00040611907 0.11871902 -7.567226e-07
0001d0 57 ad 8b b9 9e 92 38 35 07 77 eb 3c ed 5c 00 3e
       -0.00026641294 6.87587e-07 0.02874328 0.12535448
0001e0 05 69 1c b9 1d 1d a7 bc 8a ff 70 bb af 11 c1 37
       -0.00014916442 -0.020399624 -0.0036773407 2.3015627e-05
0001f0 bf b4 44 b6 12 d1 08 b8 a9 5d dd 34 65 85 3b b5
       -2.9311484e-06 -3.261964e-05 4.1232605e-07 -6.9857043e-07
000200 5b b2 b3 bb 8d 05 f3 35 ba 44 a6 36 66 80 d3 b3
       -0.005483908 1.8106526e-06 4.9551863e-06 -9.848809e-08
000210 7a 50 03 b4 02 31 bb bd 7c af 8b b6 d3 61 98 bc
       -1.2229603e-07 -0.09140207 -4.162952e-06 -0.018601334
000220 be 74 06 37 22 9a 9e b7 46 d6 2a 39 b6 bc 23 38
       8.014204e-06 -1.8906841e-05 0.00016292286 3.903798e-05
000230 69 86 5e b7 a6 9a 18 3b ec 5f 1c b4 dc cc ff bb
       -1.3263526e-05 0.0023285537 -1.4563528e-07 -0.0078064036
000240 e6 b9 cc 38 d2 f6 5b b6 61 c6 c8 3e 46 b3 98 34
       9.762104e-05 -3.2777211e-06 0.3921385 2.8442645e-07
000250 4c 43 b7 b5 11 58 e6 ba c3 97 1c 36 5e 79 d0 34
       -1.3654148e-06 -0.0017573853 2.3334148e-06 3.8831325e-07
000260 90 25 8d 3a a8 9c f9 36 dd c0 a4 b5 b9 b8 b2 34
       0.0010768641 7.4390155e-06 -1.2275083e-06 3.3289487e-07
000270 88 8f 63 36 8c 62 a1 b7 4e be 87 3d 43 55 b5 b5
       3.3909182e-06 -1.9238585e-05 0.066280946 -1.3510365e-06
000280 0e 1a 7a b4 72 3a e6 34 e0 cb c1 36 ad 78 7b 36
       -2.3292543e-07 4.2883363e-07 5.7755824e-06 3.7472157e-06
000290 48 b2 aa b8 6c 81 b6 35 fa 27 ef 36 7c 58 76 32
       -8.139439e-05 1.3597723e-06 7.127409e-06 1.4339204e-08
0002a0 35 34 cc b9 1f 45 76 39 41 91 2b 3a fb 08 31 ba
       -0.0003894881 0.00023486138 0.0006544777 -0.00067533524
0002b0 dc 3a 3a bb 08 a6 a7 33 3e 58 ae 2f ba 29 80 3a
       -0.002841643 7.8067444e-08 3.1713115e-10 0.000977806
0002c0 f3 9d 49 bb cb 45 32 b8 0d 16 be 3e 9a 28 ad b8
       -0.003076431 -4.2503507e-05 0.37126198 -8.2568455e-05
0002d0 de 7d e0 bc 07 c5 ee b7 fe 80 6b bb e6 e8 60 34
       -0.027403768 -2.8463559e-05 -0.003593504 2.0946354e-07
0002e0 e2 6d 8c 3b 89 3d 25 39 29 ad 8d 37 22 12 55 b4
       0.00428556 0.0001575855 1.6889144e-05 -1.9843768e-07
0002f0 7d 61 cd 39 5f 70 79 b9 16 71 44 3c 14 12 62 b5
       0.0003917328 -0.00023788352 0.011989852 -8.421787e-07
000300 47 ce 5f b4 22 99 cb b6 65 a6 5a b7 21 ae 50 36
       -2.0843537e-07 -6.0676985e-06 -1.3032554e-05 3.1095772e-06
000310 4c b3 70 bd 58 54 94 3d 50 37 4f b8 f2 1c 07 35
       -0.05876474 0.0724265 -4.940416e-05 5.033354e-07
000320 fc 8f 75 b9 7b a7 87 b2 c4 13 6e 37 33 35 24 b5
       -0.00023418659 -1.579223e-08 1.41905075e-05 -6.1172176e-07
000330 e6 f0 0a 35 28 b5 2c b5 b2 d6 54 b8 67 52 99 ba
       5.175956e-07 -6.433861e-07 -5.074469e-05 -0.0011697531
000340 90 fc 4a 36 f5 68 93 b6 5e bf a3 34 1f 5e 5c 35
       3.0247356e-06 -4.39316e-06 3.0500354e-07 8.209335e-07
000350 95 40 85 32 fb a2 92 38 0d 72 70 b6 11 6f b1 b7
       1.5512606e-08 6.99218e-05 -3.5829173e-06 -2.1151764e-05
000360 1e 01 02 34 7c 88 49 b3 45 39 6c 37 c0 f9 ae b4
       1.21076e-07 -4.692309e-08 1.408003e-05 -3.2591743e-07
000370 0d dc 1a b9 1b 7f ad 3a a2 58 be bd ac 79 b4 31
       -0.0001476856 0.0013236733 -0.09294249 5.252522e-09
000380 01 d8 00 37 27 25 90 b9 80 db 4e b0 18 c3 d8 b6
       7.679687e-06 -0.000274935 -7.525429e-10 -6.4600135e-06
000390 39 a6 7c b6 cf 48 1a 33 df 83 55 35 7b b8 49 b4
       -3.764768e-06 3.5922138e-08 7.954058e-07 -1.8786697e-07
0003a0 90 26 a6 bd 1a de 48 bd 42 b9 7f 35 ac 69 02 3b
       -0.08112824 -0.049039938 9.526449e-07 0.001989941
0003b0 05 13 13 b3 e4 2a 51 ba f6 b6 4a 3e 3e 07 00 bc
       -3.4243403e-08 -0.00079791085 0.19796357 -0.007814227
0003c0 df ca 98 b5 3e 72 40 38 61 90 91 b5 9c 0d 28 bd
       -1.1383926e-06 4.5882764e-05 -1.0845362e-06 -0.041028604
0003d0 21 f2 e2 b8 9c 08 bf b3 88 9d da 36 d5 d2 6f 3a
       -0.0001082162 -8.8956966e-08 6.5152453e-06 0.0009148543
0003e0 85 f1 ee b9 da 51 94 ba ee 83 08 b6 3a 88 12 b6
       -0.00045574844 -0.0011315898 -2.0342372e-06 -2.183499e-06
0003f0 01 6f b8 b6 40 7f 73 b8 27 8a d3 37 10 79 68 3c
       -5.49655e-06 -5.8054226e-05 2.5217492e-05 0.01418902

_output_linear.bias f4 [5]
000000 ac 06 05 be c7 47 27 be 63 e2 5a 3e b2 35 0b be
       -0.12990826 -0.16335975 0.21375422 -0.13594702
000010 93 12 12 bc
       -0.008915561
