model/LogNet/LogNetReal4096.pt (torch_old, 76892 bytes, 4 tensors)

_input_linear.weight f4 [1000, 12]
0	0xbef8ab6a	-0.4856828
1	0xbf32d172	-0.6985084
2	0x3ede02be	0.43361467
3	0x3d8cb723	0.06870868
4	0x3e01f2ee	0.12690327
5	0x3e023a2b	0.12717502
6	0xbe46de91	-0.1942084
7	0xbe9fd956	-0.31220502
8	0xbe3118f4	-0.17294675
9	0xbe83613d	-0.25660124
10	0xbc48c2d6	-0.012253484
11	0xbdb5b80a	-0.08872993
12	0xbe08cfc8	-0.13360512
13	0xbd917bae	-0.07103668
14	0x3e6a7feb	0.2290036
15	0x3e68aa64	0.22721249
16	0xbd4ddaed	-0.050257612
17	0x3e2357a3	0.159514
18	0xbea30f37	-0.31847546
19	0xbe9ecae2	-0.31014162
20	0xbcd2a029	-0.025711136
21	0xbc18f8f2	-0.009336697
22	0x3e1e1fd0	0.15441823
23	0xbe011676	-0.12606224
24	0xbc6ddb1d	-0.014517573
25	0x3f2d0ad4	0.6759465
26	0x3f30632d	0.6890133
27	0xbe566ab3	-0.2093914
28	0xbe54e374	-0.20789891
29	0x3c985902	0.01859713
30	0x3e53f7a6	0.20699939
31	0xbe92e348	-0.28689027
32	0xbea96bb4	-0.33089983
33	0xbe9a760b	-0.30168185
34	0xbe9cf9cf	-0.3065934
35	0x3d4d1bf4	0.050075486
36	0xbcfce048	-0.030868664
37	0x3ecdcd2a	0.4019559
38	0x3ed79fb0	0.4211402
39	0xbd284698	-0.04108295
40	0xbe3e6b6e	-0.18595669
41	0x3d459b3a	0.04824374
42	0x3e10692c	0.1410262
43	0xbd939fc2	-0.07208206
44	0x3db93dd0	0.09044993
45	0xbe5f30ff	-0.21796034
46	0xbe419f9b	-0.18908541
47	0x3d6b363c	0.05742477
48	0xbeb4309d	-0.3519334
49	0xbe846371	-0.25857118
50	0x3ec9d581	0.39420703
51	0xbd9349cb	-0.07191809
52	0xbd9049e6	-0.07045345
53	0x3e87c88b	0.2652019
54	0x3e0fcb71	0.1404245
55	0xbd97d5ba	-0.07413812
56	0x3e0ab81a	0.13546792
57	0xbdba956d	-0.09110532
58	0xbe0626ef	-0.1310079
59	0x3e024426	0.12721309
60	0xbc3d6f3f	-0.011562168
61	0x3f13831e	0.57621944
62	0x3f1cd2e2	0.6125928
63	0xbed44f4f	-0.41466758
64	0x3eb8d66f	0.361011
65	0x3cc5a389	0.024125831
66	0xbe312cf8	-0.1730231
67	0xbe854862	-0.26031786
68	0xbd4e4cdc	-0.050366268
69	0xbe3cbf03	-0.1843224
70	0x3e933fa2	0.28759485
71	0x3e4c56e5	0.19955023
72	0x3e1c5a81	0.152689
73	0x3c164ca2	0.009173544
74	0x3e2b9021	0.167542
75	0xbddc85f7	-0.10767739
76	0xbda78b90	-0.08180916
77	0x3de3d22e	0.11124073
78	0xbeb2e1b9	-0.34937838
79	0xbea1420e	-0.31495708
80	0x3d2ac368	0.04169026
81	0xbca6204b	-0.02027907
82	0xbd5d7600	-0.05406761
83	0xbe33cfba	-0.1755971
84	0x3e4d1fe6	0.200317
85	0xbdf23d5a	-0.11828108
86	0xbe8700c5	-0.26367775
87	0xbe0f1bd5	-0.13975461
88	0x3d671538	0.05641672
89	0x3dbab9ac	0.09117445
90	0xbe9054a8	-0.28189588
91	0xbe9349a7	-0.2876713
92	0xbe10fdb9	-0.14159288
93	0xbd328b3c	-0.043589815
94	0x3d252340	0.04031682
95	0x3d9ec7b4	0.07752934
96	0xbcee3085	-0.02907587
97	0x3eae034b	0.33986887
98	0x3e2e08e0	0.16995573
99	0x3df07129	0.117403336
100	0xbe7e8f56	-0.24859366
101	0xbde0d5fe	-0.10978316
102	0xbe3c87f6	-0.1841124
103	0xbe23a2b8	-0.15980041
104	0xbcf0ed04	-0.029409893
105	0xbe5f6821	-0.21817066
106	0x3daed9ad	0.08537612
107	0x3d528656	0.051397644
108	0xbe3d95bc	-0.1851415
109	0x3d40e23b	0.04709075
110	0x3d800a35	0.06251947
111	0x3d1b490b	0.037911456
112	0x3da53876	0.0806741
113	0xbe215986	-0.15756807
114	0xbea89ae4	-0.32930672
115	0xbe968bba	-0.29403478
116	0x3d7a3d39	0.061093543
117	0x3d5afef1	0.053465787
118	0xbde7bea6	-0.1131566
119	0xbe2bc54a	-0.16774479
120	0x3d9eb1d1	0.077487595
121	0xbdaef79d	-0.08543322
122	0xbe83b412	-0.2572332
123	0xbe37c1bf	-0.17945002
124	0x3dd52238	0.10406917
125	0xbcdaef91	-0.026725562
126	0x3e09db54	0.13462573
127	0xbe9c3fee	-0.30517524
128	0xbdf50fce	-0.11965905
129	0x3de94841	0.113907345
130	0xbede4fe4	-0.43420327
131	0x3e3e6db6	0.18596539
132	0xbe0d4f3c	-0.13799757
133	0x3e04af18	0.12957418
134	0x3e742f94	0.23846275
135	0xbe6a488b	-0.22879235
136	0xbd24c22c	-0.04022424
137	0x3ce2d4d0	0.027689368
138	0xbe4e51e8	-0.20148432
139	0xbe3ad8d8	-0.18246782
140	0xbe24b013	-0.16082792
141	0xbdca05b4	-0.09864369
142	0xbe21c451	-0.15797545
143	0xbdc5481c	-0.096328944
144	0x3e6ba01e	0.23010299
145	0xbd525169	-0.05134717
146	0xbc2952c9	-0.010334679
147	0xbe1693b2	-0.14704779
148	0x3e28ec0f	0.16496299
149	0x3e4385ac	0.1909396
150	0xbd73533f	-0.05940556
151	0x3d8d509e	0.06900142
152	0xbc7c1fd0	-0.015388444
153	0xbe1c078a	-0.15237251
154	0x3c92301b	0.017845204
155	0x3dadd68a	0.08488186
156	0x3e21bd88	0.15794957
157	0x3e1bf999	0.15231933
158	0x3eead2b2	0.45863873
159	0xbe030653	-0.12795381
160	0xbe397d99	-0.18114318
161	0x3e5b1056	0.2139295
162	0x3e11124e	0.14167139
163	0x3d8d7fae	0.069091186
164	0xbe8a9dcf	-0.27073523
165	0x3d0c6815	0.034278948
166	0x3e3fcb62	0.18729928
167	0x3dc8b03d	0.0979924
168	0xbecb253d	-0.39676848
169	0xbdd3ab6a	-0.10335429
170	0x3e4810fc	0.19537729
171	0xbd582c62	-0.0527767
172	0x3d9d957f	0.0769453
173	0xbbf8743a	-0.0075822147
174	0xbe87bed3	-0.26512775
175	0xbd09026d	-0.03344958
176	0x3e605080	0.21905708
177	0x3de6fdc5	0.112788714
178	0xbdf2dd2d	-0.11858592
179	0x3e537713	0.20650892
180	0x3ef66840	0.4812641
181	0xbe9cdabf	-0.3063564
182	0xbe3a1b61	-0.18174507
183	0xbe52ad92	-0.20574024
184	0xbbbde8af	-0.0057955603
185	0x3c8f023e	0.017457124
186	0x3e527293	0.20551519
187	0x3e07c124	0.13257271
188	0x3df9d7d8	0.12199372
189	0xbe6f4259	-0.23365153
190	0x3dbd22c4	0.09235147
191	0x3c5ceb4a	0.013483832
192	0x3d4db5b2	0.050222106
193	0x3e8e6320	0.2781
194	0x3efd0640	0.4941883
195	0xba6265d8	-0.0008636392
196	0x3e61dcda	0.22056904
197	0xbeca9d69	-0.3957322
198	0x3e03e60c	0.12880725
199	0x3e37746c	0.17915505
200	0x3dca456c	0.098765224
201	0xbe3e86b1	-0.18606068
202	0x3e42afcc	0.19012374
203	0xbead87f0	-0.33892775
204	0x3ed51295	0.4161574
205	0xbe9a9c20	-0.3019724
206	0xbdbd2fd4	-0.09237638
207	0x3dbf7e46	0.093502566
208	0x3e3017ab	0.17196529
209	0x3a7a06aa	0.0009537736
210	0xbe971972	-0.295116
211	0x3e4bd630	0.19905925
212	0x3e3580f4	0.17724973
213	0x3c2db9cd	0.01060338
214	0x3e820ffc	0.2540282
215	0x3d591af4	0.05300422
216	0x3c9699a2	0.018383805
217	0xbe9435fb	-0.28947434
218	0x3e9c68f3	0.3054882
219	0xbcf4c17e	-0.02987742
220	0x3ea5ccb9	0.32382753
221	0xbeadeb39	-0.33968523
222	0xbe4bc3f0	-0.19898963
223	0x3e096798	0.13418424
224	0x3e5c278f	0.21499465
225	0x3c47e6c3	0.012201014
226	0x3c2d2a10	0.0105691105
227	0xbe20d13f	-0.15704821
228	0xbd8b0311	-0.06787694
229	0xbd73f74f	-0.059562024
230	0xbd2be113	-0.041962694
231	0xbd973a7d	-0.07384203
232	0xbe8347f4	-0.25640833
233	0x3f102103	0.5630037
234	0xbe56cb90	-0.2097609
235	0xbe950cbf	-0.29111287
236	0x3d78b3a2	0.060718186
237	0xbbffd2ea	-0.0078071253
238	0xbe0b6483	-0.13612561
239	0x3e237bc3	0.1596518
240	0xbd855690	-0.06510651
241	0x3e7a59cc	0.24448317
242	0x3e1c052b	0.15236346
243	0x3e60e249	0.21961321
244	0x3c0ab1b9	0.008465224
245	0xbe306f45	-0.17229946
246	0x3e6633e9	0.2248074
247	0xbe09ece5	-0.13469274
248	0xbe57a1b1	-0.21057774
249	0x3e0237ec	0.12716645
250	0x3dc639ee	0.09679018
251	0xbdfffdf5	-0.1249961
252	0xbddae574	-0.10688296
253	0xbe65268f	-0.2237799
254	0xbdb8c461	-0.09021831
255	0x3e2aeae0	0.1669116

_input_linear.bias f4 [1000]
0	0x3e6af722	0.22945836
1	0xbd84c98b	-0.06483754
2	0xbe39fee5	-0.18163641
3	0xbda6a5ce	-0.081370935
4	0x3dfb9750	0.1228472
5	0xbe112958	-0.14175928
6	0xbe227fb2	-0.15869024
7	0xbcfe7800	-0.03106308
8	0xbd8c5fc0	-0.068542
9	0xbca98de2	-0.020697538
10	0xbdb0e1c4	-0.086368114
11	0x3bcb20c0	0.0061989725
12	0x3d826f3c	0.063688725
13	0xbea6b1cf	-0.32557532
14	0xbe4568d8	-0.19278276
15	0xbd271768	-0.040793806
16	0xbe368092	-0.17822483
17	0xbae17d5c	-0.0017203498
18	0x3e0ac89e	0.13553092
19	0x3e50fddc	0.2040934
20	0x3ded8d1f	0.11599182
21	0x3d3cb675	0.046072442
22	0x3e103da1	0.1408601
23	0x3d24a095	0.040192205
24	0xbe80a435	-0.2512528
25	0xbde21c80	-0.11040592
26	0xbe5d253f	-0.2159624
27	0x3e239945	0.15976436
28	0xbd0c74bc	-0.034291014
29	0xbe3e0b98	-0.1855911
30	0x3e251fa8	0.16125357
31	0xbe00935f	-0.12556218
32	0x3deb2bed	0.114829876
33	0xbdda7d62	-0.10668446
34	0xbd87b1ef	-0.06625735
35	0x3ddd6b34	0.10811463
36	0xbe537f2e	-0.20653984
37	0x3d72f6d2	0.059317417
38	0xbd342eb8	-0.043989867
39	0xbe288989	-0.16458715
40	0x3cf77833	0.030208683
41	0x3daa1c21	0.083061464
42	0xbeb3a5eb	-0.35087523
43	0xbe8f4bf4	-0.27987635
44	0x3e70f423	0.23530631
45	0x3dfcd81a	0.123459056
46	0xbe7c535f	-0.24641179
47	0xbdfa35d8	-0.12217301
48	0xbce50c12	-0.027959857
49	0x3c9f0b3a	0.019414533
50	0xbdc1d65a	-0.094647124
51	0x3cd4fef4	0.026000477
52	0x3d113bd0	0.035457432
53	0x3e26d28d	0.16291256
54	0xbdec4a45	-0.11537603
55	0x3d4ee76f	0.05051368
56	0x3e00c950	0.12576795
57	0xbea57944	-0.3231908
58	0x3e46ff67	0.19433366
59	0xbd5d6924	-0.054055348
60	0xbd290221	-0.041261796
61	0xbd8642dd	-0.06555722
62	0xbe2f405d	-0.17114396
63	0xbe05f92b	-0.13083331
64	0xbe5b4ac7	-0.21415244
65	0xbcf08425	-0.029359886
66	0xbe3772d3	-0.17914896
67	0x3e431c28	0.1905371
68	0x3d94f2b8	0.072728574
69	0xbe720910	-0.2363627
70	0xbe29c0be	-0.16577432
71	0xbd60c8a9	-0.054878864
72	0x3de13a13	0.10997405
73	0x3cbc1875	0.02296088
74	0xbe1e4e0a	-0.15459457
75	0x3b09dc5f	0.0021035892
76	0xbe186b97	-0.14884792
77	0x3e8cfd96	0.2753722
78	0x3dd240b8	0.1026625
79	0x3d83a494	0.06427875
80	0x3d9935ff	0.07481002
81	0xbe112a4d	-0.14176293
82	0xbda4458a	-0.08021076
83	0xbea8eb57	-0.3299205
84	0x3e2f693e	0.1712999
85	0xbe351c7e	-0.1768665
86	0x3d7173f2	0.058948465
87	0x3dc5e7af	0.09663331
88	0x3d53cf2d	0.05171125
89	0xbe7de730	-0.24795222
90	0x3e2b1160	0.16705847
91	0xbd2ebf82	-0.042663105
92	0x3dafac96	0.0857784
93	0x3e5fb0e9	0.2184483
94	0xbdcd8161	-0.10034443
95	0xbe6ec9c1	-0.2331915
96	0x3e1c483d	0.15261932
97	0x3dbd57df	0.09245276
98	0xbdd7b4b0	-0.1053251
99	0x3ce35f0a	0.02775528
100	0xbdaf01e6	-0.08545284
101	0x3e02193d	0.1270494
102	0x3e835701	0.25652316
103	0xbe8efa6e	-0.27925438
104	0xbe06ee3c	-0.13176817
105	0x3daf6241	0.08563662
106	0xbe9e17dd	-0.3087758
107	0x3defa1a3	0.11700752
108	0xbe9f3118	-0.31092143
109	0xbe0c4d36	-0.13701329
110	0x3e4f3112	0.20233563
111	0xbe3c10f5	-0.18365844
112	0x3e7b91b2	0.24567297
113	0x3d9ad304	0.07559779
114	0x3dbbd1b9	0.09170861
115	0xbe7e42fd	-0.24830242
116	0x3e9b1f94	0.3029753
117	0x3bdbf20a	0.006712203
118	0xbc8d41c4	-0.017243274
119	0xbe0a17df	-0.13485669
120	0xbe2b1825	-0.16708429
121	0xbe9501c0	-0.29102898
122	0xbe53e367	-0.20692216
123	0x3db0fbe8	0.08641797
124	0xbe9d67df	-0.3074331
125	0xbe9c1441	-0.30484203
126	0xbe8fe0d8	-0.2810123
127	0xbe166898	-0.14688337
128	0x3e48d0f8	0.19610965
129	0xbe10d7ee	-0.1414487
130	0xbd025d2d	-0.03182714
131	0xbdf751f3	-0.120761774
132	0xbd9f0c59	-0.07766027
133	0x3e3bad7b	0.18327896
134	0x3e71b928	0.23605788
135	0x3d1d2446	0.03836467
136	0xbe9ccbaa	-0.30624133
137	0x3e39d861	0.18148948
138	0xbb72c516	-0.0037043742
139	0x3dbb2b8d	0.09139166
140	0xbe80a528	-0.25126004
141	0x3e95cdfb	0.29258713
142	0xbec445b5	-0.38334432
143	0x3e584894	0.21121436
144	0xbdc0bd2f	-0.09411084
145	0x3d928ff0	0.0715636
146	0xbe404027	-0.18774472
147	0x3d72d026	0.059280537
148	0xbe7dc1f5	-0.2478102
149	0xbe730c60	-0.2373519
150	0xbe9de270	-0.3083682
151	0x3d44637b	0.047946434
152	0xbd65f4f1	-0.056141797
153	0x3de7851e	0.11304687
154	0xbeb33056	-0.34997815
155	0xbe338be8	-0.17533839
156	0x3db9531f	0.09049057
157	0x3e5b89f8	0.2143935
158	0xbdd614e0	-0.104532
159	0x3e18801e	0.14892623
160	0xbdb0c8d4	-0.08632055
161	0x3e26a292	0.16272953
162	0x3e5f095e	0.21780917
163	0x3d9f978d	0.07792578
164	0x3e8539ae	0.2602057
165	0xbe292f7f	-0.16522025
166	0x3e0ed125	0.1394697
167	0xbe3ead68	-0.18620837
168	0x3e33b88a	0.17550865
169	0x3d3795b3	0.0448205
170	0x3d94ebbd	0.07271526
171	0xbe63291b	-0.22183649
172	0x3d407013	0.046981882
173	0xbdeed46e	-0.116616115
174	0x3d82e4f9	0.06391329
175	0xbe01998c	-0.1265623
176	0xbea6ad59	-0.3255413
177	0x3d7474a0	0.059681535
178	0x3d221a08	0.039575607
179	0xbe819983	-0.25312433
180	0x3c0ea809	0.008707055
181	0xbd941066	-0.0722969
182	0x3e446a1e	0.19181105
183	0xbb76c8d5	-0.0037656326
184	0xbc58abbc	-0.013224538
185	0xbe1a8ad2	-0.15092018
186	0xbdf19930	-0.11796796
187	0x3e3f1908	0.18661892
188	0xbd35a98a	-0.04435114
189	0xbe93b70e	-0.28850597
190	0xbe63d78b	-0.22250192
191	0xbd73c475	-0.059513528
192	0x3e18fdf5	0.14940627
193	0xbe1b847e	-0.1518726
194	0x3e09fd82	0.13475612
195	0xbe265697	-0.16243969
196	0x3e05b07f	0.13055609
197	0x3ddd71d8	0.108127296
198	0xbe889533	-0.2667633
199	0xbe40022c	-0.18750829
200	0x3d760e04	0.06007196
201	0x3d18359b	0.037160497
202	0x3e6bead2	0.23038796
203	0xbd2184ef	-0.039433416
204	0xbe0b64ea	-0.13612714
205	0x3ddb72b1	0.10715235
206	0xbe819c3e	-0.25314516
207	0x3e1d5176	0.15363106
208	0xbd1f5987	-0.03890374
209	0xbdbc199d	-0.09184573
210	0xbe5441ea	-0.20728269
211	0xbe6f3936	-0.23361668
212	0x3e2728a6	0.163241
213	0xbe0ea28a	-0.13929191
214	0xbe3e4981	-0.18582727
215	0x3d22fa97	0.039789762
216	0xbe4df068	-0.20111239
217	0xbeab9f11	-0.33519796
218	0xbdf17722	-0.11790301
219	0x3e04955e	0.12947604
220	0x3cc83706	0.0244403
221	0xbe25e104	-0.16199118
222	0x3e29058f	0.16506027
223	0x3dc9fd14	0.09862724
224	0xbd0bb3e3	-0.0341071
225	0xbd131d2f	-0.035916504
226	0x3d399c97	0.04531535
227	0xbe1fe367	-0.15614091
228	0x3d3d737d	0.046252716
229	0x3d833ad0	0.06407702
230	0xbcc67333	-0.024224853
231	0xbcb6228d	-0.022233272
232	0xbe5673b4	-0.20942575
233	0x3e4c3e20	0.19945574
234	0xbda0ce2c	-0.07851824
235	0xbe0d6d07	-0.13811122
236	0xbebeea56	-0.3728816
237	0xbe11d802	-0.14242557
238	0xbe99395c	-0.29926574
239	0xbe793f4f	-0.24340557
240	0x3a8b2f1f	0.0010618902
241	0x3e39cd41	0.18144704
242	0xbe90975b	-0.28240475
243	0xbeb4f01e	-0.35339445
244	0x3e33fbd7	0.17576538
245	0x3e05cee4	0.13067204
246	0xbe89a9c0	-0.2688732
247	0x3cad85f1	0.021182032
248	0xbe8552c9	-0.26039723
249	0xbe777a39	-0.24167718
250	0xbe469a1f	-0.1939473
251	0xbe6cc912	-0.23123577
252	0xbe6d4f9a	-0.23174897
253	0xbd58b445	-0.052906293
254	0x3e01201e	0.12609908
255	0x3e10c98b	0.14139383

_output_linear.weight f4 [6, 1000]
0	0xbe2789de	-0.16361186
1	0xbdc0f931	-0.094225295
2	0x3c99aed9	0.018760132
3	0x3bae7739	0.005324271
4	0xbc84e552	-0.01622263
5	0x3c710902	0.01471162
6	0x3d0146e5	0.03156175
7	0x3ca2a3a8	0.019853428
8	0x3d5ccbda	0.053905345
9	0xbd37398b	-0.04473261
10	0x3c861301	0.016366484
11	0xbca64056	-0.02029435
12	0x3ca1aa64	0.019734569
13	0x3c2df9e8	0.010618664
14	0xbd29de57	-0.041471805
15	0x3cc89017	0.02448277
16	0x3c2217e9	0.009893396
17	0x3d0096d6	0.03139385
18	0xbc429ebc	-0.011878666
19	0x3b9202a4	0.004455881
20	0x3ca2d0bf	0.019874929
21	0xbc014cba	-0.007891828
22	0x3c88bf0b	0.016692659
23	0x3c2035d4	0.009778459
24	0xbba2d9c6	-0.0049698083
25	0x3c3f9301	0.011692763
26	0x3ce50909	0.02795841
27	0xbd119b34	-0.035548404
28	0xbc53a72f	-0.012918278
29	0x3e120d46	0.14262876
30	0x3c4cc2af	0.012497588
31	0xbe0985d9	-0.13429965
32	0xbed66a43	-0.41877946
33	0x3b47c701	0.0030483606
34	0xba9ef37f	-0.0012127011
35	0x3d086f61	0.033309344
36	0x3aad9e74	0.0013246075
37	0x3d230099	0.03979549
38	0xbcf72491	-0.030168803
39	0x3c83af00	0.016074657
40	0x3d4266c9	0.047461305
41	0x3d4054f9	0.046956036
42	0xba12e4fd	-0.000560358
43	0xbcbe383e	-0.023220178
44	0x3cbbd64d	0.022929335
45	0x3e80fd8f	0.2519345
46	0xbca63029	-0.020286636
47	0x3d253032	0.040329166
48	0x3d172e3b	0.036909323
49	0x3c94229d	0.018082911
50	0x3c222c2e	0.009898229
51	0xbe664cea	-0.22490278
52	0x3ccf6caa	0.02532037
53	0xbca96085	-0.020675907
54	0x3bb240ab	0.005439838
55	0xbcb79580	-0.022410154
56	0xbb6a63f6	-0.0035765148
57	0xbd844bfc	-0.06459805
58	0x3c8aea04	0.01695729
59	0xbcf3e78a	-0.029773492
60	0xbd84eb2f	-0.0649017
61	0xbcbb0404	-0.022829063
62	0xbd8a7ba8	-0.06761867
63	0x3bdbb578	0.0067049824
64	0xbc3d8057	-0.011566243
65	0x3cd974d7	0.026544971
66	0xbeac235c	-0.33620727
67	0xbd901346	-0.07034926
68	0xbcdd605f	-0.027023492
69	0xbcd05d04	-0.025434978
70	0x3cb95ef5	0.022628287
71	0x3cf5ec72	0.030019972
72	0x3c4e568f	0.012593879
73	0x3c46d8aa	0.012136618
74	0x3d205561	0.039143924
75	0xbc6434d9	-0.0139286155
76	0xbdd44a09	-0.103656836
77	0x3cbe82f6	0.023255806
78	0xbc793a0b	-0.015211592
79	0x3b265853	0.0025382235
80	0x3c8f9020	0.017524779
81	0xbd679924	-0.05654253
82	0xbcc648a8	-0.024204567
83	0x3d342687	0.043982055
84	0x3d3a3deb	0.045469206
85	0xbd0e996f	-0.034814294
86	0xbbcf6bd2	-0.006329992
87	0x39001bfa	0.00012217453
88	0xbcbb3719	-0.022853421
89	0x3d456356	0.048190437
90	0x3b0f2e8f	0.002184782
91	0x3d9c2187	0.07623582
92	0x3d5d23e1	0.053989295
93	0xbc00c082	-0.007858397
94	0xbcb497ca	-0.022045035
95	0x3c4d9a0c	0.012548935
96	0xbcacd0ec	-0.021095715
97	0x3cc8a675	0.024493435
98	0xbce03460	-0.027368724
99	0x3d0759ae	0.03304451
100	0x3e04e7a4	0.12978989
101	0x3cb5b8aa	0.022182781
102	0x3cef44d4	0.029207624
103	0x3d716cd8	0.058941692
104	0x3ba4b548	0.005026493
105	0x3bb6927e	0.0055716624
106	0x3c17b72b	0.009259979
107	0x3cfd3785	0.030910263
108	0xbd05dff1	-0.03268427
109	0xbde89e80	-0.113583565
110	0xbd2f2d82	-0.04276801
111	0xbcb91867	-0.022594644
112	0x3cf5234f	0.029924063
113	0xbc91a1f4	-0.01777742
114	0x3c8e8957	0.017399473
115	0xbc5c9f3e	-0.013465701
116	0xbce2817c	-0.027649634
117	0x3a74693c	0.00093235425
118	0xbced1835	-0.028942207
119	0x3bc48eb6	0.005998458
120	0x3cf0fa65	0.029416272
121	0xbcbab740	-0.022792459
122	0x3d438567	0.047734644
123	0x3d562c21	0.05228818
124	0xbcf62ab8	-0.030049667
125	0x3da2dd2d	0.07952342
126	0x3c5fbe0a	0.013656149
127	0x3c3ca5ae	0.0115141105
128	0x3cb828b2	0.022480343
129	0x3ccc3ea8	0.02493222
130	0xbca14f48	-0.019691125
131	0x3d2ff3a5	0.042956967
132	0xbb8a1cad	-0.004214844
133	0xbbebed50	-0.0071999207
134	0xbdcfa07d	-0.101380326
135	0xbd1da04a	-0.03848294
136	0x3c2362b3	0.009972262
137	0xbca78723	-0.02045018
138	0x3cd41720	0.025889933
139	0xbe5fff36	-0.21874699
140	0x3d41eee6	0.047346972
141	0xbea21bc8	-0.3166182
142	0x3c45be9b	0.01206937
143	0x3c20a880	0.0098057985
144	0xbaa97ae9	-0.0012930307
145	0x3cfc6aa4	0.030812569
146	0xbd9c80cb	-0.07641753
147	0x3cacc996	0.021092217
148	0xbd7b3162	-0.061326392
149	0xbdc2a772	-0.09504594
150	0x3d546114	0.051850393
151	0x3c7099b2	0.014685081
152	0x3cb77662	0.022395317
153	0xbd206c15	-0.039165575
154	0xbc85503e	-0.016273614
155	0xbc6b1651	-0.014348582
156	0xbcac5672	-0.021037314
157	0xbb3038ff	-0.002688944
158	0xbae5e9c0	-0.0017540976
159	0xbd0ea861	-0.034828547
160	0xbbaec25a	-0.005333227
161	0xbcf7544e	-0.030191567
162	0x3cac73f6	0.021051388
163	0x3c0c4909	0.008562335
164	0xbe151b77	-0.14561258
165	0x3ce07070	0.027397364
166	0x3c4fea04	0.012690071
167	0xbdbd7407	-0.09250646
168	0x3c9b9177	0.018990261
169	0xbe29365d	-0.16524644
170	0x3c86b896	0.01644544
171	0x3b67fea9	0.0035399592
172	0xbcc694ca	-0.02424087
173	0xbc482129	-0.012214937
174	0xbb0efee8	-0.0021819416
175	0x3bc60111	0.0060426076
176	0xbd191a96	-0.03737887
177	0x3cc9a868	0.024616435
178	0xbc88ac73	-0.016683793
179	0x3c05314d	0.00812943
180	0xbe1ddb42	-0.15415671
181	0xbcda168c	-0.02662208
182	0xbce15748	-0.02750744
183	0xbbe126e4	-0.006871091
184	0x3d2eb791	0.04265553
185	0x3c8e35f2	0.017359708
186	0x3cc85508	0.024454609
187	0x3b30652e	0.0026915777
188	0xbd0c5af4	-0.034266427
189	0x3c9aa2fa	0.018876541
190	0x3cdab3c9	0.026697056
191	0x3b86f3cc	0.0041184183
192	0xbbddf399	-0.006773424
193	0x3c80e7a8	0.015735462
194	0x3c6bcf9a	0.014392758
195	0xbb8a57d7	-0.004221897
196	0xbd6c9f44	-0.057769075
197	0xbcf68974	-0.03009484
198	0xbbeee962	-0.007291005
199	0x3c312364	0.01081166
200	0x3d230c5c	0.03980671
201	0x3d34dbfc	0.044155106
202	0xbce6a9a7	-0.028157068
203	0x3cc59970	0.024121016
204	0xbc829411	-0.015939744
205	0xbbee955f	-0.00728099
206	0xbd6c72cc	-0.057726666
207	0xbe0d196b	-0.13779227
208	0xbac206d3	-0.0014803059
209	0x3b55e0ef	0.0032635292
210	0x3d0958f9	0.033532117
211	0x3ca88dc7	0.020575417
212	0xbb89cbdf	-0.0042052115
213	0x3d6813bf	0.056659456
214	0xbc9fc917	-0.019505067
215	0xbc767643	-0.015042844
216	0x3d3f8dcb	0.046766084
217	0xbd3217b9	-0.043479655
218	0x3cac770e	0.021052863
219	0x3c5da3b2	0.013527798
220	0x3ba59a2a	0.005053778
221	0x3c91afea	0.017784078
222	0xbc6a733e	-0.014309702
223	0x3b1cd585	0.0023930978
224	0x3d3fe92c	0.04685323
225	0x3c11317d	0.008861897
226	0x3e4396f9	0.1910056
227	0x3cdcf33f	0.026971458
228	0x3bcd0466	0.006256628
229	0x3cbfdf82	0.023422007
230	0x3cf93ef3	0.030425524
231	0x3e8b07b0	0.27154303
232	0x3cf9532c	0.030435167
233	0x3bdfcf1d	0.0068301097
234	0x3caed0f6	0.021339875
235	0x3d984155	0.07434336
236	0x3b5be285	0.0033551764
237	0xbb9a9722	-0.0047177235
238	0x3c35e084	0.011100892
239	0x3da25e71	0.079281695
240	0x3d4e2c25	0.05033507
241	0x3c04db97	0.008108995
242	0xbc88f74b	-0.016719481
243	0xbdb045ca	-0.08607061
244	0x3ccf1723	0.025279587
245	0xbc971c6b	-0.018446168
246	0xbd259ce2	-0.04043282
247	0x3c92ce3d	0.017920608
248	0x3c3b57a9	0.011434474
249	0xbab9b66a	-0.0014168744
250	0x3cb807a2	0.022464577
251	0xbcf06d93	-0.029349124
252	0xbcb02258	-0.021500751
253	0x3d074a3b	0.033029776
254	0xbb949ea2	-0.004535512
255	0x3c0a1bd1	0.0084294835

_output_linear.bias f4 [6]
0	0xbbec3d56	-0.0072094603
1	0x3af0d61a	0.0018374354
2	0xbb40d339	-0.0029422774
3	0xbbfa64d4	-0.007641414
4	0x3c7bffb0	0.015380785
5	0xbc9e23bc	-0.019304149
