model/LogNet/LogNet_CAD_sim_rand_1e5_Source.pt (torch_old, 76892 bytes, 4 tensors)

_input_linear.weight f4 [1000, 12]
00000000: 361c 52bd 4edc 19bf 3701 1abf e51a 8f3e
00000010: a66c 8d3d ea34 d9be 90e9 71be b8a4 b13c
00000020: 3991 863d 3ec1 72be 1475 4bbe 9773 98bc
00000030: ee20 94bd 7ebb dc3e d56a f03e 1d2a 0d3e
00000040: 72e6 7f3e 8673 a83e 68bd 34be e896 413e
00000050: 5097 73be 17e5 18bd 58a6 853d d44f 96be
00000060: d4bd 8cbc 680c 313f 8969 0d3f 9f89 403e
00000070: b582 a2be cd11 83bd ba2b 4c3d e88c 04be
00000080: 0a43 27be 58ae 013e 1974 b3be 02e4 81bd
00000090: 5f5e 2b3d 9c9c f5bd 7bae 71be 0a81 9b3d
000000a0: c45a 7c3e 5e23 883e 78a5 cebc c8b5 553e
000000b0: 7e6a 8abe 898a ab3e 71f5 753e e66a 56be
000000c0: 4b43 9b3d 04d0 86bd d360 323e fb49 863c
000000d0: f894 0ebe 7d32 be3c 941a b0be 9ce5 79be
000000e0: 0892 a9be e46c b4bd 89f7 023e 333b 973d
000000f0: be59 5dbc 567e eabd 09dc 19be 830d 5dbe
00000100: 6658 383e 6129 b5bd 33a7 503d da7f 54bd
00000110: 36d4 adbe 8756 503d f35c 4dbe 39b4 88be
00000120: 9840 a33b e65c c6be 5ebe c4be cbed 923e
00000130: ead5 a43e e660 d63c 2492 523e 375d 3fbe
00000140: 5b6f 313e 2069 783e b1b7 263e ba77 a3be
00000150: 9964 2bbe 8abb 0c3e 3f99 f5bd f73d 5ebd
00000160: 4fd5 6abd 03e9 413e 3e21 113e 7e40 46be
00000170: 7168 0f3e 3192 8cbe 4935 26bc bdd4 383e
00000180: f63d 79bd 8e91 66be 0d81 61be 57ae 11be
00000190: 8cc7 06be 6ebb 173e 4219 72be 1334 383e
000001a0: dd3f 393e fb8e 5f3d 459d f53d 40e1 253e
000001b0: b76a f8bd a8dd ffbd e32c ec3d ace6 ad3c
000001c0: ce52 b13c 637a 373e b12c 063e 91b5 71be
000001d0: 588a 90be 86e2 c53d cfe5 d4bd 7f22 3fbe
000001e0: da5d a43c feaa d1be 1edc e0be 768a 543d
000001f0: 3697 aa3e b701 bbbe 2453 cb3d 6579 8bbc
00000200: 22c9 3fbe d8d4 03be 5bbb 743c eb09 0c3e
00000210: 2ee4 d53d 9a2e 9e3e 1985 ad3e 15ed 5a3e
00000220: 50e3 933e 5f03 ca3e c2f4 683d 222a acbd
00000230: 487a 9c3d e000 a6be 38cd 8f3e e5c7 06be
00000240: acd9 8a3c fc55 953e 5452 803e b46f 8cbb
00000250: 492e 82bd 26d5 3f3d d37c 8fbe 1634 133e
00000260: 4d69 c3bd 79e3 a13e 2b0f cfbe d7b3 3f3b
00000270: 9fdc 573e fc29 00be 4923 cbbd 8664 51be
00000280: 8d00 57be 0b1a 3f3e 6d11 223e 1af6 8bbe
00000290: d465 68be 04c3 3f3d cf4c 13be 6ac0 21bd
000002a0: ea0f 1ebe a9ae 04be 94de 7cbe cf78 94be
000002b0: 0bfb 21be 0970 37be a014 283e d9a2 f03d
000002c0: d16e d9ba d8d8 533e c3c5 d13c 3c15 ea3c
000002d0: 4022 223e e488 0dbe 965e 8cbd f318 233e
000002e0: 5548 06be 86a2 8d3d 797c 9dbe 98dd 2abd
000002f0: eaeb 083d 593b 64bd 0085 4ebd 5ec9 013d
00000300: df8b 37bd 34b4 9e3b 8a7e 2e3d 5d4a 34be
00000310: eac5 483e e52d 7dbe daef 313e c08a 343e
00000320: 565b 38be 13d8 7abe 0cc5 45bd 362e 9fbe
00000330: 84bf 0b3e d3fa 70be 071e e5bc 3c0d 8d3d
00000340: 05d0 4abe a09f 52be 30b0 bb3d 45da a5bd
00000350: 2051 873d f503 ae3c b8b7 bcbd fe6c c2be
00000360: 826b 61bc 5c81 97bc 63d8 933d fe02 30be
00000370: 9bd1 efbb 5fe4 8ebc 87e3 54be 79dc 30bd
00000380: b5c1 893d b479 c5bd bff3 48bd 1ca5 0eba
00000390: 0fc1 223c 4515 fcbe b0f0 01bf e2b0 493d
000003a0: ebb4 463e 115c ddbe ae43 d5bd 6504 873e
000003b0: f4c1 22bd 83f4 50be d21b 98be b677 2a3e
000003c0: 4d22 0cbc 2fc9 ce3e e17f b13e 1b66 703d
000003d0: 3a1f 863c 6950 853e 1f15 5bbe e2bb 0d3e
000003e0: 5b7e abbc bfb1 04be 67f0 48be 01c5 95bd
000003f0: e308 83bb f22e 3ebf 42d5 22bf bf1e bbbe
-0.051296435 -0.60101783 -0.60158104 0.27950206 0.06905489 -0.42423183 -0.23624253 0.02168499
0.06570668 -0.23706529 -0.1986888 -0.018609805 -0.07232843 0.43111795 0.46956506 0.13785596
0.24990252 0.32900637 -0.17650378 0.18905222 -0.2378819 -0.037327852 0.06525868 -0.2935778
-0.01718036 0.69159555 0.5523916 0.18802498 -0.31740347 -0.063998796 0.04984639 -0.12944376
-0.16334167 0.12664163 -0.35049513 -0.06342317 0.041838046 -0.119927615 -0.23601715 0.075929716
0.24644 0.26589483 -0.025225386 0.20870125 -0.27034372 0.3350413 0.2401941 -0.20939216
0.075811945 -0.065826446 0.17419748 0.016392699 -0.13924015 0.023217434 -0.34395278 -0.24403995
-0.33119226 -0.08809832 0.1278974 0.07384338 -0.013510166 -0.11449878 -0.15025343 -0.21587186
0.18002471 -0.08845783 0.050940704 -0.05187974 -0.33950967 0.05086377 -0.20054989 -0.267
0.0049820654 -0.3874275 -0.3842649 0.28697047 0.32194453 0.026169252 0.2056356 -0.18687902
0.17327635 0.24258852 0.1628101 -0.31927282 -0.16737594 0.13743415 -0.1199212 -0.054258313
-0.057332333 0.18936543 0.14172837 -0.1936054 0.14004685 -0.27455285 -0.01014454 0.18049903
-0.060850106 -0.22516462 -0.22021885 -0.14226662 -0.13162059 0.14817593 -0.23642448 0.17988615
0.18090768 0.054579716 0.119928874 0.16199207 -0.12129729 -0.124934494 0.11531999 0.021228157
0.02164593 0.1791778 0.13102986 -0.23604418 -0.28230548 0.096623465 -0.10395395 -0.18665503
0.020064283 -0.4095077 -0.43917936 0.05188986 0.3331849 -0.36524746 0.09927967 -0.017025659
-0.1872907 -0.12874162 0.014937247 0.13675658 0.104439124 0.3089493 0.33890608 0.21379502
0.28884363 0.39455697 0.056874044 -0.08406474 0.07640511 -0.32422543 0.28086257 -0.13162191
0.016949497 0.29167163 0.2506281 -0.004285777 -0.063564844 0.046834134 -0.2802492 0.14375338
-0.09541569 0.3161886 -0.4044126 0.002925148 0.21080254 -0.12516016 -0.099188395 -0.20448503
-0.20996304 0.18662278 0.1582696 -0.27336198 -0.22695094 0.04681684 -0.14384769 -0.03949014
-0.15435758 -0.12957253 -0.24694282 -0.2899842 -0.15818422 -0.17913832 0.16414118 0.11749811
-0.0016588812 0.20688188 0.025606995 0.028574578 0.15833378 -0.13821751 -0.06853978 0.15927486
-0.1311353 0.069157645 -0.30759028 -0.041715235 0.03342811 -0.05572066 -0.050419807 0.03168618
-0.044811126 0.004843259 0.042601146 -0.17606492 0.19606748 -0.24724539 0.17376652 0.17631054
-0.18003592 -0.24496488 -0.04828362 -0.31089944 0.13647276 -0.23533182 -0.02796842 0.0688729
-0.19805916 -0.20568705 0.091644645 -0.08098272 0.0660727 0.021242121 -0.09214729 -0.3797378
-0.013758542 -0.0184943 0.07219007 -0.17188641 -0.007318688 -0.01744288 -0.2078992 -0.04317901
0.067264 -0.09642354 -0.04906058 -0.00054414733 0.009933724 -0.49234977 -0.50757885 0.049240954
0.19404952 -0.43234304 -0.104132995 0.2637054 -0.03973575 -0.20405774 -0.29708725 0.16647229
-0.0085531 0.40387866 0.34667876 0.058691125 0.016372312 0.2603791 -0.21394776 0.13841203
-0.020934274 -0.1295843 -0.19622956 -0.07312966 -0.003998862 -0.7429038 -0.63606656 -0.36546895

_input_linear.bias f4 [1000]
00000000: dc7b 3e3e c5c1 3a3e 5d21 99be 587c e8bd
00000010: 9627 bb3b 8d20 c2bd 8113 75be e3ce 4b3e
00000020: 0677 d7bd d640 8bbe eba4 983a 9623 19be
00000030: 3ee8 9fbd 2bfb 5bbe e8a8 0f3e ff67 a8be
00000040: 43a0 84be 932c f13d 1994 ab3d c60a 34be
00000050: d977 6c3e d477 d7bb 0206 253e bfef 88be
00000060: 6781 04be c047 20be 5d00 be3d 8a85 b93d
00000070: 45d8 a73d 9b34 dabd df78 3b3d 001e 183d
00000080: d427 8fbe b719 96be 3520 35bd ebc3 5f3d
00000090: 0472 0639 fa20 9fbe 70f9 3bbd 9153 82be
000000a0: 5a6b 1ebe 639b 6fbe e6b8 59be 0de9 b3be
000000b0: e926 293d ed27 483e 69c7 dd3d 6704 9fbe
000000c0: 1503 7abe 74b3 023d e263 c6bd 5423 b2bd
000000d0: 8bfa 023d 284e 813d ba86 213e a222 1dbe
000000e0: 1cf5 323e 44da 1a3e b8c7 61be 60c8 d7bc
000000f0: f0c1 96be 1e1b 8bbd e7f0 213d 69b1 d1bd
00000100: 76a9 383d d4ba ab3d ae83 7ebe 418b e6bd
00000110: e659 31bd 2ebb 46be a75e 96bd 72d8 42be
00000120: 22cb f83d 8763 3abe ef13 a83d d563 c7bd
00000130: a375 f4bd 43bc 36be 9e7f 00bd 43dc 20be
00000140: 12e5 8fbe d426 6f3d 4bcb 983d af94 b33a
00000150: 8d2e 82be 9a8e 173c 3e70 353d e322 8abe
00000160: 712f b3bd f3d9 b53d 916c 89be c93e 22be
00000170: 312a 93be 3d2f 1a3e 350a 3bbc 8f08 4c3d
00000180: 1477 3dbe bc9a 91bd 4a96 8f3d f272 80be
00000190: 3f28 99bd c743 11be 7c9d 3e3e 0e72 84be
000001a0: dc87 30be 573e b33d 7f71 3abe e80b 87be
000001b0: fcb6 91bd 9e03 f33d 5def 763d f53d c7bc
000001c0: 3ad2 7a3e 3179 5a3e 5cbc 133e e58f 963d
000001d0: f38e 5a3d c96e 59be 461f 5bbe 0e55 1f3e
000001e0: 30e7 c4be fad9 96be 677f 15be ba07 043d
000001f0: cade c7be a1e3 67be 1375 a3bd 9d1d c43d
00000200: cf8d e73d ff31 783d 935a 383e 7771 49be
00000210: 8f7e 463c 5961 e1bc bf89 9abe d2d8 103b
00000220: 555b 123e cf41 21bc eda9 86be 18e2 2d3e
00000230: 4210 cc3d 5d5e 423e 0880 573d 74fd 953d
00000240: 9641 9abe e9ca 0dbc 8bcd c93d 2dee 80be
00000250: 6696 23be 9eef ea3d 7e74 f5bd 7f83 8b3d
00000260: 8503 82be 19c2 14be 4930 86be c980 063e
00000270: b84f a3be 52c2 7fbe 11e8 d93d f5f0 2abd
00000280: 40cc 6ebe c40f 8abd 7f19 44be 9dad 86be
00000290: 416e e1bd d616 1cbc 9a9d 583d 036e 1bbe
000002a0: 1632 9ebe b651 b3bd 8b07 93be f092 63be
000002b0: bbcd 843d 72dd 4d3d 77e3 d03c e5ed 333e
000002c0: 377b eb3d e36d 6d3e b6a1 83bd b3b3 8dbe
000002d0: 318f 0e3e 5ec1 c23d 3ae8 5bbe a682 ae3c
000002e0: bce6 37be bae9 a8bd db2f 64be 3d1b fbbc
000002f0: 0ac2 0dbd 1473 913d 39c8 093d 4245 4f3e
00000300: 6037 8dbe 11fc 73be 2852 adbc 6b63 9fbd
00000310: 3284 9bbe 161d 00be 700c 38be 1d6a 9b3d
00000320: 3935 14be 6d42 973d 1877 693d 4b3a 5bbd
00000330: 921b c33d 9839 ecbc 6cca 323d 63db 2bbe
00000340: 5c34 dc3d 7c88 84be ab9a 45bc 9b49 9ebc
00000350: b02d 5dbb 0eef 9cbe 5c12 a3be de0e 393e
00000360: d995 7cbe 761d aa3d 64d3 a53c d23b 173c
00000370: e9d9 033d 7ad5 373e ac28 52be 56e7 453e
00000380: a30b 333e eedb 72bc 3b15 84be 44f3 9dbe
00000390: 7e2d 52be cbd9 12be 0d32 683c 9501 6fbd
000003a0: 3c5f b5be 34fd 37be e9fe 283e b02b 51bd
000003b0: cc21 fe3d 78d0 0d3e 4d7c 2a3e 6891 843d
000003c0: 5ab8 1a3e e1ae 843d 4703 0abd 1bbc 293e
000003d0: dab0 453e c142 5d3e a239 253e 2e7a e13d
000003e0: 911e 05be 0bbc 6c3d e8c5 c1be bbae 75be
000003f0: 8ba9 f8bc 375e 89be 41fa 03bd 3aee b7bd
0.18601936 0.1823798 -0.29908267 -0.11351842 0.005711506 -0.09478865 -0.23933221 0.1990314
-0.10520749 -0.27197903 0.0011645829 -0.14954981 -0.078079686 -0.21482532 0.14029276 -0.32891843
-0.2590352 0.1177608 0.08377857 -0.17582235 0.23092593 -0.006575564 0.16115573 -0.26745412
-0.12939988 -0.1565237 0.09277413 0.09058674 0.08195547 -0.10654565 0.04576957 0.037137985
-0.27960074 -0.29316494 -0.04422017 0.0546302 0.0001282171 -0.31079847 -0.04589218 -0.2545438
-0.15470639 -0.23399119 -0.2126194 -0.3513874 0.041296873 0.1954648 0.1082905 -0.31058046
-0.24415238 0.03190942 -0.0968702 -0.086981446 0.031977218 0.06313735 0.1577405 -0.15345243
0.17476314 0.15122324 -0.22048843 -0.026340663 -0.29444838 -0.067922816 0.039536383 -0.102389164
0.045083486 0.08385244 -0.2485492 -0.11257029 -0.043298624 -0.19407341 -0.07342272 -0.1902788
0.121481195 -0.18202029 0.08206927 -0.09735838 -0.119365 -0.17845254 -0.031371705 -0.15709023
-0.28104454 0.05838664 0.0746065 0.0013700927 -0.2542614 0.009250307 0.044296496 -0.2697974
-0.08749283 0.08879461 -0.26840642 -0.15844263 -0.28743127 0.15057082 -0.011416008 0.04981285
-0.18502456 -0.07109591 0.07011087 -0.25087696 -0.074783795 -0.14186011 0.18614763 -0.25868267
-0.17239326 0.08752125 -0.18207358 -0.2637627 -0.071149796 0.11865924 0.06028687 -0.024321536
0.24494258 0.21335293 0.14427322 0.073516645 0.053358983 -0.21233667 -0.21398649 0.1555979
-0.38457632 -0.29463178 -0.14599381 0.03223393 -0.39037162 -0.22645427 -0.079813145 0.09575961
0.11306345 0.060594555 0.18003301 -0.1967219 0.012115135 -0.02751224 -0.30183217 0.0022101891
0.14292653 -0.00984235 -0.26301518 0.16980779 0.099640384 0.18981309 0.052612334 0.07323733
-0.30128163 -0.008654335 0.09853657 -0.25181714 -0.15975341 0.114714846 -0.1198511 0.0681219
-0.2539331 -0.14527167 -0.26208714 0.13135065 -0.31896758 -0.24976471 0.10639966 -0.0417337
-0.23320103 -0.06741288 -0.19150351 -0.2630433 -0.110073574 -0.009526929 0.052884676 -0.15178685
-0.30897588 -0.087558195 -0.28716692 -0.22224021 0.064845525 0.050260015 0.025499089 0.17571218
0.11498111 0.2318645 -0.06427328 -0.27676162 0.1392181 0.09509538 -0.21475306 0.021302532
-0.17959112 -0.08247705 -0.2228388 -0.030652637 -0.03460888 0.071020275 0.033638213 0.20241264
-0.2758131 -0.23826624 -0.02115734 -0.07782634 -0.30374295 -0.12511095 -0.17973495 0.07588599
-0.14473428 0.073857166 0.056998342 -0.05352239 0.09526743 -0.028836057 0.043650076 -0.16782908
0.10752174 -0.2588538 -0.0120608015 -0.019322207 -0.0033749156 -0.30651134 -0.31849945 0.18072078
-0.24666537 0.083064005 0.0202424 0.009230571 0.032190237 0.17952529 -0.20523328 0.19326529
0.17484908 -0.014822943 -0.25797448 -0.3084966 -0.20525166 -0.14340894 0.014172089 -0.058351118
-0.3542422 -0.17967683 0.1650349 -0.051067054 0.1240879 0.13849056 0.1664898 0.064730465
0.15109387 0.06478668 -0.03369453 0.16575663 0.19305745 0.21607496 0.16135266 0.11009632
-0.12999941 0.05779652 -0.37846303 -0.23992436 -0.030354282 -0.26829693 -0.032221083 -0.08980985

_output_linear.weight f4 [6, 1000]
00000000: 5dc3 423c 057c 073a 1ac6 7fbb ec88 6b3b
00000010: b7bb 19bd 845d 46bc ee73 b43c e823 a53c
00000020: 2f90 2d3c d036 e3bc ae7a 31bc fb44 5e3b
00000030: f7ef f2ba 4dc1 62bc b7f8 133c 098f f5bc
00000040: 4bdc 0a3c 59dc d23b 68c7 84bb ebac 4dbb
00000050: 1c74 b23b 379d 1fbb 0cde 9dbb e8ee 7bbb
00000060: 291d 603a f682 313c 6000 d53b 4822 36bc
00000070: 18dd 273c d09e 18b9 a30a 04bc b875 2d3c
00000080: e868 9d3a 4b7a 2a3c d0ff 91bc af0e 603c
00000090: bd8f 9abc d259 a7bc ecc5 9a3c b697 f23c
000000a0: 32a2 d4bb 8a45 4a3c 054a 26bc 006a 9a3a
000000b0: 90c7 893c 1b5f 4b3b e808 3d3c 344d 32bb
000000c0: 0ae6 c3bb a010 12bb 6b59 81bb 5401 843b
000000d0: a243 8438 7989 3b39 4ad9 a73b 211a f23a
000000e0: f9a0 0e3c 3061 6d3b 62ba 5fbc 409f 9cbc
000000f0: dd88 42bc ffe4 3f3b 54f2 90ba 99fa d4bc
00000100: a1f8 0c3b b64c 9e3c c234 e93c 2b0a 8d3b
00000110: f7bf 5c3c 7325 5bbc f38f 843c bf4e 843c
00000120: 9baf 1b3c 8f65 54bd 6897 213b 35b9 883a
00000130: fc6c 79bc f6da 5f3b 889b 2dbc 69d7 0b3c
00000140: b447 303c 6bb9 4e3c 6381 903c 9577 36bc
00000150: d9ab 99bb 22a0 b73b 066d 0a3c cff1 3f3c
00000160: 8946 8a39 71d1 49bc 2c04 01bc d4ae e9bb
00000170: 7c0d 0a3d 014a c83c d61d aebc 9cb5 96bc
00000180: 540a a03c 6539 4f3b 82db 90bb eb9d 08bd
00000190: f1f3 cfbc 213a da3b b77e 14bb a72e 7e3c
000001a0: 4c10 ba3b 32d5 eb3b f126 48bb 2693 833c
000001b0: 3d93 5abc 68a7 79bc 9221 59bc 9772 863a
000001c0: 3dfa a5ba 2091 473c 70fb 803c a27c 6839
000001d0: 04eb 223d 3257 d23b 5339 8e3c 963a b0bc
000001e0: 33c1 453c 3983 6e3b c732 f63b 22b7 d5bb
000001f0: c4bb 393c 9370 2f3c 7bf3 cdbb f855 07bb
00000200: 5c67 8abb a447 6dbc e61c 4a3b 8926 61bc
00000210: fd1a 0d3c 8720 23bd 022b 93bc 758c 83bc
00000220: e532 17bc 5576 2cba 0d0e 293c a870 8e3c
00000230: 981f 46bc bae7 d03b ce3b c6b9 cbd6 c03b
00000240: 9d55 56bc 65d0 e5bc 401a d9ba a4e3 e23c
00000250: bb39 29bc a7a6 41bb 1051 7d3c c130 7abc
00000260: befc 623c f3aa 00bc 7a3b 0e3b f645 b9bb
00000270: eb62 4d3c 9a0a 1e3c b40e a93b 9e13 243b
00000280: 94fb 59bd e979 263d 743d 8f3c 4e6f 8f3c
00000290: f52d 84bc 4bc6 f7bc 9894 663c d8bc 83bb
000002a0: c1d9 133b a138 513b f21c e93b 993a 5b3b
000002b0: e746 2dbc efd1 2f3b 439e a1bb 6fc5 963c
000002c0: 5e94 89bc 48dd 033c 2161 5bbc 62f0 8d3c
000002d0: a369 5cba 27b2 91bc 0c49 fcbb 4eb6 1c3c
000002e0: c54a 1a3b b2e6 95bc 9cea d8bc d563 9d3b
000002f0: 5ee9 cd3b 4cfa c8b9 b54f 76bb 4132 2fbc
00000300: ee05 1e3c 9655 44bb 9078 d63a a62c a83c
00000310: cdd0 a73a 2611 8b3c a07e 1a3c 2a6e 9c3c
00000320: 7ce3 853b b279 abbb 1f31 553c 0e80 7dbc
00000330: 4ccb af3b 2e5b 02bd c3c2 f23b f1d9 0cbc
00000340: 81da ccbb e6f5 013b 6055 10bc 1ef5 e13a
00000350: f965 bfbc 5783 ba3c 4c79 ae3a 572c 34bb
00000360: 270b e43c d219 0f3c 8510 d13c 8763 a53c
00000370: dd5e 74bc 2189 45bc 8642 7ebc c69f 64bc
00000380: fffc 9fbc 689b e6bc 4604 14b9 03db b2bc
00000390: 9809 8cba 8eb3 72bc 5a22 70bc 28d8 443b
000003a0: 7f75 343a 83eb 1a3c d149 16bc 4495 06bc
000003b0: 5d51 b13c 4c77 7cbb 207d 1cbc faec 53bc
000003c0: db44 94bc e090 08bc 8af1 a93d 5516 a8bb
000003d0: 51be 473c 5a7b 31bc 5116 113b 6d7b 943a
000003e0: 0cd4 453c fd02 5dbb e9f6 cebc cef5 9f3c
000003f0: d4eb c8b8 3aa1 7d3c daae 0c3c 574d 71bb
0.011887399 0.00051683217 -0.003902799 0.0035939766 -0.037532534 -0.012107257 0.022027936 0.020158723
0.010593458 -0.027736098 -0.010832472 0.0033915627 -0.001853465 -0.013840032 0.009031466 -0.029975431
0.0084753735 0.006434959 -0.0040520914 -0.0031383585 0.00544597 -0.0024355182 -0.00481773 -0.003844196
0.0008549267 0.010834446 0.006500289 -0.011116572 0.010245584 -0.00014555012 -0.008059177 0.010587148
0.0012009414 0.0104051335 -0.017822176 0.013675376 -0.018867368 -0.020428572 0.018893205 0.029613357
-0.0064890618 0.012345681 -0.010149484 0.0011780858 0.016818792 0.003103203 0.011537768 -0.0027206661
-0.0059783505 -0.0022287741 -0.003947427 0.0040284786 6.306848e-05 0.00017884922 0.0051223384 0.0018470922
0.008705371 0.0036221258 -0.013655277 -0.019118905 -0.011873451 0.002928078 -0.0011058548 -0.0259984
0.00215105 0.019323688 0.02846754 0.0043041906 0.013473502 -0.013375628 0.016181922 0.01615083
0.009502317 -0.051854666 0.0024656896 0.0010431173 -0.015223738 0.003415761 -0.010596164 0.0085352445
0.010759283 0.012617449 0.017639821 -0.011136909 -0.0046896753 0.005603806 0.008448845 0.0117153665
0.00026373964 -0.012318001 -0.00787453 -0.007131437 0.033704266 0.02444935 -0.021254461 -0.018397145
0.019536175 0.0031619903 -0.0044206986 -0.033353727 -0.025384875 0.0066597615 -0.0022658536 0.0155140525
0.0056782123 0.0071970457 -0.003054079 0.016061377 -0.013340768 -0.015237667 -0.013252633 0.0010257539
-0.0012663078 0.012180597 0.015744895 0.00022171673 0.03977491 0.006419086 0.017361319 -0.021512311
0.012069988 0.0036394133 0.0075133773 -0.0065220753 0.011336271 0.010707992 -0.0062851286 -0.0020650607
-0.004223747 -0.0144824125 0.0030839979 -0.013742098 0.008612392 -0.039825942 -0.017964844 -0.016058186
-0.009228443 -0.0006578912 0.010318291 0.017387703 -0.0120924935 0.00637528 -0.0003781006 0.0058849803
-0.013081935 -0.028053472 -0.0016563609 0.027696438 -0.010328705 -0.0029548795 0.015461221 -0.015270413
0.013854204 -0.0078532575 0.0021702931 -0.005654092 0.012535791 0.009646082 0.0051592235 0.0025036107
-0.05321844 0.040643606 0.017485358 0.017509129 -0.016135195 -0.03024592 0.014073513 -0.0040203147
0.0022560211 0.0031924623 0.0071140463 0.0033451675 -0.0105759865 0.002682801 -0.0049321963 0.01840469
-0.01679438 0.008048363 -0.013389857 0.017326538 -0.0008408075 -0.017785145 -0.0076991376 0.009564949
0.0023543101 -0.01829848 -0.026479058 0.0048031607 0.006283923 -0.00038333458 -0.003758413 -0.010693134
0.009644968 -0.002995824 0.0016362835 0.020529103 0.0012803316 0.01697595 0.009429604 0.019095499
0.004085956 -0.005233013 0.0130122 -0.015472425 0.005364811 -0.031825237 0.0074084713 -0.008596883
-0.0062516336 0.0019830405 -0.0088094175 0.0017239188 -0.023364054 0.022767706 0.0013311296 -0.002749225
0.02783735 0.008734183 0.025520572 0.02018906 -0.014915195 -0.01205662 -0.01551879 -0.013954109
-0.019529818 -0.028150275 -0.00014115972 -0.021832949 -0.0010684012 -0.014813317 -0.014656628 0.0030036066
0.00068839634 0.009455564 -0.009172873 -0.008214299 0.021645242 -0.0038523255 -0.0095513165 -0.012934918
-0.01809924 -0.008335322 0.08298023 -0.0051296153 0.012191371 -0.010832632 0.0022138546 0.0011328288
0.012074482 -0.0033723705 -0.02526422 0.019526388 -9.5806696e-05 0.015480334 0.00858661 -0.003681978

_output_linear.bias f4 [6]
00000000: aaad 39bc 46be 9abc f981 6b3c c4e3 f73c
00000010: 8dfc cb3b 84f7 c73c
-0.011332909 -0.018889558 0.01437425 0.030259974 0.0062251748 0.024410017
