model/LogNet/LogNet_Real_MTMR_pos_4096_Target_from_CAD_source.pt (torch_old, 76892 bytes, 4 tensors)

_input_linear.weight f4 [1000, 12]
000000 36 1c 52 bd 4e dc 19 bf 37 01 1a bf e5 1a 8f 3e
       -0.051296435 -0.60101783 -0.60158104 0.27950206
000010 a6 6c 8d 3d ea 34 d9 be 90 e9 71 be b8 a4 b1 3c
       0.06905489 -0.42423183 -0.23624253 0.02168499
000020 39 91 86 3d 3e c1 72 be 14 75 4b be 97 73 98 bc
       0.06570668 -0.23706529 -0.1986888 -0.018609805
000030 ee 20 94 bd 7e bb dc 3e d5 6a f0 3e 1d 2a 0d 3e
       -0.07232843 0.43111795 0.46956506 0.13785596
000040 72 e6 7f 3e 86 73 a8 3e 68 bd 34 be e8 96 41 3e
       0.24990252 0.32900637 -0.17650378 0.18905222
000050 50 97 73 be 17 e5 18 bd 58 a6 85 3d d4 4f 96 be
       -0.2378819 -0.037327852 0.06525868 -0.2935778
000060 d4 bd 8c bc 68 0c 31 3f 89 69 0d 3f 9f 89 40 3e
       -0.01718036 0.69159555 0.5523916 0.18802498
000070 b5 82 a2 be cd 11 83 bd ba 2b 4c 3d e8 8c 04 be
       -0.31740347 -0.063998796 0.04984639 -0.12944376
000080 0a 43 27 be 58 ae 01 3e 19 74 b3 be 02 e4 81 bd
       -0.16334167 0.12664163 -0.35049513 -0.06342317
000090 5f 5e 2b 3d 9c 9c f5 bd 7b ae 71 be 0a 81 9b 3d
       0.041838046 -0.119927615 -0.23601715 0.075929716
0000a0 c4 5a 7c 3e 5e 23 88 3e 78 a5 ce bc c8 b5 55 3e
       0.24644 0.26589483 -0.025225386 0.20870125
0000b0 7e 6a 8a be 89 8a ab 3e 71 f5 75 3e e6 6a 56 be
       -0.27034372 0.3350413 0.2401941 -0.20939216
0000c0 4b 43 9b 3d 04 d0 86 bd d3 60 32 3e fb 49 86 3c
       0.075811945 -0.065826446 0.17419748 0.016392699
0000d0 f8 94 0e be 7d 32 be 3c 94 1a b0 be 9c e5 79 be
       -0.13924015 0.023217434 -0.34395278 -0.24403995
0000e0 08 92 a9 be e4 6c b4 bd 89 f7 02 3e 33 3b 97 3d
       -0.33119226 -0.08809832 0.1278974 0.07384338
0000f0 be 59 5d bc 56 7e ea bd 09 dc 19 be 83 0d 5d be
       -0.013510166 -0.11449878 -0.15025343 -0.21587186
000100 66 58 38 3e 61 29 b5 bd 33 a7 50 3d da 7f 54 bd
       0.18002471 -0.08845783 0.050940704 -0.05187974
000110 36 d4 ad be 87 56 50 3d f3 5c 4d be 39 b4 88 be
       -0.33950967 0.05086377 -0.20054989 -0.267
000120 98 40 a3 3b e6 5c c6 be 5e be c4 be cb ed 92 3e
       0.0049820654 -0.3874275 -0.3842649 0.28697047
000130 ea d5 a4 3e e6 60 d6 3c 24 92 52 3e 37 5d 3f be
       0.32194453 0.026169252 0.2056356 -0.18687902
000140 5b 6f 31 3e 20 69 78 3e b1 b7 26 3e ba 77 a3 be
       0.17327635 0.24258852 0.1628101 -0.31927282
000150 99 64 2b be 8a bb 0c 3e 3f 99 f5 bd f7 3d 5e bd
       -0.16737594 0.13743415 -0.1199212 -0.054258313
000160 4f d5 6a bd 03 e9 41 3e 3e 21 11 3e 7e 40 46 be
       -0.057332333 0.18936543 0.14172837 -0.1936054
000170 71 68 0f 3e 31 92 8c be 49 35 26 bc bd d4 38 3e
       0.14004685 -0.27455285 -0.01014454 0.18049903
000180 f6 3d 79 bd 8e 91 66 be 0d 81 61 be 57 ae 11 be
       -0.060850106 -0.22516462 -0.22021885 -0.14226662
000190 8c c7 06 be 6e bb 17 3e 42 19 72 be 13 34 38 3e
       -0.13162059 0.14817593 -0.23642448 0.17988615
0001a0 dd 3f 39 3e fb 8e 5f 3d 45 9d f5 3d 40 e1 25 3e
       0.18090768 0.054579716 0.119928874 0.16199207
0001b0 b7 6a f8 bd a8 dd ff bd e3 2c ec 3d ac e6 ad 3c
       -0.12129729 -0.124934494 0.11531999 0.021228157
0001c0 ce 52 b1 3c 63 7a 37 3e b1 2c 06 3e 91 b5 71 be
       0.02164593 0.1791778 0.13102986 -0.23604418
0001d0 58 8a 90 be 86 e2 c5 3d cf e5 d4 bd 7f 22 3f be
       -0.28230548 0.096623465 -0.10395395 -0.18665503
0001e0 da 5d a4 3c fe aa d1 be 1e dc e0 be 76 8a 54 3d
       0.020064283 -0.4095077 -0.43917936 0.05188986
0001f0 36 97 aa 3e b7 01 bb be 24 53 cb 3d 65 79 8b bc
       0.3331849 -0.36524746 0.09927967 -0.017025659
000200 22 c9 3f be d8 d4 03 be 5b bb 74 3c eb 09 0c 3e
       -0.1872907 -0.12874162 0.014937247 0.13675658
000210 2e e4 d5 3d 9a 2e 9e 3e 19 85 ad 3e 15 ed 5a 3e
       0.104439124 0.3089493 0.33890608 0.21379502
000220 50 e3 93 3e 5f 03 ca 3e c2 f4 68 3d 22 2a ac bd
       0.28884363 0.39455697 0.056874044 -0.08406474
000230 48 7a 9c 3d e0 00 a6 be 38 cd 8f 3e e5 c7 06 be
       0.07640511 -0.32422543 0.28086257 -0.13162191
000240 ac d9 8a 3c fc 55 95 3e 54 52 80 3e b4 6f 8c bb
       0.016949497 0.29167163 0.2506281 -0.004285777
000250 49 2e 82 bd 26 d5 3f 3d d3 7c 8f be 16 34 13 3e
       -0.063564844 0.046834134 -0.2802492 0.14375338
000260 4d 69 c3 bd 79 e3 a1 3e 2b 0f cf be d7 b3 3f 3b
       -0.09541569 0.3161886 -0.4044126 0.002925148
000270 9f dc 57 3e fc 29 00 be 49 23 cb bd 86 64 51 be
       0.21080254 -0.12516016 -0.099188395 -0.20448503
000280 8d 00 57 be 0b 1a 3f 3e 6d 11 22 3e 1a f6 8b be
       -0.20996304 0.18662278 0.1582696 -0.27336198
000290 d4 65 68 be 04 c3 3f 3d cf 4c 13 be 6a c0 21 bd
       -0.22695094 0.04681684 -0.14384769 -0.03949014
0002a0 ea 0f 1e be a9 ae 04 be 94 de 7c be cf 78 94 be
       -0.15435758 -0.12957253 -0.24694282 -0.2899842
0002b0 0b fb 21 be 09 70 37 be a0 14 28 3e d9 a2 f0 3d
       -0.15818422 -0.17913832 0.16414118 0.11749811
0002c0 d1 6e d9 ba d8 d8 53 3e c3 c5 d1 3c 3c 15 ea 3c
       -0.0016588812 0.20688188 0.025606995 0.028574578
0002d0 40 22 22 3e e4 88 0d be 96 5e 8c bd f3 18 23 3e
       0.15833378 -0.13821751 -0.06853978 0.15927486
0002e0 55 48 06 be 86 a2 8d 3d 79 7c 9d be 98 dd 2a bd
       -0.1311353 0.069157645 -0.30759028 -0.041715235
0002f0 ea eb 08 3d 59 3b 64 bd 00 85 4e bd 5e c9 01 3d
       0.03342811 -0.05572066 -0.050419807 0.03168618
000300 df 8b 37 bd 34 b4 9e 3b 8a 7e 2e 3d 5d 4a 34 be
       -0.044811126 0.004843259 0.042601146 -0.17606492
000310 ea c5 48 3e e5 2d 7d be da ef 31 3e c0 8a 34 3e
       0.19606748 -0.24724539 0.17376652 0.17631054
000320 56 5b 38 be 13 d8 7a be 0c c5 45 bd 36 2e 9f be
       -0.18003592 -0.24496488 -0.04828362 -0.31089944
000330 84 bf 0b 3e d3 fa 70 be 07 1e e5 bc 3c 0d 8d 3d
       0.13647276 -0.23533182 -0.02796842 0.0688729
000340 05 d0 4a be a0 9f 52 be 30 b0 bb 3d 45 da a5 bd
       -0.19805916 -0.20568705 0.091644645 -0.08098272
000350 20 51 87 3d f5 03 ae 3c b8 b7 bc bd fe 6c c2 be
       0.0660727 0.021242121 -0.09214729 -0.3797378
000360 82 6b 61 bc 5c 81 97 bc 63 d8 93 3d fe 02 30 be
       -0.013758542 -0.0184943 0.07219007 -0.17188641
000370 9b d1 ef bb 5f e4 8e bc 87 e3 54 be 79 dc 30 bd
       -0.007318688 -0.01744288 -0.2078992 -0.04317901
000380 b5 c1 89 3d b4 79 c5 bd bf f3 48 bd 1c a5 0e ba
       0.067264 -0.09642354 -0.04906058 -0.00054414733
000390 0f c1 22 3c 45 15 fc be b0 f0 01 bf e2 b0 49 3d
       0.009933724 -0.49234977 -0.50757885 0.049240954
0003a0 eb b4 46 3e 11 5c dd be ae 43 d5 bd 65 04 87 3e
       0.19404952 -0.43234304 -0.104132995 0.2637054
0003b0 f4 c1 22 bd 83 f4 50 be d2 1b 98 be b6 77 2a 3e
       -0.03973575 -0.20405774 -0.29708725 0.16647229
0003c0 4d 22 0c bc 2f c9 ce 3e e1 7f b1 3e 1b 66 70 3d
       -0.0085531 0.40387866 0.34667876 0.058691125
0003d0 3a 1f 86 3c 69 50 85 3e 1f 15 5b be e2 bb 0d 3e
       0.016372312 0.2603791 -0.21394776 0.13841203
0003e0 5b 7e ab bc bf b1 04 be 67 f0 48 be 01 c5 95 bd
       -0.020934274 -0.1295843 -0.19622956 -0.07312966
0003f0 e3 08 83 bb f2 2e 3e bf 42 d5 22 bf bf 1e bb be
       -0.003998862 -0.7429038 -0.63606656 -0.36546895

_input_linear.bias f4 [1000]
000000 dc 7b 3e 3e c5 c1 3a 3e 5d 21 99 be 58 7c e8 bd
       0.18601936 0.1823798 -0.29908267 -0.11351842
000010 96 27 bb 3b 8d 20 c2 bd 81 13 75 be e3 ce 4b 3e
       0.005711506 -0.09478865 -0.23933221 0.1990314
000020 06 77 d7 bd d6 40 8b be eb a4 98 3a 96 23 19 be
       -0.10520749 -0.27197903 0.0011645829 -0.14954981
000030 3e e8 9f bd 2b fb 5b be e8 a8 0f 3e ff 67 a8 be
       -0.078079686 -0.21482532 0.14029276 -0.32891843
000040 43 a0 84 be 93 2c f1 3d 19 94 ab 3d c6 0a 34 be
       -0.2590352 0.1177608 0.08377857 -0.17582235
000050 d9 77 6c 3e d4 77 d7 bb 02 06 25 3e bf ef 88 be
       0.23092593 -0.006575564 0.16115573 -0.26745412
000060 67 81 04 be c0 47 20 be 5d 00 be 3d 8a 85 b9 3d
       -0.12939988 -0.1565237 0.09277413 0.09058674
000070 45 d8 a7 3d 9b 34 da bd df 78 3b 3d 00 1e 18 3d
       0.08195547 -0.10654565 0.04576957 0.037137985
000080 d4 27 8f be b7 19 96 be 35 20 35 bd eb c3 5f 3d
       -0.27960074 -0.29316494 -0.04422017 0.0546302
000090 04 72 06 39 fa 20 9f be 70 f9 3b bd 91 53 82 be
       0.0001282171 -0.31079847 -0.04589218 -0.2545438
0000a0 5a 6b 1e be 63 9b 6f be e6 b8 59 be 0d e9 b3 be
       -0.15470639 -0.23399119 -0.2126194 -0.3513874
0000b0 e9 26 29 3d ed 27 48 3e 69 c7 dd 3d 67 04 9f be
       0.041296873 0.1954648 0.1082905 -0.31058046
0000c0 15 03 7a be 74 b3 02 3d e2 63 c6 bd 54 23 b2 bd
       -0.24415238 0.03190942 -0.0968702 -0.086981446
0000d0 8b fa 02 3d 28 4e 81 3d ba 86 21 3e a2 22 1d be
       0.031977218 0.06313735 0.1577405 -0.15345243
0000e0 1c f5 32 3e 44 da 1a 3e b8 c7 61 be 60 c8 d7 bc
       0.17476314 0.15122324 -0.22048843 -0.026340663
0000f0 f0 c1 96 be 1e 1b 8b bd e7 f0 21 3d 69 b1 d1 bd
       -0.29444838 -0.067922816 0.039536383 -0.102389164
000100 76 a9 38 3d d4 ba ab 3d ae 83 7e be 41 8b e6 bd
       0.045083486 0.08385244 -0.2485492 -0.11257029
000110 e6 59 31 bd 2e bb 46 be a7 5e 96 bd 72 d8 42 be
       -0.043298624 -0.19407341 -0.07342272 -0.1902788
000120 22 cb f8 3d 87 63 3a be ef 13 a8 3d d5 63 c7 bd
       0.121481195 -0.18202029 0.08206927 -0.09735838
000130 a3 75 f4 bd 43 bc 36 be 9e 7f 00 bd 43 dc 20 be
       -0.119365 -0.17845254 -0.031371705 -0.15709023
000140 12 e5 8f be d4 26 6f 3d 4b cb 98 3d af 94 b3 3a
       -0.28104454 0.05838664 0.0746065 0.0013700927
000150 8d 2e 82 be 9a 8e 17 3c 3e 70 35 3d e3 22 8a be
       -0.2542614 0.009250307 0.044296496 -0.2697974
000160 71 2f b3 bd f3 d9 b5 3d 91 6c 89 be c9 3e 22 be
       -0.08749283 0.08879461 -0.26840642 -0.15844263
000170 31 2a 93 be 3d 2f 1a 3e 35 0a 3b bc 8f 08 4c 3d
       -0.28743127 0.15057082 -0.011416008 0.04981285
000180 14 77 3d be bc 9a 91 bd 4a 96 8f 3d f2 72 80 be
       -0.18502456 -0.07109591 0.07011087 -0.25087696
000190 3f 28 99 bd c7 43 11 be 7c 9d 3e 3e 0e 72 84 be
       -0.074783795 -0.14186011 0.18614763 -0.25868267
0001a0 dc 87 30 be 57 3e b3 3d 7f 71 3a be e8 0b 87 be
       -0.17239326 0.08752125 -0.18207358 -0.2637627
0001b0 fc b6 91 bd 9e 03 f3 3d 5d ef 76 3d f5 3d c7 bc
       -0.071149796 0.11865924 0.06028687 -0.024321536
0001c0 3a d2 7a 3e 31 79 5a 3e 5c bc 13 3e e5 8f 96 3d
       0.24494258 0.21335293 0.14427322 0.073516645
0001d0 f3 8e 5a 3d c9 6e 59 be 46 1f 5b be 0e 55 1f 3e
       0.053358983 -0.21233667 -0.21398649 0.1555979
0001e0 30 e7 c4 be fa d9 96 be 67 7f 15 be ba 07 04 3d
       -0.38457632 -0.29463178 -0.14599381 0.03223393
0001f0 ca de c7 be a1 e3 67 be 13 75 a3 bd 9d 1d c4 3d
       -0.39037162 -0.22645427 -0.079813145 0.09575961
000200 cf 8d e7 3d ff 31 78 3d 93 5a 38 3e 77 71 49 be
       0.11306345 0.060594555 0.18003301 -0.1967219
000210 8f 7e 46 3c 59 61 e1 bc bf 89 9a be d2 d8 10 3b
       0.012115135 -0.02751224 -0.30183217 0.0022101891
000220 55 5b 12 3e cf 41 21 bc ed a9 86 be 18 e2 2d 3e
       0.14292653 -0.00984235 -0.26301518 0.16980779
000230 42 10 cc 3d 5d 5e 42 3e 08 80 57 3d 74 fd 95 3d
       0.099640384 0.18981309 0.052612334 0.07323733
000240 96 41 9a be e9 ca 0d bc 8b cd c9 3d 2d ee 80 be
       -0.30128163 -0.008654335 0.09853657 -0.25181714
000250 66 96 23 be 9e ef ea 3d 7e 74 f5 bd 7f 83 8b 3d
       -0.15975341 0.114714846 -0.1198511 0.0681219
000260 85 03 82 be 19 c2 14 be 49 30 86 be c9 80 06 3e
       -0.2539331 -0.14527167 -0.26208714 0.13135065
000270 b8 4f a3 be 52 c2 7f be 11 e8 d9 3d f5 f0 2a bd
       -0.31896758 -0.24976471 0.10639966 -0.0417337
000280 40 cc 6e be c4 0f 8a bd 7f 19 44 be 9d ad 86 be
       -0.23320103 -0.06741288 -0.19150351 -0.2630433
000290 41 6e e1 bd d6 16 1c bc 9a 9d 58 3d 03 6e 1b be
       -0.110073574 -0.009526929 0.052884676 -0.15178685
0002a0 16 32 9e be b6 51 b3 bd 8b 07 93 be f0 92 63 be
       -0.30897588 -0.087558195 -0.28716692 -0.22224021
0002b0 bb cd 84 3d 72 dd 4d 3d 77 e3 d0 3c e5 ed 33 3e
       0.064845525 0.050260015 0.025499089 0.17571218
0002c0 37 7b eb 3d e3 6d 6d 3e b6 a1 83 bd b3 b3 8d be
       0.11498111 0.2318645 -0.06427328 -0.27676162
0002d0 31 8f 0e 3e 5e c1 c2 3d 3a e8 5b be a6 82 ae 3c
       0.1392181 0.09509538 -0.21475306 0.021302532
0002e0 bc e6 37 be ba e9 a8 bd db 2f 64 be 3d 1b fb bc
       -0.17959112 -0.08247705 -0.2228388 -0.030652637
0002f0 0a c2 0d bd 14 73 91 3d 39 c8 09 3d 42 45 4f 3e
       -0.03460888 0.071020275 0.033638213 0.20241264
000300 60 37 8d be 11 fc 73 be 28 52 ad bc 6b 63 9f bd
       -0.2758131 -0.23826624 -0.02115734 -0.07782634
000310 32 84 9b be 16 1d 00 be 70 0c 38 be 1d 6a 9b 3d
       -0.30374295 -0.12511095 -0.17973495 0.07588599
000320 39 35 14 be 6d 42 97 3d 18 77 69 3d 4b 3a 5b bd
       -0.14473428 0.073857166 0.056998342 -0.05352239
000330 92 1b c3 3d 98 39 ec bc 6c ca 32 3d 63 db 2b be
       0.09526743 -0.028836057 0.043650076 -0.16782908
000340 5c 34 dc 3d 7c 88 84 be ab 9a 45 bc 9b 49 9e bc
       0.10752174 -0.2588538 -0.0120608015 -0.019322207
000350 b0 2d 5d bb 0e ef 9c be 5c 12 a3 be de 0e 39 3e
       -0.0033749156 -0.30651134 -0.31849945 0.18072078
000360 d9 95 7c be 76 1d aa 3d 64 d3 a5 3c d2 3b 17 3c
       -0.24666537 0.083064005 0.0202424 0.009230571
000370 e9 d9 03 3d 7a d5 37 3e ac 28 52 be 56 e7 45 3e
       0.032190237 0.17952529 -0.20523328 0.19326529
000380 a3 0b 33 3e ee db 72 bc 3b 15 84 be 44 f3 9d be
       0.17484908 -0.014822943 -0.25797448 -0.3084966
000390 7e 2d 52 be cb d9 12 be 0d 32 68 3c 95 01 6f bd
       -0.20525166 -0.14340894 0.014172089 -0.058351118
0003a0 3c 5f b5 be 34 fd 37 be e9 fe 28 3e b0 2b 51 bd
       -0.3542422 -0.17967683 0.1650349 -0.051067054
0003b0 cc 21 fe 3d 78 d0 0d 3e 4d 7c 2a 3e 68 91 84 3d
       0.1240879 0.13849056 0.1664898 0.064730465
0003c0 5a b8 1a 3e e1 ae 84 3d 47 03 0a bd 1b bc 29 3e
       0.15109387 0.06478668 -0.03369453 0.16575663
0003d0 da b0 45 3e c1 42 5d 3e a2 39 25 3e 2e 7a e1 3d
       0.19305745 0.21607496 0.16135266 0.11009632
0003e0 91 1e 05 be 0b bc 6c 3d e8 c5 c1 be bb ae 75 be
       -0.12999941 0.05779652 -0.37846303 -0.23992436
0003f0 8b a9 f8 bc 37 5e 89 be 41 fa 03 bd 3a ee b7 bd
       -0.030354282 -0.26829693 -0.032221083 -0.08980985

_output_linear.weight f4 [6, 1000]
000000 54 c5 30 be a4 c6 00 3e c6 57 9c bc 1b 98 e9 3d
       -0.17262775 0.12575775 -0.019084822 0.11405965
000010 b7 bb 19 bd 84 5d 46 bc a1 39 c7 3d 50 e1 8a bd
       -0.037532534 -0.012107257 0.09727789 -0.06781256
000020 f9 39 2f be d0 36 e3 bc e0 a3 3e 3d 18 88 bf 3d
       -0.17111959 -0.027736098 0.046543002 0.0935213
000030 02 86 8e 3c fe 5d 7f 3f 02 85 94 bd 09 8f f5 bc
       0.017397884 0.99752796 -0.07251932 -0.029975431
000040 de fe d8 3d 32 6e 76 3f b5 cd 88 be c7 31 c2 3d
       0.10595487 0.96261895 -0.26719442 0.094821505
000050 04 9f ac 3c a2 32 91 bc 68 79 91 3d e8 ee 7b bb
       0.021071918 -0.017724339 0.071032345 -0.003844196
000060 29 1d 60 3a d9 ab 70 3b 5c e5 18 3e c5 94 9f bd
       0.0008549267 0.0036723523 0.14931244 -0.077920474
000070 4e 2a 09 be 8b 0d 3b be 46 0d 55 3d 32 cd 36 bb
       -0.13395044 -0.18266885 0.05201461 -0.0027893302
000080 ac 9e a9 bd 80 72 ac 37 51 ad 09 be 8e a6 68 bc
       -0.082822174 2.0557316e-05 -0.13445021 -0.014199866
000090 85 a9 0a 3d d2 59 a7 bc ec c5 9a 3c b6 97 f2 3c
       0.033853073 -0.020428572 0.018893205 0.029613357
0000a0 6a 85 ac 3d 56 4b 06 3e 17 4f ab 3c d3 10 80 be
       0.08423884 0.13114676 0.020911736 -0.25012836
0000b0 34 73 64 3f 1b 5f 4b 3b 50 2f 22 3e 34 4d 32 bb
       0.89238286 0.003103203 0.15838361 -0.0027206661
0000c0 0a e6 c3 bb d1 0a 90 be 0d 9f d5 3c 03 9c cb bd
       -0.0059783505 -0.28133252 0.026076818 -0.09941866
0000d0 c6 2e 2e 3d 10 9a 31 bc d4 95 d3 3d 7f a8 8c bd
       0.042525075 -0.010839954 0.10331312 -0.068680756
0000e0 0e a7 6a 3d 6d 45 89 3d 62 ba 5f bc 37 84 9f be
       0.057288222 0.06702695 -0.013655277 -0.3115556
0000f0 f0 73 71 3d ce 1d 96 be 89 18 38 3d 99 fa d4 bc
       0.058948457 -0.29319614 0.044945274 -0.0259984
000100 8e c7 0d 3e 13 e9 12 be c2 34 e9 3c 14 f8 24 be
       0.13845655 -0.14346723 0.02846754 -0.1611026
000110 00 1e ae bc 73 25 5b bc 13 61 b9 bf 00 9d 91 bd
       -0.02125454 -0.013375628 -1.448275 -0.071100235
000120 45 d2 bd bc 8f 65 54 bd 4a 81 2e 3d 61 6e 5d bd
       -0.023171553 -0.051854666 0.04260377 -0.054060344
000130 e1 82 15 bd ec af a6 bd bf e9 0f 3b 69 d7 0b 3c
       -0.03650177 -0.08139023 0.0021959392 0.0085352445
000140 b4 47 30 3c dd 11 5c 3e 6a 66 1d bd 95 77 36 bc
       0.010759283 0.2149119 -0.038427748 -0.011136909
000150 d9 ab 99 bb 65 54 47 be 1c 2e a8 3d 59 13 14 3e
       -0.0046896753 -0.19465788 0.0821192 0.14460506
000160 6f 2c 2b 3b 49 b6 56 3c 65 4b 0d 3e d4 ae e9 bb
       0.0026119014 0.013104984 0.13798292 -0.007131437
000170 7c 0d 0a 3d e0 0d 72 be 64 d4 05 3d 9c b5 96 bc
       0.033704266 -0.23638105 0.032673255 -0.018397145
000180 6a fe 8e 3d 86 3a d6 3d 2c 23 44 be eb 9d 08 bd
       0.069821194 0.10460381 -0.19154042 -0.033353727
000190 f1 f3 cf bc e2 05 bf 3d 6c e4 44 bd a7 2e 7e 3c
       -0.025384875 0.09327294 -0.048069403 0.0155140525
0001a0 0a cd 4e 3d 9d ee 66 3d 08 f3 ba 3d a6 b2 1d 3f
       0.05048851 0.056379903 0.09128386 0.6160072
0001b0 a4 5d 2c 3c 68 a7 79 bc ce 41 b1 3d ad 46 56 3d
       0.010520373 -0.015237667 0.086551294 0.052313495
0001c0 13 b7 e4 bb d4 ec 13 3e 34 ba 18 be fd d9 14 bd
       -0.006979832 0.14445812 -0.14914781 -0.036340702
0001d0 04 eb 22 3d c2 b2 e9 3d 53 39 8e 3c 87 cf 4b 3e
       0.03977491 0.114110485 0.017361319 0.19903384
0001e0 cb 98 8b 3d 29 d6 f1 be fa 5d 0c 3d 22 b7 d5 bb
       0.06816252 -0.47233704 0.03426931 -0.0065220753
0001f0 98 1f a5 3d e9 c3 b0 bd 77 f9 86 bd 32 b2 05 bf
       0.08062667 -0.08631117 -0.065905504 -0.5222503
000200 bd f0 ee bd 20 4e c4 bf e6 1c 4a 3b 1c ff 02 bf
       -0.11667011 -1.5336342 0.0030839979 -0.51170516
000210 72 5a b7 3e 87 20 23 bd cd 78 0b bd 97 0b 97 bd
       0.35811192 -0.039825942 -0.03405075 -0.073752575
000220 0a 4f 4e be aa 6a 83 3e c8 97 31 3e 97 e5 e2 3d
       -0.20147339 0.25667316 0.17343056 0.11078947
000230 92 83 2b bd ba e7 d0 3b 40 fc a5 3e b1 1b 3c 3f
       -0.041873522 0.00637528 0.32419014 0.73479754
000240 45 ab ca 3c 46 1c df bd 53 9e a1 be a4 e3 e2 3c
       0.02473987 -0.108940646 -0.31566104 0.027696438
000250 76 92 96 bb 28 0a aa 3d 56 26 88 3d d1 0c 7d 3c
       -0.004595096 0.083027184 0.06647937 0.01544495
000260 05 df f4 3c 38 3f 08 be 96 22 57 bc d4 83 e6 3d
       0.0298915 -0.13305366 -0.0131308045 0.11255613
000270 77 f9 20 3e f6 f1 1d 3e 4e 9e 1b 3d 9e 13 24 3b
       0.15720163 0.15424332 0.037992768 0.0025036107
000280 94 fb 59 bd e9 79 26 3d 78 e5 0a bf a7 36 cc bb
       -0.05321844 0.040643606 -0.5425639 -0.006232101
000290 13 4a 18 3d 4b c6 f7 bc 02 1d c2 3e f8 51 96 bd
       0.037180018 -0.03024592 0.37912756 -0.07339853
0002a0 2b a8 85 3d e6 1c 48 3d f2 1c e9 3b b6 92 4a 3e
       0.06526216 0.048855685 0.0071140463 0.19782528
0002b0 e7 46 2d bc 8a c9 73 bb 6d d8 52 bd e5 af cc 3d
       -0.0105759865 -0.0037198984 -0.05147593 0.09994487
0002c0 0a 69 79 3e eb 87 24 be 4a 68 a6 bd 68 0a 3a bd
       0.24356475 -0.16067474 -0.0812536 -0.04542008
0002d0 8d 48 d1 3d a6 d4 4c be 6f de 0f 3e 57 33 87 be
       0.10218916 -0.20002994 0.14049695 -0.26406357
0002e0 90 95 81 bd b2 e6 95 bc c7 fc 52 bc db 68 c1 be
       -0.06327355 -0.01829848 -0.01287765 -0.3777531
0002f0 ee d8 5a bd 72 45 1b bc 42 96 d0 be 54 12 79 bc
       -0.053429537 -0.009477006 -0.40739638 -0.015202124
000300 d8 81 21 3e 79 c8 be 3c 6a c4 9a bb a5 f7 2b 3e
       0.15772188 0.023288952 -0.0047231214 0.16793688
000310 2b 07 a9 3f 26 11 8b 3c e3 f8 b0 3c 1b 77 a9 be
       1.3205312 0.01697595 0.021603053 -0.33098683
000320 7c e3 85 3b 1a ac 18 bf 6d 8e 03 3e 51 75 eb be
       0.004085956 -0.59637606 0.128473 -0.45987943
000330 c3 3b 2f 3e 4e 1d 78 bf ba ea 9d 3d ca 03 5b 3c
       0.17112641 -0.96919715 0.07710786 0.013367603
000340 81 da cc bb e6 f5 01 3b cf 5c 73 3f 1e f5 e1 3a
       -0.0062516336 0.0019830405 0.9506349 0.0017239188
000350 f9 65 bf bc 57 83 ba 3c b2 89 90 3d d2 7b f1 3d
       -0.023364054 0.022767706 0.07057513 0.11791195
000360 e6 17 2e 3e bc b6 b8 3d 85 10 d1 3c 75 3b 00 3e
       0.17001304 0.09019229 0.025520572 0.12522681
000370 47 61 d2 3e 61 8d 87 3d 34 5a 7b 3f 4a 6f ae be
       0.41089842 0.06618763 0.98184514 -0.34069282
000380 62 d2 5d bd 68 9b e6 bc 0c e7 1d bd 95 2b 1e bd
       -0.054155715 -0.028150275 -0.03855042 -0.03861578
000390 fc 23 9e 3e e9 d6 6d 3e 1a cf 8d be 03 c7 89 be
       0.3088683 0.23226513 -0.27697068 -0.26909646
0003a0 50 35 13 3f b6 6f f9 bd d0 44 16 3d 44 95 06 bc
       0.57503223 -0.1217951 0.03668672 -0.008214299
0003b0 5d 51 b1 3c de 2a 12 3e 23 4e 89 be 04 e6 4c be
       0.021645242 0.14274165 -0.26817426 -0.20009619
0003c0 db 44 94 bc f8 f9 78 3c 8a f1 a9 3d 97 71 66 3f
       -0.01809924 0.015196316 0.08298023 0.90017074
0003d0 d9 ab 63 3f ce 2a 01 bd fc 5f 94 be 27 2d 42 3e
       0.88934094 -0.031534962 -0.2897948 0.18962537
0003e0 0c d4 45 3c 27 57 03 3e e9 f6 ce bc ca e5 42 3e
       0.012074482 0.12826215 -0.02526422 0.1903297
0003f0 b4 cd bb bd 0f 07 35 3d 44 c0 89 3e d4 78 96 3c
       -0.09170094 0.044196185 0.269045 0.018368162

_output_linear.bias f4 [6]
000000 5d 04 bc bb 99 c9 8b bb 10 c0 66 bb 92 51 c5 3b
       -0.005737825 -0.0042659757 -0.0035209693 0.006021687
000010 83 f6 3d 3c 01 f1 5c 3d
       0.0115944175 0.053940777
