model/LogNet/LogNet_CAD_sim_rand_1e5_Target.pt (torch_old, 76892 bytes, 4 tensors)

_input_linear.weight f4 [1000, 12]
00000000: 9cb4 40bd ba48 9bbe 4840 0abc 74ec 103d
00000010: 4687 6abe 308c b13e 660e c33d 52e0 24bd
00000020: 1c2c 213e 7f08 0abe bece 863d 654e aebe
00000030: 6a3c 48be f5f7 edbd 17e7 54bd 096c 0abe
00000040: 7a4b 91bd 4364 4abc a4b3 4a3d ff99 aabd
00000050: ef4c 0abe 7899 b5bd fb42 5a3d fa49 9bbe
00000060: ff18 2bbd b48d 073d e032 1a3c c7ae 37be
00000070: a825 26bb 7c2b 80bd 767e d9bc 6b4f 473e
00000080: 42a7 93be 7a6e 9dbd cf37 e3bd 72f9 a5be
00000090: b7e7 cc3b 3554 d1bd 2907 ca3d 6531 03be
000000a0: 830e 923c 8374 0c3e 50b5 583d 18b9 133e
000000b0: 3b64 f9bd 4044 59be 5580 063e 8a1b a33d
000000c0: 2e86 663b 34a9 2a3e 4f89 803e c744 dc3d
000000d0: 2790 b93d 0e24 b1bc 51dc 543e c48e 6fbe
000000e0: c590 093c 7d6d d6bd 2147 373e 8860 a1be
000000f0: 11a1 123d 3b26 cd3e 1df0 bc3e b89b 00be
00000100: bb39 fd3d 1912 b2be 6029 a5bd b0ec 2b3d
00000110: d569 343e c788 2d3e cc3f 3ebe 6953 3dbc
00000120: c9b6 c03d 6ef9 9dbc a8e1 4d3e c4c1 85bd
00000130: 4ef1 87bd b5bd 1b3e 8112 b6be e516 8bbe
00000140: c9f2 cbbd 7d51 adbc 1afb 463a c057 8d3d
00000150: 570e 713d e1f0 833d 1b07 0d3d ce64 2dbe
00000160: 7d7b b3bd ad2a 293e 39b7 0b3e d667 153e
00000170: 0cd1 a8be 86a4 00bc 3e9f c1be 7ed6 17be
00000180: 8085 55bc 116a da3d 09f5 953e d756 013e
00000190: a848 13be 9807 0dbd 6c41 203e aa25 81be
000001a0: e734 2cbe 1622 81be 5f2b 493e e67d 543e
000001b0: 8201 82be b876 ac3d 28af e33d 78af 2c3d
000001c0: cc61 8b3e 6cc9 483e 02f4 5fbe f205 58be
000001d0: 4b3b 61be 0c3b 9a3d 86f6 e1bd c68b 223e
000001e0: adbb b4bd a064 98be 01b0 97be e355 ad3e
000001f0: ae56 64be dab1 9e3e 9985 89be 2b93 353e
00000200: c35c 99bd 30d5 4c3e ce0f 3dbe a6fc 7cbd
00000210: 4b08 5b3d c8a7 54be 7daf 60be 1c98 f1bd
00000220: e5c2 29be 594b 9d3d a2c4 533d abd2 82bd
00000230: a07b 04be aefd a0bd da5f 52bd 10d7 f8bd
00000240: f7d3 afbd eed1 0dbf 4988 0abf c081 14be
00000250: 582d 8d3e ad0b 033e f72b 643e 4c00 febd
00000260: d39a 9cbe a66a 853e 4d3f ed3d 7641 e93d
00000270: 504e ac3a f7ec db3c d926 a2bd 87f7 cb3c
00000280: 64d1 4f3e 45cb d23c da37 053b 5a22 81bd
00000290: be8e 343e b622 73be e2fa 5bbe 31d9 af3d
000002a0: d27b 363d 8021 1bbe a86e b9bd baa8 9bbb
000002b0: 749b c8bb 2042 8e3e fef1 053d 1f5a 26be
000002c0: 8721 1cbe 782e 073e 1251 41be 74ff 833e
000002d0: 160a 043c 5d29 233f 3093 303f 1773 1b3e
000002e0: d9c1 d13d c005 c6be 5579 443e 7735 09be
000002f0: 5ac3 aebe bdbc c0be e35d 4a3d 6cf7 dabd
00000300: a16b b13b 8854 fbbe fdeb debe 75e6 823e
00000310: a779 15bd 981a 52be 01b1 9c3d 757b 89be
00000320: b82c 223d 6668 ae3d da7c 96be f1e4 693e
00000330: f8d0 523a 10db e13e 34cc f23e 67d1 81be
00000340: 4d81 003e ac5f 673e df37 2d3d 7f23 45be
00000350: e86f 8bbe 58b3 50be 0753 4e3e e8ec 7cbe
00000360: 692b 9d3c 0717 7f3e 3a0e eebd a4f8 653d
00000370: 8c21 073e 2a79 7d3e 5eb1 69bd a5da 95bd
00000380: 0534 84bd d566 b2be 29f6 9f3e df12 fa3d
00000390: f844 053c c925 b03e 191f b93e 18be 0ebe
000003a0: 5ea2 1c3e 5b1f a43e c182 59be 1d7b 05bd
000003b0: 15c1 a8be 4185 b6be 08c0 253e 6478 3a3e
000003c0: e0ac 713c 2466 423f 198f 323f cb2a ba3e
000003d0: b41a 8e3e 02e4 7e3e 6b97 1dbe 73f8 ebba
000003e0: 08d8 89be d376 e03d 32fe 623e 1197 17be
000003f0: ffbc 31bc 1d3f ecbe 4f2f 01bf f87c 6f3e
-0.047047243 -0.30328923 -0.008438177 0.03538175 -0.22903165 0.34677267 0.09524231 -0.04025299
0.15739483 -0.13479804 0.06582402 -0.34044185 -0.19554296 -0.1161956 -0.051978197 -0.13517775
-0.07094474 -0.012353006 0.049487725 -0.08330154 -0.1350591 -0.088671625 0.053286534 -0.30329877
-0.041771885 0.033094123 0.009411544 -0.17937766 -0.0025352035 -0.06258294 -0.02654956 0.1946389
-0.28838545 -0.07687087 -0.11094629 -0.32416874 0.0062532085 -0.10221139 0.09864647 -0.12811811
0.017829185 0.1371632 0.052907288 0.14426076 -0.121773206 -0.21217442 0.13134892 0.07964237
0.0035175192 0.16666108 0.25104758 0.10755306 0.09060698 -0.021623638 0.20787169 -0.23394305
0.008396332 -0.10470102 0.17898227 -0.3151896 0.035798136 0.4006823 0.36901942 -0.12559402
0.12364527 -0.34779432 -0.08064532 0.04197377 0.17618497 0.16946708 -0.18579024 -0.011555531
0.094098635 -0.019283976 0.20105612 -0.065310985 -0.06637822 0.15209086 -0.35560992 -0.27165905
-0.09958417 -0.02115702 0.00075905176 0.069015026 0.058851566 0.064424284 0.034430604 -0.16932985
-0.08763788 0.16520186 0.13644113 0.14590392 -0.3297199 -0.007851725 -0.37816805 -0.14827916
-0.013032317 0.10664762 0.2928851 0.12630783 -0.14383185 -0.03443107 0.15649956 -0.25224048
-0.16817056 -0.25221318 0.19645451 0.20751151 -0.25391775 0.08421081 0.11117393 0.042159528
0.2722305 0.19608086 -0.21870425 -0.21096018 -0.21995275 0.075307935 -0.11033349 0.15873632
-0.08824859 -0.2976427 -0.29626468 0.3385459 -0.2229869 0.30995065 -0.2685974 0.17731921
-0.07488396 0.200032 -0.1846306 -0.06176438 0.053474706 -0.20767128 -0.21941943 -0.11796591
-0.16578253 0.07680387 0.051701196 -0.06387838 -0.12937784 -0.078608856 -0.051360942 -0.12150395
-0.08585351 -0.5539845 -0.54114205 -0.1450262 0.27573657 0.12797423 0.22282396 -0.124024004
-0.30586872 0.2605793 0.11584339 0.11389439 0.0013145898 0.026846392 -0.07917566 0.024898304
0.2029472 0.025731692 0.002032748 -0.0630538 0.17632577 -0.2374371 -0.21482423 0.08586348
0.044551678 -0.15149498 -0.09054309 -0.0047503384 -0.006122047 0.27784824 0.032701485 -0.16245316
-0.15247165 0.1320132 -0.18878582 0.25780833 0.008059045 0.6373499 0.6897459 0.15180622
0.10242052 -0.38676262 0.1918691 -0.13399301 -0.34133416 -0.37643996 0.049405944 -0.10691723
0.0054144417 -0.4908793 -0.4353942 0.2556645 -0.03649297 -0.20517957 0.07650948 -0.26852003
0.03959343 0.08516006 -0.2939213 0.2284124 0.0008042003 0.44112444 0.4742142 -0.25355074
0.12549324 0.2259509 0.04228961 -0.19251822 -0.27233815 -0.20380914 0.2014886 -0.24699748
0.019185739 0.24911128 -0.11623807 0.056145325 0.13196391 0.24753252 -0.057053916 -0.07317094
-0.064552344 -0.3484408 0.31242493 0.122106306 0.008134119 0.34403828 0.36156538 -0.13939703
0.15296313 0.32055172 -0.21241285 -0.032588113 -0.3295981 -0.3564854 0.16186535 0.18209988
0.014750689 0.75937104 0.697496 0.36360773 0.27754748 0.24891666 -0.15389793 -0.0018003121
-0.2692263 0.10960164 0.2216728 -0.14803721 -0.010848283 -0.46141902 -0.5046281 0.23387516

_input_linear.bias f4 [1000]
00000000: 4434 0cbe 4896 c2bd 087f abbe 8587 6bbc
00000010: 5f41 253d 61d8 fbbe 3916 b13d fe27 afbd
00000020: 7b4b 3ebe 8457 88be 3fe6 65be 28ab a63d
00000030: 3bc9 ddbd cff1 26be 0c45 ca3d 6deb 773d
00000040: a27d c13d 73b2 85bc 0383 05be 7777 88bd
00000050: 3c6b 53be 3cd2 9cbe 0255 53be d84d bbbd
00000060: ee28 67be 697b 0c3c fb00 a9be 9582 d0bc
00000070: ee71 3f3d 5a6e 74be 5f91 c3be 0393 c43c
00000080: 23e6 07bf 85b7 54be 1195 91be 0af4 a9bd
00000090: 257e 2f3d 21b5 9ebe bbf8 b0be 52ee 7ebe
000000a0: 438c a2bd e308 3bbd 1578 02bf 340f e7bb
000000b0: 7e7c 59be a2d8 3dbe 73b7 883d fc0e 2dbe
000000c0: 255a 093c affb a0be 3445 00bf b1e3 98be
000000d0: e937 b0be 0850 67be c1f1 b5be b0c5 b93d
000000e0: 44dc a5bd 371b 90be c1ff efbe 7006 ccbc
000000f0: ec28 b6be 7f2e 87be c04e 0cbe 7b29 c0bd
00000100: 869d 80bc 7ddd 64be 5be7 d1be 7639 abbe
00000110: cdd4 9dbc a7ab a03e 45df dcbe 9327 9d3d
00000120: 1245 ca3d 5e7c 5abd b4fe 5f3c de61 e4bb
00000130: 7da1 adbd 4ee2 743c a712 553d 44ae 703e
00000140: cba1 01bf a548 14be 1921 933d 3bc4 5ebe
00000150: ce8c 2fbe 8c2f 99bc 75eb 5a3d 2f3f 01bd
00000160: d9f9 7cbd f1ea 5c3e 3a20 d63c 5565 f3bd
00000170: 6b2a 413d 0ce3 53be f468 023e abfc b5bd
00000180: 8bac 56bd 6889 aabe b672 06bd 2eca 953e
00000190: 8d8f b2bd 3a66 ebbd 01ea febd a2e6 b2be
000001a0: b3d6 be3d 7421 ae3b 73de c0be cdb4 093e
000001b0: 555d b63d de5e 99bd 9227 d83c 5857 09be
000001c0: 212c 4a3e efcb d63d bbed b0be 5d02 b7bd
000001d0: d094 78be fca5 13bd 9828 c6bd e4d2 b8bd
000001e0: e82d 6dbe 84ba 823d dd8a d4be c52c 813d
000001f0: 9fa8 983d 1fe6 2b3e 3d80 033e acba b33c
00000200: cf0b 7ebe e5c7 af3d 5d6b 2cbf aaeb 8cbc
00000210: 3a32 bdbe ac33 923c bcbe 693d 39f8 03be
00000220: 26a9 453d 425c 8cbe f986 1abe 5b1b 20be
00000230: 6b3d 1e3c 29f2 12be edbd 1bbe 9633 9a3e
00000240: 4f96 a7be 7a80 94bd aa36 e0bd 9358 74be
00000250: d751 e8bd 7a69 85be 41f9 83be 0379 4ebe
00000260: 394c a5be fc3e c7bc e1e6 b1be 6d15 043e
00000270: de8f 8d3e a74b 2abe 130a 05be 4e0b 9cbe
00000280: 6b87 94bd 215a eabc d8eb fbbd 473d d0bd
00000290: e8c0 10bd 594f d0bd c95b 33be 386b f0be
000002a0: da9b d8be 4e3a 79be 47c6 afbd b1ab 6d3e
000002b0: 930f 8abd fd38 bf3d c607 0dbb 2329 9abd
000002c0: aabb efbe d0c8 a9be 5d7f 41be 2b02 b93d
000002d0: 9da7 48be e18e db3c 3451 b43d 4cd7 3abe
000002e0: 220c 99be 3173 0b3e a39b 84be dbde 8abe
000002f0: e415 bcbe 74ce 1bbf 4660 5fbe 5c93 9abe
00000300: d627 a3be fd7b 41be eabf bdbd e0f5 a8be
00000310: 9612 053e ede4 173e 972d 81be 5cd3 a3bb
00000320: 18c2 523e 0a28 d1bd 8c93 a5be 7154 f4bd
00000330: 8346 1dbc f897 b0be 3e00 68be 767c ea3c
00000340: 9dc5 ca3d 5aac b6be fc3d 043d 2e07 85be
00000350: d0a9 d7bd 68ff 1cbe d365 8c3d 0843 89be
00000360: bf15 92be 9c92 68bd ec70 bfbd 1666 92be
00000370: 645b bcbd a2b7 0cbe 92a3 02bf 7452 663e
00000380: d366 f6be e46e b1be 35af 37be 6861 d93c
00000390: cacd e03a 7e2c b93d e22c 3bbe c8d0 78bd
000003a0: c179 24be f32c 683c f05d 08be d9d8 493e
000003b0: b259 1dbe 0223 a0be 9cdc a3be 84cd 93be
000003c0: c869 333e acb3 c63b c19a b0bd d2a8 e9bd
000003d0: a25d 7ebd 2ad5 1fbe 7e3b ccbe e58a 26be
000003e0: a902 09be 61ff a4be 666d dbbe a881 96bd
000003f0: 08ae 63bd 7b91 eb3c ba2a efbe 4840 36be
-0.13691813 -0.0950132 -0.33495355 -0.014375572 0.040345546 -0.49188522 0.08646817 -0.0855255
-0.18583481 -0.2662927 -0.22451113 0.08138114 -0.10829397 -0.1630318 0.09876451 0.060527254
0.09447791 -0.016320443 -0.13038258 -0.06663411 -0.20646375 -0.30629146 -0.20637897 -0.09145707
-0.22574207 0.008574345 -0.3300856 -0.025452891 0.04673951 -0.23870221 -0.38196847 0.023995882
-0.53085536 -0.20773132 -0.2843404 -0.082985 0.04284491 -0.30997565 -0.34564766 -0.248956
-0.07936909 -0.045662772 -0.5096448 -0.007051373 -0.21238896 -0.1853967 0.06675615 -0.16900247
0.008383309 -0.3144202 -0.50105596 -0.29861215 -0.34417656 -0.22589123 -0.35536006 0.09070909
-0.08098653 -0.28145763 -0.46874812 -0.024905413 -0.35578096 -0.2640266 -0.13701916 -0.09382912
-0.015700113 -0.22350116 -0.40996823 -0.33442277 -0.01926651 0.3138096 -0.4313909 0.07673564
0.09876455 -0.053341262 0.013671566 -0.0069696745 -0.08478067 0.014946533 0.05201974 0.23503977
-0.506375 -0.14480837 0.07184047 -0.21754543 -0.17143556 -0.01869943 0.053447206 -0.031554397
-0.06176171 0.21573998 0.026138414 -0.11884562 0.047159594 -0.2069208 0.12735349 -0.08886083
-0.052410644 -0.33307958 -0.03282424 0.29255813 -0.087187864 -0.114941075 -0.124469765 -0.34941584
0.093182944 0.0053140465 -0.37669715 0.13447876 0.089045204 -0.074887976 0.026386056 -0.13412225
0.19743396 0.10488116 -0.34556374 -0.08935998 -0.24275517 -0.036046967 -0.096757114 -0.09024599
-0.23162043 0.06383231 -0.41512194 0.06307367 0.07454037 0.16787003 0.12841888 0.021939598
-0.24809192 0.08583049 -0.67351323 -0.017202217 -0.36952382 0.017846905 0.057066664 -0.12887658
0.048257016 -0.27414137 -0.1509055 -0.15635435 0.009658198 -0.1435019 -0.1520917 0.30117482
-0.32731864 -0.072510675 -0.10947926 -0.23861913 -0.11343735 -0.26057035 -0.25776103 -0.2016335
-0.32284716 -0.024322025 -0.3474646 0.12898798 0.27648824 -0.16630422 -0.12992124 -0.30477375
-0.072523914 -0.02860743 -0.12300843 -0.10167938 -0.03534022 -0.10171384 -0.17515482 -0.469568
-0.42306405 -0.24338648 -0.0858274 0.23210026 -0.06741252 0.093370415 -0.0021519526 -0.075273775
-0.46822864 -0.3316102 -0.18896241 0.09033617 -0.1959519 0.026801528 0.08804551 -0.18246192
-0.2989207 0.13618161 -0.2589999 -0.2712315 -0.3673545 -0.608619 -0.21814069 -0.3019055
-0.3186633 -0.18894954 -0.0926512 -0.33000088 0.12995371 0.14833422 -0.25230095 -0.0049995612
0.20581853 -0.10212715 -0.32339132 -0.119301684 -0.009599331 -0.34490943 -0.22656342 0.0286238
0.09900973 -0.3567837 0.032285675 -0.2598204 -0.10530436 -0.15331805 0.06855359 -0.26808953
-0.28532216 -0.056780443 -0.0934771 -0.2859351 -0.09197119 -0.13741925 -0.5103084 0.22492391
-0.48125324 -0.34654915 -0.1793793 0.026535705 0.0017151174 0.09041689 -0.1827884 -0.060745984
-0.1606207 0.014170873 -0.13317084 0.19711627 -0.15366247 -0.3127671 -0.3200425 -0.28867733
0.17520821 0.006063899 -0.08623267 -0.11409153 -0.062101014 -0.1560866 -0.3988914 -0.16263922
-0.13379921 -0.3222609 -0.42856902 -0.07348949 -0.05558589 0.028755894 -0.46712285 -0.17797959

_output_linear.weight f4 [6, 1000]
00000000: a214 9dba 130e 573d 51e4 4ebd ad86 1ebc
00000010: 76f6 423b 5746 aeba 2f45 5ebc 4fd6 8abb
00000020: 2532 ab3b c6d7 00bd 017d e3ba 8c99 c3bb
00000030: 109b 5c3a a499 0bba 5004 d939 360b 2fba
00000040: 7b6a ccb9 6dca 15bc 8cd0 a73a d0ee 353b
00000050: 008d 083b bc7f 02ba 27d7 6d3b 10cc d6bb
00000060: ff4f 52bb 1cda c8bb 6b7c 173c ae9b f93b
00000070: 4ce3 2fb9 0157 f8bb d12e bf3b 4098 a9ba
00000080: e5ff 933a caea 3d3c b914 0d3c 4a96 18bd
00000090: 22f2 93bb 375b 0abb 0c5b bdbb 7a99 b8bc
000000a0: 4fb3 25bb 5485 933b e10f 24bb ba77 d3b9
000000b0: 907d bb3b 3613 9839 ffdc 9a3b 299b 233c
000000c0: ee29 4a3b ae25 c5ba f921 98ba b2a9 f539
000000d0: 310d 27bb 355b 073d 8d09 01bc 15aa 373c
000000e0: aa99 2ebb 8201 113c e037 d23b 02a0 9d3b
000000f0: fef8 903b 6599 95ba 9b46 a13b 6b3f af3b
00000100: da22 6a3b c154 cebb 02b7 40bc d39d 943b
00000110: f907 39bb e1df cf3a da38 5aba 12cc 283a
00000120: 1c8d ccbb 9e06 49bc f55a abba f09f 0cbb
00000130: 40d6 953c 15ee 31bc bfce 13bb 2431 d2bb
00000140: 72d1 78bb 48f5 8aba 812b f139 e454 9838
00000150: 17b8 c0ba 8592 603b fa25 4b3b 5ee9 2b3b
00000160: 8dde da3a 9800 b13c 5afc eaba 3409 71bb
00000170: 7950 14bc aac3 dfba 81ee c83b 4365 063c
00000180: 048c 9a3c 8dbb 40bd 64ed cebb d133 823a
00000190: c6bb 8cbd e888 3d3b 3eee 34bd e799 ccbc
000001a0: 46a2 feba 4072 bd3b 0024 6cb6 7930 583a
000001b0: bab6 b1bb cd5f 31bc 6c4f 6b3a 0920 c7bb
000001c0: 28ce 8bbc d387 b7ba 4589 fd3b c041 63bb
000001d0: 7350 d5bb 9d5e 553d f995 f93b a1c7 df3a
000001e0: 1549 cdbb 254b c83b 854c c73b 6c2c 53bb
000001f0: 83ef eb3a 4ab3 f9b9 c1f2 8c3b 4d05 0fbc
00000200: bca7 4cbb 2afa e23b bf65 83bc a3e4 953b
00000210: f41c d73a 6f45 653b adc0 2f3b 3d6d 4dbb
00000220: c36f 98ba d811 993b ab8d 053c 0a9c e9bb
00000230: 988c 413b 162e 0a3c f483 2f3b 0b7e 8ebb
00000240: 4821 87bc 249e 713c 89ee 01bd 5ec8 e5ba
00000250: 4377 a7bb 0297 f83b 32ef 5dbb 5dc2 663c
00000260: 027c 50bb 4ca4 6ebb 8595 eb3a c9d9 47bb
00000270: e685 bc3a a42e c1bc 682e 3d3b 97fe 8e3b
00000280: 002d 28bd f023 62bb e2b3 093c 63ce 6bbb
00000290: 2abf b9ba 7ecb c7bc 12de 973b 077f 26bb
000002a0: 4f30 3dbb 24f1 8238 660d 9a3d 18ba b0ba
000002b0: 7402 963d efdd 043d 18d4 f23b 938e fa3c
000002c0: fc52 213c c271 2d3d 1587 f8ba 9e67 caba
000002d0: 0671 64b9 202c f8bb 57fa a6bc f67a 04be
000002e0: a691 d73b ab6d 33bd c225 28bb 7cfe 9abb
000002f0: 446f d0b9 e88e a0bb 5cd6 9a3a 07ef ea3c
00000300: 4754 31bd ee1c 04bc 2001 c5ba bffd 103c
00000310: 67b7 25bb 2fcb d23b 73f0 e5ba 1145 82bb
00000320: 29be f53a eeba cdba b977 063c 872e f6bb
00000330: 9868 bbba 4a5d 89ba eac4 203b 6ef2 be3a
00000340: aa97 b3b9 e348 90bb 0974 b53a 48b1 1a3a
00000350: b8b9 273b 46eb 103b ec1a 493b 7f0a 07ba
00000360: 4fad ae3b 6b33 04ba 0659 f73b ffbc cc3b
00000370: c7e2 443d f27d b0bb 5869 08bb e41e a93b
00000380: ff2f 4dbb 9560 5e3b 768e 17bd 0465 a4ba
00000390: ba35 14bb e1eb 053c d5fc 313d debf d13b
000003a0: 5204 503a 99ff 3ebd 5662 1dba 6ae7 093b
000003b0: 0f7f 50ba 1de3 453c 2c9b 5eba 5629 20bc
000003c0: c6ed 843b f951 a039 fe6b f9ba 821b dcbb
000003d0: d7fe d7bc 8c36 aabc c1bc 21ba 3c3f 6e3a
000003e0: 3a22 b0bc 6398 be3c 7abf 0fbb 5a76 14b9
000003f0: 6228 543a c38b 9abc 4ac2 183b a1d3 48bb
-0.0011984298 0.052503657 -0.05051071 -0.009675664 0.0029748953 -0.0013296109 -0.013566299 -0.0042369734
0.0052244836 -0.031455778 -0.001735598 -0.005969232 0.000841544 -0.00053253234 0.00041392678 -0.0006677391
-0.00038989246 -0.0091425 0.0012803241 0.0027760752 0.0020835996 -0.00049781404 0.003629157 -0.006555088
-0.0032091138 -0.0061295163 0.009245972 0.0076174354 -0.00016773975 -0.007578731 0.0058344384 -0.0012939051
0.0011291472 0.011591623 0.008610898 -0.0372527 -0.0045149485 -0.0021111497 -0.005778676 -0.02253412
-0.0025283878 0.004501978 -0.0025033879 -0.0004033426 0.0057217553 0.00029006012 0.004726052 0.0099857235
0.0030847746 -0.0015041137 -0.0011606804 0.00046856474 -0.002549004 0.033045966 -0.007875812 0.011209984
-0.0026641884 0.008850457 0.006415352 0.004810334 0.0044242134 -0.0011413513 0.004921747 0.005348136
0.003572634 -0.0062967245 -0.011762382 0.0045354157 -0.0028233512 0.0015859568 -0.00083245116 0.00064391
-0.0062424075 -0.012269644 -0.0013073372 -0.0021457635 0.018290639 -0.010859986 -0.002255365 -0.0064145494
-0.0037966636 -0.0010601664 0.00045999515 7.263737e-05 -0.00147033 0.003426702 0.0030997978 0.0026231627
0.0016698405 0.021606728 -0.001792799 -0.0036779167 -0.009052389 -0.0017071862 0.0061319475 0.008202854
0.018865593 -0.047053862 -0.0063149203 0.0009933655 -0.068717524 0.0028920714 -0.044172518 -0.02497573
-0.0019427023 0.005781442 -3.5187695e-06 0.0008246969 -0.005423394 -0.010826063 0.00089763734 -0.006076817
-0.017066076 -0.0014002271 0.007737311 -0.0034676641 -0.0065098344 0.052092183 0.007616755 0.0017073044
-0.0062648156 0.0061124736 0.00608212 -0.0032222522 0.0018000457 -0.00047626562 0.0043013995 -0.008729291
-0.0031227907 0.0069267945 -0.016039727 0.0045743748 0.0016411827 0.0034984013 0.0026817725 -0.0031345629
-0.0011629987 0.0046713166 0.008151452 -0.007129197 0.0029533263 0.008433839 0.002678153 -0.0043485216
-0.016495362 0.014747176 -0.031721625 -0.0017531028 -0.0051106527 0.007586361 -0.0033864495 0.014084426
-0.0031812196 -0.0036413847 0.0017973637 -0.00304948 0.0014383167 -0.02358181 0.0028866772 0.0043638456
-0.04105854 -0.0034506284 0.008404704 -0.003598117 -0.0014171351 -0.024389025 0.004634627 -0.0025405304
-0.0028867905 6.243799e-05 0.07522087 -0.0013483195 0.07324687 0.032438215 0.0074105375 0.030585563
0.009846445 0.042344816 -0.0018961156 -0.0015442257 -0.00021785879 -0.0075736195 -0.020383043 -0.12937531
0.006578642 -0.04380576 -0.002565727 -0.004730044 -0.0003975575 -0.0048998483 0.0011813152 0.02867843
-0.043293264 -0.008063538 -0.0015030243 0.00884956 -0.0025286318 0.006432913 -0.0017542973 -0.0039755185
0.0018748689 -0.0015695968 0.008207255 -0.0075128707 -0.0014298139 -0.0010480073 0.0024531432 0.0014568099
-0.0003425454 -0.00440322 0.0013843785 0.0005901051 0.0025592875 0.002211289 0.0030686213 -0.00051514053
0.0053307186 -0.0005043062 0.007548454 0.006248116 0.048067834 -0.0053861076 -0.0020814743 0.005161153
-0.0031309125 0.003393208 -0.037001096 -0.0012542312 -0.0022615031 0.008173914 0.04345401 0.006401046
0.0007935214 -0.046630476 -0.0006003728 0.0021042475 -0.00079535035 0.012078074 -0.00084917503 -0.00977548
0.004056665 0.00030578653 -0.0019029377 -0.0067171464 -0.026366634 -0.020777963 -0.0006169789 0.0009088402
-0.021500695 0.023266023 -0.0021934197 -0.0001415847 0.0008093176 -0.018865472 0.0023309165 -0.0030643719

_output_linear.bias f4 [6]
00000000: 52d8 c6bc c60e 503d ebee 973c f92f 963b
00000010: 4c20 8a3b 70dc 1f3c
-0.024273071 0.05079534 0.018546542 0.0045833555 0.004215276 0.009757146
