data/MTMR_28002/real/uniform/D5N5/model/Lagrangian_SinNet.pt (torch_old, 44338 bytes, 5 tensors)

_input_linear.weight f4 [100, 5]
0	0x2e92b49c	6.671394e-11
1	0xaedcdbbc	-1.00434744e-10
2	0x2e1177e2	3.307566e-11
3	0xaefecf9f	-1.15874636e-10
4	0xaf369b01	-1.6607872e-10
5	0xb990041d	-0.00027468885
6	0xba62ccc3	-0.00086517277
7	0xb9ca8c06	-0.00038632768
8	0x3b00a9bf	0.0019632427
9	0xb9c08b13	-0.00036724712
10	0x3ed45373	0.41469917
11	0x3ee0d067	0.43908998
12	0xbfc8ed92	-1.5697501
13	0x3d896818	0.067093074
14	0x3d3275d5	0.043569405
15	0xb7b1266a	-2.1117932e-05
16	0xb78ba23a	-1.6645634e-05
17	0xb82c74be	-4.111672e-05
18	0x37c0b24c	2.297121e-05
19	0x3653b5a8	3.1547188e-06
20	0x3baed179	0.0053350297
21	0xbcd6252c	-0.026140772
22	0x3e6862be	0.22693917
23	0x3f2d73b1	0.67754656
24	0x3f80c292	1.0059378
25	0x38f8aca1	0.00011857716
26	0x3a4f800e	0.0007915505
27	0x3a64366f	0.0008705621
28	0x3baac22d	0.005211136
29	0xbab543b8	-0.0013829386
30	0x3445b39c	1.8412396e-07
31	0x34cf6064	3.8626888e-07
32	0x351f08cd	5.924492e-07
33	0x34176ffa	1.4103708e-07
34	0x34fe8608	4.7408707e-07
35	0xb93596c0	-0.00017317664
36	0xbd77cde0	-0.060499072
37	0x3daa0dc1	0.083034046
38	0xbf4ab96a	-0.7918917
39	0x3f815fc8	1.0107355
40	0xb281bc0f	-1.5103096e-08
41	0xafa88180	-3.0651037e-10
42	0xb01048b0	-5.249019e-10
43	0x331b1a54	3.6112695e-08
44	0xb2c41e1c	-2.2831095e-08
45	0x2e7c3414	5.734442e-11
46	0xafa56915	-3.008799e-10
47	0x2f9bca70	2.8338176e-10
48	0xb051b6fe	-7.6293805e-10
49	0xb021eaa8	-5.8904925e-10
50	0x3dd23644	0.102642566
51	0x3ddb2326	0.107000634
52	0xbf8490ce	-1.0356691
53	0x3d785e1e	0.060636632
54	0xbe5b1ab0	-0.21396899
55	0xbaa7490a	-0.0012762856
56	0x3ac72b80	0.0015195459
57	0xbbf72f2d	-0.0075434656
58	0x3a12e3dc	0.00056034117
59	0x3c9b35bd	0.018946523
60	0xbf7784b9	-0.96686894
61	0xbf70c5c5	-0.9405177
62	0x3db56a44	0.08858159
63	0x3db723b0	0.08942354
64	0x3c76f0b0	0.015072033
65	0xbf478c7d	-0.77948743
66	0xbf563066	-0.836676
67	0x3f2d3bdf	0.6766948
68	0x3fd432a0	1.657795
69	0x3c9e47d0	0.019321352
70	0xaf102b6c	-1.311215e-10
71	0x30c64e91	1.4428726e-09
72	0xafe5d214	-4.1804127e-10
73	0x30c2cb0a	1.4173065e-09
74	0x31957e86	4.350855e-09
75	0x2c91882a	4.136265e-12
76	0xabe2298d	-1.6069798e-12
77	0xab2a124a	-6.0421514e-13
78	0xad31dfaa	-1.01109485e-11
79	0x2cda426c	6.203307e-12
80	0xbdc8860b	-0.09791192
81	0x3dbae090	0.09124863
82	0x3d898581	0.06714917
83	0x3d52cfa0	0.051467538
84	0x3e384a38	0.17997062
85	0xbe52a1c8	-0.20569527
86	0xbe9254a1	-0.28580192
87	0x3fb6102c	1.4223685
88	0xbdd3d90a	-0.10344131
89	0x3e2b33dd	0.16719003
90	0x328fc3eb	1.6736484e-08
91	0x33838fd4	6.126325e-08
92	0xb2a0dca9	-1.8726796e-08
93	0xb3af4548	-8.161675e-08
94	0xb267105f	-1.3449692e-08
95	0x3210a598	8.419555e-09
96	0xb0e301ca	-1.6516932e-09
97	0x3150cb22	3.0383451e-09
98	0xb23bd859	-1.0934024e-08
99	0xb2a649cf	-1.9358508e-08
100	0x3e6ed899	0.23324813
101	0x3e6bb07e	0.23016545
102	0x3ecf9dba	0.40550023
103	0xbff0970d	-1.8796097
104	0xbdad167e	-0.08451556
105	0x3bac67ac	0.005261382
106	0x3d3eda00	0.04659462
107	0xbd89fe1e	-0.06737922
108	0x3f4d6a45	0.8024028
109	0xbf81db9e	-1.0145147
110	0xbb756292	-0.0037442786
111	0xbbc54dfe	-0.0060212603
112	0x3a3c98ea	0.0007194417
113	0xbb01fe40	-0.0019835383
114	0xbcaef8ad	-0.021358812
115	0xbe048351	-0.12940718
116	0xbe2058d0	-0.1565888
117	0xbf8dbc4a	-1.1073086
118	0x3de03aba	0.10948701
119	0xbef23c94	-0.47311842
120	0xb954b942	-0.0002028691
121	0xba0ef9e0	-0.00054541044
122	0xba3d8a96	-0.0007230429
123	0x3ad45776	0.0016200382
124	0xb9c3b2db	-0.00037326556
125	0xbda1737a	-0.078833535
126	0xbdbc34de	-0.09189771
127	0x3e33a034	0.17541581
128	0xbf891106	-1.070832
129	0x3d59e420	0.053196073
130	0x3bd84bb8	0.0066008233
131	0xbb0426da	-0.002016476
132	0x3d05998f	0.032617148
133	0x3c7a9742	0.015294852
134	0xbc346e1e	-0.011012582
135	0x2d278c92	9.524064e-12
136	0xae6fc76b	-5.4519427e-11
137	0x2dd94370	2.4699992e-11
138	0xae47c9c6	-4.5426572e-11
139	0xaec00648	-8.732265e-11
140	0xbc63cdba	-0.0139040295
141	0x3c121988	0.00891722
142	0xbe2565e5	-0.16152151
143	0xbf367d66	-0.7128509
144	0xbf82bff2	-1.0214827
145	0x2fd34563	3.842998e-10
146	0xb0683f04	-8.449066e-10
147	0x2fb5fbad	3.3102535e-10
148	0xb0a54449	-1.2024738e-09
149	0xb0366a4e	-6.636228e-10
150	0x2c84ebcc	3.7778444e-12
151	0xad51a3c0	-1.1916634e-11
152	0x2d047d52	7.531158e-12
153	0xade6b45b	-2.6228067e-11
154	0x2c93fa01	4.2057473e-12
155	0xbd7d6f1c	-0.06187354
156	0xbe07ea4b	-0.1327297
157	0x3ddedaca	0.108815745
158	0xbfa1789e	-1.2614934
159	0x3d72aa42	0.0592444
160	0xb99da4c8	-0.00030068145
161	0xbbbe9368	-0.005815912
162	0x3e1f8b46	0.15580472
163	0xbfe999d8	-1.8250074
164	0xbf6449a7	-0.89174885
165	0xad1b6d78	-8.835037e-12
166	0x2d8398fd	1.4960916e-11
167	0xad893d1c	-1.5602235e-11
168	0x2e84648e	6.020527e-11
169	0x2dd8b116	2.4634999e-11
170	0xace028fd	-6.3710135e-12
171	0x2d767e46	1.4011519e-11
172	0xac1d67f0	-2.2368739e-12
173	0xabb70930	-1.3005482e-12
174	0x2e1735d6	3.438124e-11
175	0xbd248331	-0.040164176
176	0x3d01598c	0.03157954
177	0xbc925d64	-0.017866798
178	0xbf551ada	-0.832441
179	0x3f7f390b	0.99696416
180	0xaf46b87e	-1.807354e-10
181	0x2febd33f	4.289635e-10
182	0xaf6b2e81	-2.1389647e-10
183	0x2fb619c6	3.312392e-10
184	0x300758e2	4.9239024e-10
185	0x3e2cc1ab	0.16870753
186	0x3e1c4df5	0.15264113
187	0xbfabff0e	-1.3437212
188	0x3cbe08a0	0.023197472
189	0xbe39f01d	-0.18158002
190	0x2c1c310a	2.2196156e-12
191	0xacd34892	-6.0050376e-12
192	0x2c2b0b25	2.4306748e-12
193	0xad149e10	-8.447923e-12
194	0xacc5eace	-5.6251453e-12
195	0xb9c31260	-0.0003720699
196	0xb836c69c	-4.357715e-05
197	0xbad8e7e4	-0.0016548601
198	0xbabdee9e	-0.0014490669
199	0x3adc97fc	0.0016829963
200	0x3d43c1b0	0.047792137
201	0xbb305a58	-0.0026909318
202	0x3d7be277	0.06149527
203	0x3ddd991c	0.10820219
204	0xbdfe1d06	-0.124078795
205	0x3029f311	6.182726e-10
206	0xafab6ffb	-3.1184286e-10
207	0x2fdeb8f0	4.051297e-10
208	0xb0817e57	-9.421893e-10
209	0xb08ab6cf	-1.0092779e-09
210	0x3edbef99	0.42956236
211	0x3ebf0a5c	0.3731259
212	0xbdbe8284	-0.09302238
213	0x3f8e7243	1.112862
214	0xbe19a752	-0.15005234
215	0x2c1668fa	2.1374556e-12
216	0xab85fcec	-9.520418e-13
217	0x2c8b9ed2	3.96825e-12
218	0xad1ece33	-9.027046e-12
219	0xacf2e519	-6.9034886e-12
220	0x3b89f00a	0.004209523
221	0x3ca92789	0.020648735
222	0xbbf07817	-0.0073385346
223	0x3c958791	0.01825312
224	0x3d77139a	0.060321428
225	0xbc35ded7	-0.011100492
226	0xbc79ba7e	-0.015242217
227	0xbb61dbd8	-0.0034463312
228	0xbf439c60	-0.76410484
229	0x3f7994ff	0.97492975
230	0xba76a922	-0.0009409358
231	0xba90c6a5	-0.0011045529
232	0xba252559	-0.0006299816
233	0x3b1ef5c2	0.002425537
234	0xb9dc81c2	-0.00042058347
235	0x3ebbb6e6	0.36662978
236	0x3edfd412	0.43716484
237	0x3fb104ee	1.382963
238	0x3fe1dd1b	1.7645601
239	0xbb9ae42c	-0.0047269072
240	0xb2ff377d	-2.971114e-08
241	0xb194b894	-4.328351e-09
242	0x328f9b1d	1.6717928e-08
243	0xb2d36284	-2.4608433e-08
244	0xb3d573c0	-9.93964e-08
245	0xbdf80187	-0.12109666
246	0xbe4303d8	-0.19044435
247	0x3fcd1eec	1.6025062
248	0xbfdb31f5	-1.7124621
249	0xbdbf23d5	-0.09333006
250	0x3ed4441a	0.41458207
251	0x3ebe73ce	0.37197727
252	0x3fe3c3fe	1.7794187
253	0x3e031ec6	0.12804708
254	0xbe58a4ec	-0.21156663
255	0xbda9e55b	-0.08295699

_input_linear.bias f4 [100]
0	0x28affef1	1.9539466e-14
1	0xb5794254	-9.285625e-07
2	0x3f569e94	0.8383572
3	0x33411a7a	4.4960395e-08
4	0x3e3caa32	0.184243
5	0xb47a7eca	-2.332919e-07
6	0x30124c3d	5.322283e-10
7	0xbf08f957	-0.5350546
8	0x2e02f868	2.9779207e-11
9	0xa70d926a	-1.9647052e-15
10	0x3f517e47	0.8183331
11	0xb8865152	-6.404765e-05
12	0xbf9a620e	-1.2061174
13	0x3f8e2324	1.1104474
14	0xa8f6e8ac	-2.7412392e-14
15	0xa67cefc8	-8.775503e-16
16	0xbd0bb673	-0.034109544
17	0xbf4c3f55	-0.79784137
18	0xb0908314	-1.0514634e-09
19	0xad1c1a45	-8.873406e-12
20	0x3d9ad379	0.075598665
21	0x3f00e6e5	0.5035232
22	0x38735cf4	5.8022284e-05
23	0xbf67f56a	-0.9060885
24	0xb808162a	-3.244557e-05
25	0xbe276f2c	-0.16351002
26	0x392d3fea	0.00016522376
27	0x29811a7f	5.733347e-14
28	0xbe7596ea	-0.2398335
29	0x2af5ffc5	4.3698218e-13
30	0x2889771e	1.5261714e-14
31	0xbe73cb90	-0.23808122
32	0xbf5fbbef	-0.8739614
33	0xa7db22a9	-6.082229e-15
34	0xa88dd7a0	-1.5747657e-14
35	0xbe9d4540	-0.30716896
36	0x2a39364c	1.6450139e-13
37	0x3f7ef857	0.99597687
38	0xa7b4260f	-5.00013e-15
39	0x35d23f08	1.5664564e-06
40	0xbd06916a	-0.03285352
41	0xaab704c0	-3.2510626e-13
42	0xbe190bef	-0.14945959
43	0xa7f6dbc3	-6.8516982e-15
44	0xbb168ded	-0.0022972778
45	0xbead9116	-0.33899754
46	0x346b313a	2.1903989e-07
47	0x3deea73e	0.11652993
48	0xad37e66e	-1.0453511e-11
49	0x3fb924da	1.4464371
50	0xbf4eb843	-0.8074991
51	0xbe2b9301	-0.16755296
52	0xbec3e107	-0.3825762
53	0x3ef745a1	0.4829531
54	0xbf773e99	-0.9657989
55	0x2936ee68	4.0618903e-14
56	0x3e511277	0.204172
57	0x3378c94f	5.792509e-08
58	0xbee2c27a	-0.44289
59	0x3d1766c9	0.036963258
60	0xaf395c24	-1.6858387e-10
61	0x2b0a06e1	4.9036995e-13
62	0xa6a1826f	-1.1206973e-15
63	0x38920f15	6.964632e-05
64	0xb313220a	-3.4257063e-08
65	0x3bd33d69	0.0064465296
66	0x3396faa7	7.030513e-08
67	0xab1c6f78	-5.557703e-13
68	0x3e66eee5	0.22552069
69	0xbf394e31	-0.72384936
70	0x2f526d76	1.9138277e-10
71	0xbfe6823b	-1.8008493
72	0xbf62d200	-0.88601685
73	0xbc7d517c	-0.015461322
74	0x34ed407c	4.419161e-07
75	0x3fcbd31e	1.5923803
76	0xa94f0901	-4.5971043e-14
77	0xaa8ef62d	-2.5395086e-13
78	0xb3bef2b9	-8.8917155e-08
79	0xbf8c9813	-1.0983909
80	0x2ecc12c2	9.280178e-11
81	0xbf9562e5	-1.1670805
82	0x3e72662c	0.23671788
83	0xa6d26560	-1.4599155e-15
84	0x3c94f0ee	0.01818129
85	0xbf1c5c85	-0.61078674
86	0xbf78ca0e	-0.9718331
87	0xba4c5943	-0.00077952835
88	0x31c91936	5.852736e-09
89	0xa779becb	-3.465912e-15
90	0x3ebd74b8	0.37003112
91	0x2e2ee9f0	3.9770798e-11
92	0xa632a4a5	-6.197929e-16
93	0xb06653ea	-8.379276e-10
94	0xa6e29534	-1.5722342e-15
95	0x238b603a	1.5111164e-17
96	0xb7357d25	-1.0817578e-05
97	0xbf67928c	-0.9045799
98	0x3f0d6117	0.5522627
99	0xb07aca2e	-9.1236785e-10

_middle_linear.weight f4 [100, 100]
0	0xbd06395a	-0.03276954
1	0x3dcc33e1	0.099708326
2	0xbdb4eeb8	-0.088345945
3	0xbd90f888	-0.070786536
4	0xbd8efac2	-0.06981422
5	0xbd753c1a	-0.05987177
6	0x3c3d1ad0	0.011542037
7	0x3dc39829	0.095505066
8	0x3d991649	0.07474954
9	0xbd531757	-0.05153593
10	0xbb783cc0	-0.0037878007
11	0x3d8b6593	0.06806483
12	0xbdba6c8d	-0.09102736
13	0xbdbd606f	-0.09246909
14	0x3dbd47b9	0.09242196
15	0x3d430936	0.047616206
16	0x3d861c0b	0.065483175
17	0xbbe9b180	-0.0071317554
18	0xbd8a1aec	-0.06743416
19	0x3ca2676c	0.019824706
20	0xbd381b5d	-0.04494797
21	0xbd9b40b3	-0.075807
22	0xbd9e3153	-0.077242516
23	0x3d31349a	0.043263055
24	0xbc364ec0	-0.011127174
25	0xbdb95945	-0.0905023
26	0x3da97cb1	0.08275736
27	0x3db852c3	0.090001605
28	0x3d224912	0.039620467
29	0x3bc68960	0.006058857
30	0x3d07a192	0.03311307
31	0x3cd90504	0.02649165
32	0xbd1f7010	-0.03892523
33	0x3daff809	0.08592231
34	0xbb69b060	-0.0035658106
35	0x3da066af	0.07832085
36	0xbdb2bae8	-0.08727056
37	0x3da19445	0.07889608
38	0xbdc9fcc3	-0.098626636
39	0xbd063e40	-0.03277421
40	0xbd34319d	-0.043992627
41	0xbd8b912e	-0.068148
42	0xbd678cba	-0.05653069
43	0x3d967af9	0.07347674
44	0xbc223368	-0.0098999515
45	0x3c3327c0	0.01093477
46	0xbd9d3068	-0.076752484
47	0x3dbcf233	0.09225883
48	0xbd5d3ebd	-0.05401491
49	0xbd7ad123	-0.061234605
50	0x3c8e9f00	0.017409801
51	0x3b873b80	0.004126966
52	0xbd6c5340	-0.05769658
53	0xbda729f8	-0.08162302
54	0x3d92af49	0.07162339
55	0xbd85a754	-0.06526056
56	0x3d896339	0.06708378
57	0xbc30e768	-0.010797359
58	0x3d5027ba	0.050819136
59	0xbc7515d0	-0.014958814
60	0x3d8af22f	0.06784474
61	0x3c57f7d0	0.013181642
62	0xbc054340	-0.008133709
63	0xbd1f0613	-0.038824152
64	0x3d434c02	0.04767991
65	0x3ca86de0	0.020560205
66	0x3bb635e0	0.0055606216
67	0xbc776080	-0.015098691
68	0xbcecb038	-0.028892621
69	0xbc0770b0	-0.008266613
70	0xbdbb8fd3	-0.09158292
71	0xbd80eaee	-0.06294809
72	0xbdb5b5df	-0.0887258
73	0x3d93edcf	0.07223093
74	0x3ca24a2c	0.019810759
75	0xbd9a7fd3	-0.07543912
76	0x3d485c9e	0.04891645
77	0xbd980825	-0.074234284
78	0xbd29fb5a	-0.041499473
79	0x3d9f8d7f	0.0779066
80	0x3d7ae9e2	0.061258204
81	0x3d2aba12	0.041681357
82	0x3da21875	0.07914821
83	0xbd0b2c56	-0.03397783
84	0x3db07563	0.0861614
85	0xbd9cd23b	-0.07657286
86	0xbcbfa148	-0.023392335
87	0xbdcb884a	-0.099381045
88	0x3d98b0c1	0.07455588
89	0xbd5c0e3a	-0.053724505
90	0x3cf41c9c	0.029798798
91	0xbdb9d7a5	-0.09074334
92	0x3c9d43ec	0.019197427
93	0xbda7b69a	-0.08189125
94	0x3d29128e	0.04127746
95	0xbd0e9f06	-0.034819625
96	0xbce349ec	-0.02774521
97	0xbda472ea	-0.080297306
98	0x3ac9ab40	0.001538612
99	0xbce5d9ac	-0.028057896
100	0x3c9c9b40	0.019116998
101	0x3da002f1	0.07813061
102	0x3b926d80	0.00446862
103	0xbdaf60c2	-0.08563377
104	0x3da667bb	0.08125254
105	0xbdb6c7ab	-0.089248024
106	0x3b6305c0	0.0034640878
107	0x3bd5b7b0	0.0065221414
108	0xbdb487c5	-0.088149585
109	0xbbb97280	-0.0056594014
110	0x3d953bc5	0.07286791
111	0x3da1333f	0.078711025
112	0xbcc2a788	-0.023761526
113	0x3d72caea	0.059275545
114	0x3c8f3a74	0.017483927
115	0x3c5dbf98	0.013534449
116	0x3d35e60a	0.044408835
117	0xbc373198	-0.011181258
118	0x3c84c314	0.016206302
119	0xbaff4280	-0.0019474775
120	0x3dbee595	0.09321133
121	0x3cb1c820	0.021701872
122	0xbcf83e8c	-0.030303262
123	0xbd0c5c80	-0.034267902
124	0xbd5b652a	-0.053563274
125	0x3d241392	0.040057726
126	0x3dbe155d	0.092814185
127	0x3d2b8af2	0.041880555
128	0xbc156d68	-0.009120323
129	0xbabdb800	-0.0014474392
130	0x3db04163	0.086062215
131	0xbd3e01a0	-0.04638827
132	0x3d68983e	0.056785814
133	0x3db43e87	0.08800989
134	0xbce8ac6c	-0.02840253
135	0xbc3c1cc0	-0.011481464
136	0x3c0a8440	0.008454382
137	0x3c52f518	0.012875818
138	0x3dcbd353	0.09952416
139	0x3bc9bd60	0.0061566085
140	0xbdb87a53	-0.090077065
141	0x3d8354b3	0.064126395
142	0xbdca4982	-0.09877302
143	0xbb8875b0	-0.00416442
144	0xbc8e69ec	-0.017384492
145	0xbd9e6a9b	-0.07735177
146	0x3c13dac0	0.009024322
147	0xbdc99b27	-0.09844046
148	0x3d930613	0.07178893
149	0xbca3a018	-0.0199738
150	0x3d96454b	0.07337435
151	0xbdc282b0	-0.09497583
152	0xbda91606	-0.08256154
153	0xbd1cd373	-0.03828759
154	0xbcb625e0	-0.022234857
155	0x3c06d8d8	0.0082304105
156	0xbc197468	-0.009366132
157	0x3d2d429e	0.04229986
158	0xbd2e25ea	-0.042516626
159	0xbdc8c005	-0.0980225
160	0x3ccc31e8	0.02492614
161	0x3dc230c9	0.09481961
162	0xbdc13d75	-0.0943555
163	0x3d5b5902	0.05355168
164	0xbcf73e8c	-0.030181192
165	0xbca72298	-0.020402238
166	0xbd91ca4b	-0.071186624
167	0x3d74a1f2	0.059724756
168	0x3dc876e9	0.09788305
169	0xbbb4dd80	-0.005519569
170	0xbbce6460	-0.0062985867
171	0x3db088a1	0.0861981
172	0x3dab2d2f	0.083582275
173	0x3da36271	0.079777606
174	0xbac58880	-0.0015070587
175	0x3d788bba	0.06068013
176	0x3bdebc80	0.0067973733
177	0xbd149420	-0.036274076
178	0x3da5e381	0.081000336
179	0xbd525cb3	-0.051357936
180	0x3d13bad6	0.036066853
181	0xbcf45c14	-0.029829063
182	0x3b253600	0.0025209188
183	0x3d759952	0.05996067
184	0xbd7ad30a	-0.06123642
185	0x3dbdcb7f	0.092673294
186	0x3dc0f379	0.09421439
187	0xbc2e2910	-0.010629907
188	0x3d98f71d	0.07469008
189	0xbd256163	-0.04037608
190	0x3c331d70	0.010932311
191	0xbc88b70c	-0.016688846
192	0xbc9066e0	-0.01762718
193	0xbdace692	-0.08442415
194	0xbda0104a	-0.07815607
195	0xbdc019b5	-0.09379903
196	0x3d8824cb	0.06647643
197	0xbcbfa2f4	-0.023393132
198	0x3dc8bc07	0.09801488
199	0xbd9e076d	-0.0771626
200	0xbb4c1960	-0.0031143054
201	0x3d37720e	0.044786505
202	0x3d8af92b	0.06785806
203	0xbd57ee43	-0.05271746
204	0x3d477032	0.048690982
205	0x3dc06929	0.09395058
206	0x3bde0100	0.0067750216
207	0xbd775067	-0.060379412
208	0x3d347156	0.044053398
209	0xbdac4926	-0.084123895
210	0xbd3ea2ad	-0.04654186
211	0x3da017c1	0.07817031
212	0xbd81fb9c	-0.06346819
213	0xbc985fec	-0.018600427
214	0xbdb4c3b2	-0.088263884
215	0xbdc93ae8	-0.098256886
216	0xbd9ca0e5	-0.07647876
217	0x3da28df1	0.079372294
218	0xbcf5842c	-0.029970251
219	0x3dc2d439	0.095131345
220	0xbd11e56c	-0.035619184
221	0xbcb24320	-0.021760523
222	0x3d3b0942	0.045663126
223	0x3dc610ff	0.096712105
224	0x3c8f2a48	0.017476216
225	0x3c71de00	0.014762402
226	0x3da9efbd	0.082976796
227	0xbb6a5800	-0.0035758018
228	0x3bbf9cb0	0.005847536
229	0xbd1523dc	-0.03641115
230	0xbd8918b6	-0.06694166
231	0x3d347a16	0.044061743
232	0xbcf503c0	-0.029909015
233	0x3ce38924	0.027775355
234	0x3d6518fe	0.055932038
235	0xbd7364b3	-0.059422206
236	0xbd9ab50b	-0.075540625
237	0x3d1fe636	0.039037906
238	0xbc3bdfd8	-0.011466943
239	0x3cfafd34	0.030638315
240	0xbd89931a	-0.067175105
241	0x3da0d69b	0.07853433
242	0xbc846a34	-0.016163923
243	0xbc64d3a8	-0.013966478
244	0x3daa979b	0.08329698
245	0xbd7a9bf0	-0.06118387
246	0xbd2a799a	-0.041619875
247	0xbb8c9d20	-0.0042911917
248	0xbdcbe0f3	-0.09955015
249	0xbdbe000a	-0.09277351
250	0xbd1c039d	-0.038089383
251	0x3d9f9671	0.07792366
252	0xbc3ab680	-0.01139605
253	0xbd053b54	-0.032527283
254	0x3dc7d47f	0.09757327
255	0x3cbe6a94	0.02324418

_middle_linear.bias f4 [100]
0	0xbdc9fe1a	-0.09862919
1	0x3d093ba2	0.033504136
2	0x3db5afc9	0.08871419
3	0xbda60a2d	-0.081074096
4	0xbc703b50	-0.014662579
5	0x3d3355f2	0.043783136
6	0x3dc91f89	0.09820468
7	0xbcc02248	-0.023453847
8	0xbc51e280	-0.012810349
9	0xbd9d6480	-0.076851845
10	0xbd1ea5e0	-0.03873241
11	0x3dbff78d	0.093733884
12	0x3bd42260	0.0064738244
13	0xbd80051d	-0.06250975
14	0x3dbd6c29	0.092491455
15	0xbdbb905a	-0.09158392
16	0x3d832cd9	0.064050384
17	0x3b971b80	0.0046114326
18	0x3ce79264	0.028268047
19	0xbcc9a54c	-0.024614953
20	0x3d3146d6	0.043280445
21	0xbc1a3ed0	-0.00941439
22	0xb9ccfa00	-0.00039096177
23	0xbd9a1588	-0.07523638
24	0xbd230693	-0.03980119
25	0xbce45ff4	-0.027877785
26	0x3b061960	0.0020461902
27	0xbd654663	-0.05597533
28	0xbcc930c8	-0.024559394
29	0xbd37a6ba	-0.044836737
30	0x3cf38224	0.029725142
31	0x3daa352b	0.08310922
32	0x3d2d42a2	0.042299874
33	0x3cb6a374	0.022294737
34	0xbdbae09a	-0.091248706
35	0x3a86fe80	0.0010299236
36	0x3d870299	0.06592292
37	0x3d358f4a	0.044326104
38	0xbdbf75bf	-0.0934863
39	0x3c72c390	0.014817134
40	0xbcdab9b4	-0.026699878
41	0x3d2e787a	0.042595364
42	0x3d871797	0.06596296
43	0xbc4653e8	-0.012104966
44	0x3db291b3	0.08719196
45	0xbbad09e0	-0.005280718
46	0x3d72c45e	0.0592693
47	0x3c6c9e90	0.014442101
48	0xbca0656c	-0.019579612
49	0xbd7df280	-0.061998844
50	0xbd65ebf3	-0.05613322
51	0x3dab5703	0.083662055
52	0x3d03a50e	0.03213983
53	0x3c838e78	0.016059145
54	0x3db68b65	0.08913306
55	0x3c65a270	0.014015779
56	0xbd557b63	-0.052119624
57	0x3d363b66	0.04449024
58	0x3bcda5b0	0.006275855
59	0x3c189580	0.009312987
60	0xbc094600	-0.008378506
61	0xbd0bbc26	-0.03411498
62	0xbdc2b423	-0.095070146
63	0xbda24165	-0.07922629
64	0xbdbea268	-0.0930832
65	0x3d826769	0.0636738
66	0xbc506c68	-0.012721159
67	0x3db16e45	0.0866361
68	0x3d87ef11	0.06637395
69	0xbda215b2	-0.07914294
70	0xbda0ffde	-0.07861303
71	0x3b410640	0.0029453188
72	0xbd408a7d	-0.047007073
73	0x3db6fb93	0.08934703
74	0xbd5a75c3	-0.053334963
75	0x3dc871df	0.09787344
76	0x3ceaf564	0.028681464
77	0x3baffce0	0.005370721
78	0x3da7366f	0.08164679
79	0x3cbbcd94	0.022925176
80	0xbb5b7400	-0.003348589
81	0xbda43a75	-0.08018962
82	0xbca1c9d4	-0.01974956
83	0xbca50048	-0.020141736
84	0xbda2447e	-0.0792322
85	0x3d1dd04e	0.038528733
86	0xbc549ec0	-0.012977302
87	0x3d6d9422	0.0580026
88	0x3d8e656d	0.06952939
89	0x3d66857a	0.056279637
90	0x3d86ac87	0.06575876
91	0x3d7e99d2	0.062158413
92	0x3d7b8002	0.061401375
93	0xbcec3e60	-0.028838336
94	0xbd035a3c	-0.032068476
95	0xbd6904a7	-0.056889202
96	0x3da87009	0.08224494
97	0x3d46c206	0.04852488
98	0xbcf04338	-0.029328927
99	0xbd9bacb5	-0.076013006

_output_linear.weight f4 [1, 100]
0	0x2dd3e04c	2.408753e-11
1	0x3a4af927	0.0007742815
2	0xbf7421ae	-0.9536389
3	0x378d9ec0	1.6882434e-05
4	0xbef68273	-0.481464
5	0x3999176e	0.0002919989
6	0x33d1ee69	9.7756875e-08
7	0x3f21d629	0.6321741
8	0xb1f9b6db	-7.267642e-09
9	0x2f735832	2.2132055e-10
10	0xbeff18b0	-0.49823523
11	0x3b8302d2	0.003998139
12	0xbedf8ded	-0.43662968
13	0xbe44ef40	-0.19231892
14	0x2fff627c	4.6454207e-10
15	0x2c1199a3	2.0691025e-12
16	0x3c0f7054	0.008754808
17	0x3f4bdfe8	0.7963853
18	0xb318b819	-3.5557694e-08
19	0x31b75ec5	5.336775e-09
20	0xbf4a7d85	-0.7909778
21	0xbf256f09	-0.6462255
22	0xbba81726	-0.0051297126
23	0x3f818412	1.011843
24	0x3a1f7632	0.0006082981
25	0xbee0ddbd	-0.43919173
26	0x39411530	0.00018413807
27	0x2dad3499	1.9691181e-11
28	0x3f149fc9	0.5805631
29	0x301a6e74	5.6181837e-10
30	0x2d0f2976	8.137815e-12
31	0xbf2ba6bc	-0.6705129
32	0x3f8cca44	1.0999227
33	0xad38fef2	-1.0515798e-11
34	0xacfc6104	-7.1730417e-12
35	0x3efa1c2a	0.48849612
36	0xaf81f6fd	-2.364046e-10
37	0xbf4c07ed	-0.79699594
38	0x2c2ae495	2.4285342e-12
39	0x38574c6c	5.1331168e-05
40	0x3cec0598	0.028811261
41	0x30213eb1	5.866055e-10
42	0x3ed0a045	0.40747276
43	0x2c1d7962	2.2378423e-12
44	0x3c44f9cf	0.01202245
45	0x3edc7cc6	0.43063945
46	0x3a62e3db	0.0008655169
47	0x3eeefd60	0.46677685
48	0xb28f2b36	-1.6667041e-08
49	0xbf2f7766	-0.6854156
50	0xbf15e515	-0.58552676
51	0xbeedb0bf	-0.4642391
52	0x3f464fd8	0.7746558
53	0x3f2c2158	0.6723838
54	0x3f26f106	0.6521152
55	0xae04b746	-3.0176105e-11
56	0xbeb41e98	-0.3517959
57	0xb4cdeac5	-3.8355043e-07
58	0x3f0d3340	0.55156326
59	0x3cc289ac	0.023747288
60	0x3396ea63	7.027554e-08
61	0xb08ed75e	-1.0393071e-09
62	0xaba89930	-1.1979636e-12
63	0x3abe4e4a	0.0014519182
64	0xb6ad1bab	-5.1590227e-06
65	0x3b26c49c	0.0025446778
66	0x37953d5a	1.7790753e-05
67	0x2ff3179b	4.4218215e-10
68	0x3f1f3623	0.6219198
69	0x3eeb1b5a	0.45919305
70	0xb3a50713	-7.684698e-08
71	0xbf3e9a36	-0.7445406
72	0x3f2b7bf3	0.66986006
73	0xbd16114e	-0.036637597
74	0x396dfb37	0.00022695666
75	0x3f1ff957	0.6248984
76	0x2e00bb06	2.926994e-11
77	0x2ead59bb	7.8830685e-11
78	0xb68fd1c8	-4.286154e-06
79	0xbf0de187	-0.5542225
80	0xb3872b3a	-6.29429e-08
81	0xbdc25c4e	-0.09490262
82	0x3f3305c0	0.6993065
83	0xabaadaa8	-1.2139916e-12
84	0xbd09f594	-0.033681467
85	0x3f4953bb	0.7864339
86	0x3eec1e70	0.46116972
87	0x3ba4aeeb	0.0050257347
88	0xb788ff4d	-1.6331347e-05
89	0x2c83944c	3.739708e-12
90	0xbe9ac0b8	-0.30225158
91	0x3392359e	6.808408e-08
92	0x29769680	5.475351e-14
93	0xb2613c80	-1.311048e-08
94	0xab62c8f6	-8.057022e-13
95	0xa947cf4f	-4.4366688e-14
96	0xb50e9320	-5.311322e-07
97	0x3f739def	0.9516286
98	0xbecef1cf	-0.4041886
99	0xb419aeb2	-1.4312789e-07
