data/MTMR_28002/real/uniform/D5N5/model/Lagrangian_SinNet.pt (torch_old, 44260 bytes, 5 tensors)

_input_linear.weight f4 [100, 5]
0.82713455 0.81446147 -0.54448813 -1.4338331 -0.054736715 -6.0484134e-19 -4.1242041e-19 -6.474958e-20
3.0281976e-19 -1.1144635e-18 0.01133945 0.005322149 -0.0006813446 -0.015981862 0.0030916124 -3.3605811e-09
-4.4057638e-10 4.780728e-09 9.3236245e-09 -3.6950825e-09 -1.0404159e-07 -4.0874827e-08 -1.7656308e-07 7.678999e-08
4.5234975e-07 0.007829639 0.001106659 0.003239804 0.70535934 1.0651515 -4.7428596e-11 -8.685575e-12
-1.574987e-10 6.5476596e-11 4.779413e-12 0.13262403 0.097072415 -1.2218482 -0.016483525 -0.3414649
0.019087233 0.006046129 -0.0050245617 -0.010137432 -0.015094694 8.665297e-15 -1.479644e-14 -7.010161e-14
-2.0868104e-13 -2.5478672e-13 1.30416124e-17 3.810551e-18 -5.253362e-18 -4.490974e-17 -2.0172447e-17 3.750539e-13
-5.659549e-14 -9.753177e-13 -8.401074e-13 3.7672518e-13 2.8562304e-12 2.0090743e-12 4.9422636e-12 3.4698399e-12
5.74551e-12 2.9082535e-12 2.8486768e-12 2.2293927e-12 7.7825125e-12 1.4325604e-11 0.45817128 0.48564154
1.6658788 0.18178892 -0.20862255 0.028222268 0.010445546 -0.13233598 1.9165691 -1.3830419
-0.46793732 0.35414782 -0.08758128 -0.041317865 0.042881843 -0.012754906 -3.809251e-05 -0.0071356744
0.013941891 0.017636843 0.011002595 0.07626514 -0.17193359 0.6731714 1.1793779 -0.08471368
-0.06734279 0.42217565 0.29216868 -0.06277707 0.0056823725 0.001420446 -0.00075820694 -0.010595463
-0.0019156993 -0.026477022 -0.017993089 0.01987747 -0.06259509 -0.13117635 4.3733588e-05 -0.00012500137
-0.00018887094 9.317608e-05 0.00043450107 -2.3460705e-17 -8.709229e-18 -1.6531979e-17 2.6061764e-18 -3.6083984e-17
-0.38616335 -0.30935565 0.083688706 -1.2002901 0.051290963 0.012241585 0.012790298 0.12065495
-1.841627 -0.9380621 -5.485869e-06 -1.6284234e-06 1.5631181e-06 2.0915268e-06 1.0354245e-06 -1.0949798e-07
-4.904997e-08 -7.8049084e-08 9.1805905e-09 -8.093042e-08 6.551821e-07 -1.9311065e-06 1.4221974e-05 2.7942726e-06
-1.2413875e-05 1.5300908e-19 6.747912e-20 1.5904596e-19 3.357037e-19 9.899482e-20 -0.0004215708 -0.00035466175
-0.0007328922 -4.5626184e-05 -0.00059036503 -0.052172482 0.012075318 0.16145067 -1.5299032 2.5767698
0.016718447 0.024420163 0.13451084 -0.8250807 1.3360056 -5.073204e-07 9.682985e-07 -6.1023925e-06
-1.2462392e-06 4.870725e-06 -4.6480334e-17 -1.8824154e-16 -3.771862e-16 -9.765785e-16 -1.0539413e-15 0.00034245534
0.0001338504 0.0013656446 -9.052965e-05 -0.00048062048 0.007678475 -0.0040812455 0.003447853 0.7733521
1.1057239 -3.3944436e-09 -1.4878616e-08 9.565176e-08 7.4789284e-08 -4.735358e-08 2.2637052e-07 3.965038e-08
-6.870891e-08 -1.8092798e-07 -3.228809e-07 0.039608132 0.014346285 -0.009435365 -0.06093037 0.03868363
4.8405886e-18 3.0711032e-18 5.598789e-18 9.12044e-19 4.8287946e-18 0.01628445 0.046674993 0.11091068
-3.470692 -0.098176844 -0.029458849 -0.013626646 -0.011324206 0.0027124463 -0.017551266 5.7993584e-06
-6.764629e-06 1.5294176e-05 -3.0982567e-06 -1.2364911e-05 1.2363673e-17 6.0784002e-18 -2.3649858e-17 -3.9248016e-17
-4.881896e-17 0.13898633 0.24506088 -1.4364173 -1.677976 0.10155455 -3.816023e-13 3.9121887e-12
-6.1693315e-12 -3.3940695e-12 4.3095015e-12 -0.0032983304 -0.0014123146 -0.0009288483 0.0066475063 0.0042982167
5.3927746e-15 4.2423798e-15 1.4635143e-15 -5.1702967e-15 1.3992906e-14 -0.9120162 0.23736563 -0.038502116
0.041952163 0.016735595 -1.9763168e-07 -3.7684984e-07 3.0379058e-06 1.741833e-06 -2.5176664e-06 0.25825912
00000000: 17bf 533f 8c80 503f 9363 0bbf d887 b7bf
00000010: 9b33 60bd 8584 32a1 3673 f3a0 b8e2 989f
00000020: d4c0 b220 3e77 a4a1 1ac9 393c 6c65 ae3b
00000030: 439c 32ba 65ec 82bc a69c 4a3b f8ef 66b1
00000040: 9d35 f2af ba43 a431 bc2d 2032 94ec 7db1
00000050: 786d dfb3 598e 2fb3 4a95 3db4 bee7 a433
00000060: 7ada f234 e347 003c 500d 913a e452 543b
00000070: 6e92 343f e256 883f da97 50ae 5acc 18ad
00000080: f12b 2daf 0cfc 8f2e 2029 a82c 98ce 073e
00000090: e7cd c63d 8665 9cbf 7508 87bc 7dd4 aebe
000000a0: d45c 9c3c 9b1e c63b 14a5 a4bb 7917 26bc
000000b0: bc4f 77bc a119 1c28 4546 85a8 d4da 9da9
000000c0: 37f4 6aaa a36e 8faa 4693 7023 a395 8c22
000000d0: 9ad0 c1a2 101c 4fa4 d80e baa3 f722 d32a
000000e0: 28e2 7ea9 8643 89ab 1e78 6cab d213 d42a
000000f0: 46fd 482c 4460 0d2c f4e3 ad2c 142b 742c
00000100: f426 ca2c 70a6 4c2c 3375 482c 2be1 1c2c
00000110: 52e9 082d c904 7c2d 6d95 ea3e 02a6 f83e
00000120: 843b d53f e026 3a3e 26a1 55be 6332 e73c
00000130: cc23 2b3c 1583 07be 2352 f53f 8407 b1bf
00000140: 7b95 efbe dd52 b53e d05d b3bd ec3c 29bd
00000150: dfa4 2f3d f4f9 50bc 85c5 1fb8 60d2 e9bb
00000160: 876c 643c 247b 903c 3a44 343c e630 9c3d
00000170: 5c0f 30be f654 2c3f dbf5 963f 5e7e adbd
00000180: 04eb 89bd 6827 d83e 2297 953e 4491 80bd
00000190: 3233 ba3b 422e ba3a 68c2 46ba 9898 2dbc
000001a0: 3418 fbba 57e6 d8bc 3e66 93bc 13d6 a23c
000001b0: db31 80bd 1853 06be 956e 3738 cd12 03b9
000001c0: a80b 46b9 8767 c338 bfcd e339 0663 d8a3
000001d0: 2ca8 20a3 087b 98a3 484d 4022 7368 26a4
000001e0: 34b7 c5be dd63 9ebe fc64 ab3d 1ba3 99bf
000001f0: 7916 523d ee90 483c 668e 513c f119 f73d
00000200: 6fba ebbf d624 70bf 4213 b8b6 3490 dab5
00000210: 54cc d135 285c 0c36 eaf8 8a35 2725 ebb3
00000220: 03ab 52b3 f09b a7b3 aab8 1d32 f8cb adb3
00000230: c5df 2f35 2898 01b6 ea9a 6e37 3d85 3b36
00000240: 3045 50b7 28a4 3420 a054 9f1f b1c4 3b20
00000250: 1c2a c620 b2be e91f 4606 ddb9 e5f1 b9b9
00000260: 901f 40ba be5e 3fb8 bac2 1aba d0b2 55bd
00000270: 8ed7 453c 5353 253e ded3 c3bf cce9 2440
00000280: 20f5 883c cb0c c83c 36bd 093e 7d38 53bf
00000290: 3b02 ab3f cb2e 08b5 7cf6 8135 27c3 ccb6
000002a0: 7444 a7b5 366f a336 4b5a 56a4 1907 59a5
000002b0: dc6e d9a5 63bd 8ca6 92e3 97a6 948b b339
000002c0: 315a 0c39 6eff b23a bcda bdb8 cafb fbb9
000002d0: b89b fb3b f8bb 85bb 60f5 613b 67fa 453f
000002e0: 5c88 8d3f af43 69b1 d89c 7fb2 1c69 cd33
000002f0: d89b a033 d061 4bb3 4110 7334 0e4c 2a33
00000300: 1f8d 93b3 1b45 42b4 6a58 adb4 233c 223d
00000310: ae0c 6b3c ca96 1abc 2092 79bd ba72 1e3d
00000320: 1196 b222 809b 6222 118f ce22 0c98 8621
00000330: ad26 b222 f866 853c 472e 3f3d 2325 e33d
00000340: d11f 5ec0 f110 c9bd af53 f1bc 4c42 5fbc
00000350: 2a89 39bc 4cc3 313b acc7 8fbc 1c98 c236
00000360: b8fb e2b6 fe4b 8037 a5eb 4fb6 e372 4fb7
00000370: cc11 6423 de40 e022 a621 daa3 e1ff 34a4
00000380: 4123 61a4 6f52 0e3e 3df1 7a3e 86dc b7bf
00000390: ebc7 d6bf d5fb cf3d b0d2 d6aa dda5 892c
000003a0: 6610 d9ac 1fd6 6eac 8aa0 972c cd28 58bb
000003b0: 6a1d b9ba f47d 73ba 53d3 d93b 0ed8 8c3b
000003c0: 914b c227 0cd9 9827 26ea d226 9247 baa7
000003d0: e412 7c28 e579 69bf fa0f 733e 65b4 1dbd
000003e0: 08d6 2b3d 1619 893c 9534 54b4 d951 cab4
000003f0: d3de 4b36 edc8 e935 2ef5 28b6 8a3a 843e

_input_linear.bias f4 [100]
-1.3249797 -2.250012e-22 4.2927397e-05 3.0854932e-12 2.7100457e-13 0.41900644 -1.05740756e-14 0.99581623
5.2108528e-05 6.876236e-17 -1.6188196e-20 -2.684138e-16 9.632764e-16 1.2872239e-15 -0.6896184 0.7837952
-0.6238583 -7.679754e-06 0.5917196 0.16316581 1.298692e-06 -0.026873145 -0.0052321507 -4.574281e-21
0.14470893 -1.0224082 6.277766e-09 1.6414257e-10 3.6866608e-09 3.5842015e-22 -1.2576767e-07 -0.66606677
-0.51201516 -6.0205385e-10 -5.8400006e-19 4.6942432e-07 0.4296494 6.959753e-11 1.09723126e-10 0.026010916
-4.2950812e-21 -1.7976776 -0.00089911453 -3.5042222e-09 -1.9108121e-20 1.1972327 2.8505173e-14 1.4380102e-05
2.9815142e-18 1.2134198 -6.168216e-10 -0.5114323 -1.2330953e-14 3.1166025e-17 6.0739106e-14 0.1196078
0.00023251987 -0.043422528 0.01987549 -6.6969086e-08 -1.0212016 0.25929838 -3.215958e-10 -5.964701e-16
1.3237899e-12 8.5198396e-16 -0.5034261 -0.1826685 -1.4286816 4.3026462e-09 4.6517038e-20 3.7150492e-14
0.0003642279 1.2108355 -1.0177332 2.5198172e-20 0.41545624 0.39925495 0.16105229 0.32570207
-1.2499528 -4.5623557e-12 0.5064958 -0.5196354 -1.8903615e-19 8.366157e-06 0.010787178 -0.018127132
1.630189e-12 0.03896034 -0.6076044 0.8165739 -1.5916893e-16 1.2381214 -0.0014301881 1.2914303e-12
0.016090417 -0.93266034 0.00860315 -0.05863837
00000000: ef98 a9bf 4001 889b f10c 3438 4e1f 592c
00000010: e08f 982a 0388 d63e 517c 3ea8 d0ed 7e3f
00000020: 1b8f 5a38 228e 9e24 a8e4 989e e3ba 9aa5
00000030: a0d2 8a26 2e82 b926 d58a 30bf cda6 483f
00000040: 2db5 1fbf 4bd8 00b7 f07a 173f f014 273e
00000050: b84e ae35 1225 dcbc 7672 abbb bbcf ac9d
00000060: 942e 143e 46de 82bf d0b3 d731 077a 342f
00000070: 6c58 7d31 d5a6 d81b c10a 07b4 5a83 2abf
00000080: 6d13 03bf c67d 25b0 cc5d 2ca1 3005 fc34
00000090: 02fb db3e ed0b 992e a148 f12e d814 d53c
000000a0: 7a43 a29d 4d1a e6bf 8eb2 6bba eece 70b1
000000b0: 9a78 b49e ec3e 993f 3a60 0029 1142 7137
000000c0: 36ff 5b22 5751 9b3f f68c 29b0 3aed 02bf
000000d0: 7c22 5ea8 59ba 0f24 b6c5 8829 eff4 f43d
000000e0: 94d0 7339 d2db 31bd ecd1 a23c a5d0 8fb3
000000f0: bcb6 82bf c2c2 843e 96cc b0af baeb 2ba6
00000100: 8f4e ba2b 5291 7526 88e0 00bf 740d 3bbe
00000110: 0adf b6bf 7ad6 9331 a6ab 5b1f 9a4f 2729
00000120: d7f5 be39 a8fc 9a3f 1545 82bf 71fd ed1e
00000130: aeb6 d43e 256b cc3e e4ea 243e 6cc2 a63e
00000140: 74fe 9fbf 0c86 a0ac b5a9 013f d306 05bf
00000150: ac2c 5fa0 5f5c 0c37 b4bc 303c 5a7f 94bc
00000160: c06d e52b e194 1f3d f68b 1bbf fd0a 513f
00000170: 6082 37a5 c37a 9e3f 2675 bbba aec0 b52b
00000180: 0dd0 833c d4c2 6ebf 3af4 0c3c ca2e 70bd

_middle_linear.weight f4 [100, 100]
0.029819883 0.03524957 0.0484593 -0.011161149 0.03213907 0.08413153 -0.042373527 -0.07877885
0.033787705 0.05096119 0.008135952 -0.004722975 -0.02072446 0.06338102 -0.05741478 -0.022231057
0.02168572 0.0057747364 0.086288325 0.011937521 -0.028228581 0.08806453 -0.0899874 -0.031090759
-0.08519983 0.0030670166 0.051520906 0.0949414 0.06930556 0.015553281 0.07013493 0.093631186
0.024094999 -0.06561187 0.041062035 0.0736681 0.026138581 -0.053472735 -0.059661638 0.07892356
0.08234172 0.019767284 0.034892507 -0.043408003 0.000504829 -0.06662601 0.07374615 0.06671258
-0.04701842 0.07453097 -0.0009563938 0.083576374 0.011649132 0.086800136 -0.044662334 0.054838873
-0.07571914 0.021579243 -0.06986679 -0.035475053 -0.09317546 -0.027449012 0.05388931 -0.020937786
-0.03494899 0.076758735 0.022104762 0.07705889 0.07255759 -0.035021782 0.076375015 -0.0054980963
-0.08744687 -0.067695245 -0.039512303 0.015595637 0.02686841 0.015802875 0.033937342 -0.09866537
-0.07441418 0.07364308 0.05989016 0.046351217 -0.07516579 -0.05567653 -0.035573438 0.09973974
0.05533696 -0.09635239 0.0715347 -0.028238103 -0.09371821 0.03966535 0.05724054 -0.053608704
0.035519503 -0.05663724 0.03821688 0.0662647 0.06080491 -0.0068283305 0.027244724 -0.004784666
-0.030249223 0.048999272 0.01591529 -0.005944565 -0.075917244 -0.014804378 -0.031941637 0.0066657215
0.0088970885 0.018105313 -0.009513006 0.046935625 0.068638586 -0.037147164 0.03223128 0.05675196
-0.016104653 -0.07965194 0.022928573 0.030648686 0.09363607 0.091791056 -0.01772473 -0.04042722
0.05765719 0.0080698505 -0.078833245 -0.048175313 0.038850524 0.088563986 -0.016310833 -0.011817858
0.057113312 -0.040709425 -0.080966726 -0.017840482 -0.033034608 -0.07096191 0.08293424 0.0729695
0.08204544 0.010783233 0.06735366 0.048825733 -0.051285874 0.0192158 -0.018077835 -0.05976913
0.012681618 -0.08237811 0.049874254 0.09038512 -0.0052386075 0.01922439 0.03174711 -0.048812
-0.0016483516 0.055984728 0.036898248 -0.08295722 0.03505356 0.012983978 -0.058487725 0.03997799
0.0012856126 -0.044766463 -0.074764594 0.07210233 0.030320354 -0.069481984 -0.024783134 0.07454545
0.061486773 0.02385094 0.07894827 -0.02786462 0.047579654 -0.0051553026 -0.046198823 0.07086342
0.071562834 0.089568414 -0.008339092 0.063436754 0.09421275 0.031397827 -0.063492335 0.09006312
0.048292153 -0.034463547 -0.09359695 -0.027526096 -0.0864888 -0.08779221 0.013051726 0.06101788
0.053481705 -0.090699315 0.08933807 -0.024180785 0.055748112 -0.05371348 -0.08076714 0.051670544
0.043979935 -0.016048528 0.03236968 0.07531915 -0.08235148 -0.05041386 0.033679776 -0.003857419
0.09445708 0.07526726 -0.014134429 -0.08864688 -0.009224996 -0.022660173 0.015319429 0.04356248
-0.04713111 0.028987251 0.061232813 0.0019806027 0.07097859 -0.03420855 -0.026435994 -0.03270892
0.084432684 -0.09036731 -0.07999309 0.08681788 0.07038102 0.09580127 0.087368675 -0.07977462
0.09800295 -0.09841043 0.017766103 -0.008918986 0.06961001 0.047636174 -0.04765731 0.07745052
0.077009685 -0.030289516 0.061043896 0.06699572 -0.056790303 -0.029903509 0.030312218 -0.034033857
00000000: d448 f43c da61 103d 427d 463d 40dd 36bc
00000010: 42a4 033d 274d ac3d dd8f 2dbd ce56 a1bd
00000020: fa64 0a3d aebc 503d a84c 053c 30c3 9abb
00000030: 58c6 a9bc e9cd 813d c32b 6bbd e81d b6bc
00000040: 40a6 b13c 003a bd3b efb7 b03d 9895 433c
00000050: a03f e7bc 2d5b b43d 504b b8bd 0cb2 febc
00000060: 407d aebd 0000 493b 9607 533d a370 c23d
00000070: 13f0 8d3d 30d3 7e3c e7a2 8f3d b5c1 bf3d
00000080: e062 c53c 845f 86bd aa30 283d 4ddf 963d
00000090: 9420 d63c 3a06 5bbd c35f 74bd ada2 a13d
000000a0: c7a2 a83d 00ef a13c 72eb 0e3d 97cc 31bd
000000b0: 8056 043a 3873 88bd 3908 973d 9ba0 883d
000000c0: 6396 40bd b1a3 983d 80b6 7aba 172a ab3d
000000d0: 00dc 3e3c 45c4 b13d daef 36bd ba9e 603d
000000e0: a312 9bbd f4c6 b03c 5216 8fbd 4a4e 11bd
000000f0: c7d2 bebd c0dc e0bc 0abb 5c3d b885 abbc
00000100: ac26 0fbd af33 9d3d 0c15 b53c 0dd1 9d3d
00000110: 1399 943d 0073 0fbd 816a 9c3d 6029 b4bb
00000120: 5817 b3bd cea3 8abd a7d7 21bd d884 7f3c
00000130: 241b dc3c 0875 813c e201 0b3d 1211 cabd
00000140: 7666 98bd 2fd2 963d 624f 753d c6da 3d3d
00000150: 86f0 99bd 130d 64bd 74b5 11bd 5944 cc3d
00000160: 02a9 623d 6754 c5bd c980 923d 9853 e7bc
00000170: 55ef bfbd 2278 223d 0e75 6a3d cd94 5bbd
00000180: e67c 113d 73fc 67bd 4e89 1c3d c9b5 873d
00000190: 920e 793d 30c0 dfbb 5430 df3c b0c8 9cbb
000001a0: 38cd f7bc 76b3 483d c860 823c a0ca c2bb
000001b0: 807a 9bbd 108e 72bc 3cd5 02bd 206c da3b
000001c0: 18c5 113c 9851 943c 70dc 1bbc 923f 403d
000001d0: 6392 8c3d a027 18bd f204 043d be74 683d
000001e0: e8ed 83bc 8e20 a3bd b4d4 bb3c f412 fb3c
000001f0: 45c4 bf3d f3fc bb3d 7433 91bc 0397 25bd
00000200: f229 6c3d 6837 043c 5373 a1bd 7a53 45bd
00000210: ba21 1f3d 0961 b53d 4c9e 85bc b09f 41bc
00000220: a6ef 693d edbe 26bd e2d1 a5bd 3426 92bc
00000230: 4c4f 07bd 7a54 91bd 6dd9 a93d 0971 953d
00000240: 7107 a83d 28ac 303c b7f0 893d 7efd 473d
00000250: 2311 52bd 746a 9d3c f817 94bc 7ad0 74bd
00000260: 90c6 4f3c dbb5 a8bd f248 4c3d d51b b93d
00000270: a0a8 abbb 787c 9d3c 4209 023d 17ef 47bd
00000280: 800d d8ba 3e50 653d 9e22 173d 7ae5 a9bd
00000290: 5294 0f3d c0ba 543c d390 6fbd f6bf 233d
000002a0: 0082 a83a 0a5d 37bd 2e1e 99bd 63aa 933d
000002b0: 6462 f83c 924c 8ebd 0006 cbbc 49ab 983d
000002c0: 8ed9 7b3d 0c63 c33c a1af a13d 5844 e4bc
000002d0: e2e2 423d d0ed a8bb fa3a 3dbd d720 913d
000002e0: 898f 923d a56f b73d b0a0 08bc 21eb 813d
000002f0: 9df2 c03d 029b 003d 4508 82bd 0373 b83d
00000300: fecd 453d a629 0dbd c2af bfbd 687e e1bc
00000310: 0a21 b1bd 67cc b3bd e8d6 553c e2ed 793d
00000320: a20f 5b3d 90c0 b9bd e1f6 b63d c816 c6bc
00000330: 2258 643d aa02 5cbd 3e69 a5bd 7ea4 533d
00000340: 4e24 343d 3478 83bc 1296 043d ed40 9a3d
00000350: e5a7 a8bd c37e 4ebd cef3 093d c0cc 7cbb
00000360: b772 c13d b925 9a3d 1894 67bc 7f8c b5bd
00000370: 7024 17bc d4a1 b9bc 58fe 7a3c 926e 323d
00000380: 8d0c 41bd ac76 ed3c 42cf 7a3d 00cd 013b
00000390: 395d 913d 441e 0cbd 4c90 d8bc caf9 05bd
000003a0: 0beb ac3d 7f12 b9bd 6bd3 a3bd 93cd b13d
000003b0: ed23 903d 7533 c43d 59ee b23d e060 a3bd
000003c0: c5b5 c83d 688b c9bd 388a 913c f020 12bc
000003d0: b18f 8e3d 261e 433d 5034 43bd 619e 9e3d
000003e0: 41b7 9d3d b821 f8bc 2a09 7a3d 0d35 893d
000003f0: f39c 68bd 34f8 f4bc 5451 f83c 1667 0bbd

_middle_linear.bias f4 [100]
0.03748124 0.03688068 -0.0022142753 -0.06811706 -0.08830529 0.037717186 -0.010800876 -0.03329649
0.019509718 -0.037570488 0.04100191 0.07561063 -0.034917556 0.013203815 -0.079388544 0.017024621
-0.07114788 -0.075429514 -0.057392012 -0.08114481 0.026340656 0.026032366 -0.042202104 0.04372356
0.02769772 0.013309881 0.094201796 0.014102295 -0.069732234 -0.0994058 0.07657964 0.06482837
-0.026052453 -0.04251411 0.0026276112 -0.07129379 0.0040967017 0.07570597 -0.0661119 -0.04554664
-0.044141877 0.0015791282 -0.035572432 -0.06760702 -0.06697455 -0.061810017 0.069474615 -0.08048352
0.034201212 -0.085377775 -0.013835505 -0.025647797 2.3320317e-05 -0.081473686 -0.057336867 0.050366975
0.08289484 0.05317179 0.052789696 0.0878116 0.08893568 -0.0745499 0.0972955 0.03997744
0.08211262 0.0109222755 -0.08112726 -0.026760265 -0.04558133 -0.07897307 -0.088343635 -0.035057783
-0.067423046 0.07000137 -0.07005618 0.065124504 -0.094633006 -0.02482295 -0.02250503 -0.06454984
-0.065622464 -0.03294339 -0.028285071 -0.04433118 0.061677523 -0.029015288 -0.08884602 0.019512735
0.015378967 0.094005324 0.0923923 0.005576037 0.08406205 0.015538134 0.06270487 0.09859296
-0.03885746 -0.094630875 0.050808273 -0.027131006
00000000: ee85 193d 3210 173d 601d 11bb f580 8bbd
00000010: 67d9 b4bd 567d 1a3d 28f6 30bc e661 08bd
00000020: d8d2 9f3c 83e3 19bd 9ef1 273d bfd9 9a3d
00000030: b605 0fbd d054 583c 7696 a2bd 3877 8b3c
00000040: fbb5 91bd ca7a 9abd e313 6bbd 402f a6bd
00000050: 5cc8 d73c d441 d53c 1ddc 2cbd 7a17 333d
00000060: 54e6 e23c b011 5a3c dfec c03d 500d 673c
00000070: c6cf 8ebd 4595 cbbd c9d5 9c3d bdc4 843d
00000080: f46b d5bc 4723 2ebd 0034 2c3b 7b02 92bd
00000090: a03d 863b bb0b 9b3d ad65 87bd 1d8f 3abd
000000a0: 1dce 34bd c0fa ce3a 66b4 11bd 8d75 8abd
000000b0: f429 89bd 802c 7dbd b548 8e3d 8bd4 a4bd
000000c0: 9216 0c3d 8bda aebd 50ae 62bc 541b d2bc
000000d0: 00a0 c337 addb a6bd 10da 6abd 9a4d 4e3d
000000e0: c5c4 a93d aaca 593d 023a 583d 91d6 b33d
000000f0: e923 b63d 9ead 98bd dd42 c73d 62bf 233d
00000100: a92a a83d 58f3 323c 0d26 a6bd 5838 dbbc
00000110: 7db3 3abd a2bc a1bd 82ed b4bd c098 0fbd
00000120: 1815 8abd e15c 8f3d 9d79 8fbd ff5f 853d
00000130: f3ce c1bd 8059 cbbc 785c b8bc b532 84bd
00000140: 1265 86bd a6ef 06bd 18b6 e7bc 9d94 35bd
00000150: 92a1 7c3d 78b1 edbc e7f4 b5bd 2cd9 9f3c
00000160: 10f8 7b3c dd85 c03d 2d38 bd3d 30b7 b63b
00000170: b928 ac3d a893 7e3c 696b 803d 1beb c93d
00000180: 0029 1fbd d5cd c1bd 561c 503d d841 debc

_output_linear.weight f4 [1, 100]
0.20523977 -1.2528364e-19 -0.0057026683 -2.4706655e-09 4.5469186e-08 -0.39973223 3.6481526e-11 -0.69811153
-0.009903853 -5.5102864e-14 -1.4724397e-17 -3.1977475e-13 -1.8319062e-12 -2.3295374e-13 -0.85640216 -1.0781648
0.2874818 0.004766509 -0.6954538 0.038880765 -0.003865858 0.009201468 1.5535592e-05 2.7151062e-18
-0.4291304 1.0093488 3.2958367e-06 7.760141e-08 -6.7794726e-06 -5.610969e-20 0.0003118102 -0.5081545
0.80685496 2.7393826e-06 -7.873258e-17 -0.00010116068 -0.5941137 -4.081498e-08 -1.2892397e-07 -0.017696079
-1.984395e-18 -0.4990953 0.016252995 -6.9307434e-06 -1.9133525e-17 0.76423943 -5.05117e-12 0.003200937
-1.6168578e-15 -0.7226643 -1.5875646e-06 -0.69850796 1.1778786e-11 6.8893255e-14 2.2969742e-11 -0.95468295
-0.0018724131 -0.041915976 0.0053010713 -0.00010298072 0.8925955 0.31605667 1.3698707e-07 1.2796786e-12
-4.9823394e-09 1.8131589e-13 0.43960926 0.13995121 0.69199276 4.362611e-06 -2.1789349e-17 -1.514181e-14
-0.015129628 0.4195503 0.86244875 1.07218225e-17 -0.6460068 -0.712125 0.421471 0.6247618
-0.11348447 -3.2876273e-09 -0.8574353 -0.21299691 -1.0350932e-16 -0.0047402666 0.08858073 -0.027204283
-1.4775476e-09 0.00030435296 0.86226547 -0.67824066 -1.088678e-13 0.52688056 0.009715245 1.8754127e-09
-0.008616512 0.9869438 0.6162334 0.03483432
00000000: 602a 523e a8e8 13a0 73dd babb 68c8 29b1
00000010: e649 4333 b4a9 ccbe 8c72 202e 70b7 32bf
00000020: c543 22bc 4729 78a9 00cf 87a3 6604 b4aa
00000030: b0e8 00ac 2c24 83aa 2c3d 5bbf 4e01 8abf
00000040: d130 933e 6030 9c3b 4309 32bf 7041 1f3d
00000050: 565a 7dbb c1c1 163c 6e52 8237 e856 4822
00000060: fbb6 dbbe 5732 813f 0b2e 5d36 d4a5 a633
00000070: 3a7b e3b6 3a7c 849f 757a a339 6a16 02bf
00000080: 0c8e 4e3f 3cd6 3736 838b b5a4 3a26 d4b8
00000090: d617 18bf 8c4c 2fb3 5a6e 0ab4 5ef7 90bc
000000a0: 296c 12a2 6b89 ffbe 0025 853c a28e e8b6
000000b0: c279 b0a3 32a5 433f e5b8 b1ac d0c6 513b
000000c0: 8603 e9a6 8700 39bf 4e14 d5b5 6bd1 32bf
000000d0: f036 4f2d 4222 9b29 430b ca2d 1a66 74bf
000000e0: c26b f5ba 16b0 2bbd 9cb4 ad3b 5af7 d7b8
000000f0: 2481 643f 2ed2 a13e b816 1334 4819 b42b
00000100: 1f31 abb1 bf24 4c2a 7714 e13e 5f4f 0f3e
00000110: 7026 313f 8b62 9236 a5f8 c8a3 a362 88a8
00000120: 42e2 77bc 4ccf d63e 71c9 5c3f 60c8 4523
00000130: b460 25bf d34d 36bf 0ccb d73e 64f0 1f3f
00000140: 8c6a e8bd 8dec 61b1 e180 5bbf dd1b 5abe
00000150: 1ead eea4 3d54 9bbb d069 b53d 84db debc
00000160: 9612 cbb0 9091 9f39 6ebd 5c3f 2ea1 2dbf
00000170: 0426 f5a9 a5e1 063f b12c 1f3c 9ce0 0031
00000180: 452c 0dbc 59a8 7c3f 79c1 1d3f 6fae 0e3d
