data/MTMR_28002/real/uniform/D5N5/model/SinNet.pt (torch_old, 45877 bytes, 6 tensors)

_input_linear.weight f4 [100, 5]
00000000: 9230 9e39 ac30 9638 7f27 ea38 d02d 41b9
00000010: 6b7a d4b9 f492 efb5 2685 9237 cc40 8b37
00000020: 2999 bbb6 02e4 efb6 d014 bd36 360a 1db7
00000030: bcde acb7 e1f3 c337 c0a9 5837 0da1 5836
00000040: 1115 ab37 b1b2 5f37 83ed 2e36 3de9 7bb6
00000050: ccba 4eb8 48c4 3637 3240 d5b7 33d0 9038
00000060: 8693 5cb6 e2d7 40bb dac7 dabb 0a8c f4ba
00000070: b4e8 d7ba 201e 0cb8 c43c 86b8 3353 76b8
00000080: 79e9 d4b8 58d7 deb7 8baa cdb8 ac29 04bf
00000090: 046a 06bf fe8f cdbf c597 c9bf 733b 593c
000000a0: 716f fa38 ad60 89b9 e73a 0239 12d4 4538
000000b0: 7a04 a8b8 9aef b2be bf14 d3be 2427 803f
000000c0: 9f94 c7bd 6644 d0bc 1aa1 8fb9 d82d 9a37
000000d0: f073 8837 7cf9 e4b8 e3fa 903a 9ba5 60b6
000000e0: abba 6a38 d160 3638 b058 4938 ea9f 91b8
000000f0: 61a8 7ebd a489 a3bc 7e13 293e 288a bcbf
00000100: 9b12 3f3f 71a6 08bd 56ef 26bc 601f a43c
00000110: 1979 093c 11c5 94bc 9b2e d2bd a691 59bd
00000120: 5af8 f93d cfc6 c4bf 8b28 3bbf a008 c03b
00000130: 84b6 113c dd05 d23a 400e 6a37 b9ab 8abb
00000140: 4ca3 e6bb 721b 0b3d 9c25 94bb 5c1b f3ba
00000150: 801e bbba 863e 18bc e4de 323c bcac f4bb
00000160: 58f9 9c3b de62 ba3a 000a 24bc 750f 7fba
00000170: 8811 83b8 60fe 08bc 9eb6 183c dcb2 2cb7
00000180: f191 53b8 0cdb 7c39 73c3 c438 0b94 1838
00000190: d074 c5b6 b116 b337 7e0c 1938 0076 41b2
000001a0: dcca 9fb7 a428 ecb7 ecc1 fd37 0c3e ad36
000001b0: f6e8 b1b8 5233 e836 734e 7a3b 5c51 793a
000001c0: 32a3 7e3b a961 6bbc 4c94 463c c378 163f
000001d0: e23f 183f f93e dabf 09d3 c53f 7606 9f3c
000001e0: 7503 6d38 5e97 ed37 93bc b438 4d4e 7739
000001f0: f77b 61b9 1297 1cb7 2fb1 01b5 4474 a736
00000200: ade9 98b6 a292 bfb6 f2c6 473d 6051 7f3d
00000210: 096f c83c d510 8ebd 354c 7cbc 264c bfb7
00000220: 6ae0 2bb7 d954 5638 517f 7a37 5a0f 31b8
00000230: 9138 fab7 98cf c4b4 ed2a 9137 14d9 cdb6
00000240: 84a9 2036 a5c1 0d3d a40c 0abe 8a75 85bd
00000250: 8abf 0dbe 511e 8ebe f9a6 12b8 910d 0eb9
00000260: 14ad f1b8 c396 93b7 1f08 9338 a45d f13b
00000270: 2e01 84bb 20b8 c9ba 7a32 913a 21f3 b1bb
00000280: 5e78 b4bc 3972 17bd 31ef b4bc 8446 3dbb
00000290: d538 af3c dc04 64bd 7c78 b23c e8e0 f1bb
000002a0: 01ff 8b3d f463 233c 52c3 7839 ec26 06b9
000002b0: 4206 9fb9 6946 3839 49bc 6939 b6a2 f03e
000002c0: 7095 063f 0300 d53f e7d4 b9bf 447f 583d
000002d0: 8e68 4c3c c699 b1bb 57e3 fc3b 1055 823c
000002e0: 8526 b4bc c0fb 40bd 14cf 3dbb 93fa 073d
000002f0: c8a1 07bc 14be 553d d60e 083a 245c 11bb
00000300: 442f a8ba e205 35ba 645e b3ba 4873 e03e
00000310: 75a7 bb3e 79d6 523f d6f9 85bd b6bb 013d
00000320: bd90 67bf 144c 62bf 2520 bc3e 96dd 943f
00000330: 8ef5 413c 2989 f8b6 6d98 4cb5 161a 0e37
00000340: 7a21 c9b5 45b1 59b7 04d5 e23c d8f1 bc3b
00000350: b59b 7e3c f749 6cbd cb5c 53bd d8ae c2b5
00000360: 492f be34 9493 2436 dae9 b7b5 6792 feb5
00000370: c2fa be3c cb19 1dbb 73ba ccbc aacd 7b3d
00000380: bf94 dabb 629b 41bc aadb 883d 4159 143e
00000390: fadd ce3c fb64 62bd 0e2e 3638 b360 2cb8
000003a0: d3d4 a9b8 3ccc 24b7 9e56 9938 2903 9e3c
000003b0: 68bd c1ba 847e e9ba 10b8 803c 5858 e53c
000003c0: 6097 1e3a 5479 82ba 671c 213a 1b06 bc3a
000003d0: 9702 daba 57d8 aaba ce57 563a 2e2d af39
000003e0: d28b 34ba 3016 f43a 7668 35bf 2002 09bf
000003f0: b9b3 1ebd 2fc5 dfbd 90db 893d 1496 ff36
0.00030172296 7.161623e-05 0.00011165346 -0.00018422981 -0.00040527 -1.7849657e-06 1.7466558e-05 1.6600265e-05
-5.5908645e-06 -7.1492987e-06 5.635062e-06 -9.360307e-06 -2.0607717e-05 2.3359376e-05 1.2914126e-05 3.2280252e-06
2.0394598e-05 1.3333441e-05 2.606627e-06 -3.7537677e-06 -4.9288195e-05 1.0893746e-05 -2.5421472e-05 6.905235e-05
-3.2868425e-06 -0.0029425551 -0.006676656 -0.0018657458 -0.0016472549 -3.3406657e-05 -6.4009364e-05 -5.8728456e-05
-0.000101524354 -2.656474e-05 -9.806928e-05 -0.51626086 -0.52505517 -1.6059568 -1.5749441 0.013258803
0.000119416865 -0.00026202705 0.00012419709 4.7165966e-05 -8.011698e-05 -0.34948426 -0.41226766 1.0011945
-0.09745144 -0.02542324 -0.00027395115 1.8379578e-05 1.6266451e-05 -0.00010918357 0.0011061098 -3.3474996e-06
5.5963796e-05 4.348235e-05 4.800473e-05 -6.943925e-05 -0.062172297 -0.019963093 0.16511342 -1.4729662
0.74637765 -0.033361856 -0.010188898 0.020034492 0.008390688 -0.018160375 -0.102627955 -0.053117417
0.122055724 -1.5373172 -0.7310874 0.005860403 0.008893613 0.0016023476 1.3950805e-05 -0.0042318967
-0.0070385095 0.03396172 -0.004521085 -0.0018547582 -0.0014276057 -0.0092922505 0.010917399 -0.0074668806
0.0047904663 0.0014220139 -0.01001215 -0.00097297813 -6.249832e-05 -0.008361429 0.009320883 -1.0293643e-05
-5.044224e-05 0.00024114194 9.3824136e-05 3.63775e-05 -5.8846563e-06 2.134903e-05 3.6489677e-05 -1.1260909e-08
-1.904874e-05 -2.8152317e-05 3.0250252e-05 5.163025e-06 -8.48341e-05 6.9201133e-06 0.0038193732 0.00095107197
0.0038854596 -0.014366546 0.012120318 0.5877802 0.5947248 -1.7050468 1.5455028 0.01941226
5.6508423e-05 2.8323087e-05 8.6181935e-05 0.00023584925 -0.00021503853 -9.333498e-06 -4.831408e-07 4.990523e-06
-4.5571564e-06 -5.709314e-06 0.048773713 0.062333465 0.024467008 -0.06936804 -0.015399029 -2.2804434e-05
-1.0244645e-05 5.1100596e-05 1.4930804e-05 -4.2214386e-05 -2.9828663e-05 -3.665889e-07 1.7305336e-05 -6.1347473e-06
2.394053e-06 0.034608502 -0.13481385 -0.065165594 -0.13842598 -0.27757505 -3.4964618e-05 -0.00013547229
-0.00011524014 -1.759397e-05 7.011019e-05 0.007365899 -0.004028461 -0.0015389957 0.0011077665 -0.0054305946
-0.022030052 -0.036974166 -0.022086712 -0.0028881142 0.021389404 -0.055668697 0.021785967 -0.0073815472
0.068357475 0.009972561 0.00023723886 -0.00012793735 -0.00030331506 0.00017573837 0.00022290753 0.4699914
0.52571774 1.6640629 -1.4518098 0.052855745 0.0124761 -0.0054199426 0.0077175307 0.015909702
-0.021991024 -0.047115088 -0.002896254 0.03319795 -0.008278318 0.052183226 0.0005190199 -0.0022180164
-0.0012831469 -0.00069054787 -0.0013684747 0.43837953 0.36651197 0.8235851 -0.06541793 0.031673156
-0.9045523 -0.88397336 0.36743274 1.1630123 0.01183833 -7.4069435e-06 -7.621773e-07 8.469933e-06
-1.498541e-06 -1.2975482e-05 0.027689464 0.0057661347 0.015540053 -0.057687726 -0.051602166 -1.4505013e-06
3.5424662e-07 2.4523806e-06 -1.3702622e-06 -1.8967083e-06 0.02331293 -0.0023971673 -0.02499125 0.061475433
-0.006670564 -0.011816831 0.066825226 0.14487173 0.025252331 -0.055272084 4.3435073e-05 -4.1098054e-05
-8.0981896e-05 -9.822714e-06 7.311742e-05 0.019288616 -0.0014781179 -0.0017814194 0.015712768 0.027996227
0.00060497783 -0.0009954371 0.0006145895 0.0014345081 -0.0016632852 -0.0013034445 0.0008176536 0.00033412263
-0.000688729 0.0018622335 -0.7086252 -0.5351887 -0.038745616 -0.10926282 0.06731331 7.6170636e-06

_input_linear.bias f4 [100]
00000000: ebc4 da38 6cd1 c3b6 49b2 e5b7 92cc 4336
00000010: 1637 d0b8 6da9 3ebb e3d9 0539 c813 b53f
00000020: 146b cc37 50f4 1d3d 821d 9eb8 b76f a9b7
00000030: 7995 583f 808a cdb6 ed43 3a3f cc9f b4ba
00000040: 740b 20bb c31c 8bbc dd9d 013b 6e3a 0fb9
00000050: e18a 80b7 8824 0838 8485 923a 0a6b 43be
00000060: bdf6 8339 9fc2 c9b6 f0f5 ffbc fb71 98b7
00000070: 0ceb 8a37 919f ea3b a45e 73b7 a400 83bb
00000080: bac2 fcbb 2359 8abd e3b4 21ba ea82 873f
00000090: 2064 243b 19b6 51bd 7b66 63bb 2692 0abf
000000a0: 780a 96bd dc63 d8b6 8f06 cc3d 13b9 33b6
000000b0: c07a 2b3b 42f4 babc e021 03b5 2091 f439
000000c0: ca73 2f3a 3d08 8ab8 d6ea 393e ec18 43b8
000000d0: 6254 8fba 1ac7 8cb8 83d8 0e3d 2b31 733a
000000e0: 5639 7e37 96be a0b5 5fbf 4a3f 7f9b 75b7
000000f0: 2099 4fbf 1a0f 3ab9 83ed 3dbd 0a35 b23c
00000100: 3072 96b7 133b 8037 0c2e 6937 6981 42bf
00000110: 2273 f23d ff2c 1bba aeb3 c13b 80a0 aa36
00000120: c040 2637 0c1e 003c f434 383f 2966 2637
00000130: c8f5 7e3f 6bb5 b93f e576 86b7 f2d6 4db7
00000140: 0c74 493a 8e23 c6b6 63ef bdb9 1486 4cb9
00000150: b81e 47b8 4ede d837 ae93 87ba 95ee 133d
00000160: c53d 20be b4e5 0138 bd0b b93d 3d74 9bbf
00000170: f261 aabd a937 c838 3471 833b 4a01 8abe
00000180: 2019 a7bc 42b6 8139 a106 0d3e 67b3 883d
0.00010431729 -5.835833e-06 -2.7381948e-05 2.917634e-06 -9.9284734e-05 -0.0029092685 0.00012765038 1.4146662
2.4368557e-05 0.038563073 -7.539523e-05 -2.0198391e-05 0.8460308 -6.1255996e-06 0.72759897 -0.0013780533
-0.002442089 -0.016981488 0.0019777932 -0.0001365931 -1.532346e-05 3.245895e-05 0.0011178707 -0.19083801
0.000251701 -6.0129237e-06 -0.031245202 -1.8172888e-05 1.6560334e-05 0.007160135 -1.4505964e-05 -0.003997879
-0.007713643 -0.06755283 -0.0006168617 1.0586827 0.0025084093 -0.051199052 -0.0034698534 -0.54129255
-0.073262155 -6.448927e-06 0.099621885 -2.6780806e-06 0.0026165694 -0.02282155 -4.88506e-07 0.00046647433
0.0006692974 -6.581887e-05 0.18155989 -4.6514833e-05 -0.0010935182 -6.712806e-05 0.03487445 0.0009277041
1.5152929e-05 -1.1976397e-06 0.7919826 -1.4639342e-05 -0.81093025 -0.00017743968 -0.046369087 0.021753807
-1.7934566e-05 1.5286298e-05 1.3898603e-05 -0.75978714 0.11838366 -0.00059194857 0.005911312 5.0850795e-06
9.909447e-06 0.007819664 0.719558 9.918157e-06 0.9959378 1.4508489 -1.602941e-05 -1.2268998e-05
0.0007684834 -5.904999e-06 -0.00036227246 -0.00019504904 -4.7473906e-05 2.5852725e-05 -0.0010343695 0.0361162
-0.15648563 3.0969924e-05 0.09035442 -1.2144848 -0.08319463 9.547111e-05 0.0040112976 -0.26954108
-0.020397723 0.0002474059 0.1377206 0.06674843

_middle_linear.weight f4 [100, 100]
00000000: b763 973d 0d3d 963d 7107 973d 47bb 803d
00000010: 0bfb 803d f2f7 093d b0fa f2bb 204e b5bc
00000020: 3767 bf3d 0057 693a e117 993d 99f6 c93d
00000030: f0e0 c7bd 987d ba3c 9ca4 10bd 00f6 bdb9
00000040: 8c70 ff3c 0095 71ba 838e 49bd cd9f b5bd
00000050: 4dc7 6fbd 97c5 9d3d a8e3 febc b08e 773c
00000060: 22bf 523d 9016 193c 8fc1 b43d 630e a33d
00000070: a770 c53d d895 7e3c 7002 54bd 5f07 be3d
00000080: c1a4 b93d fb9c b9bd 0029 42bd 5eca 0e3d
00000090: 007f 173a 1289 603d a585 88bd 30e9 723c
000000a0: e41b f13c 84bc 0fbd a8c9 b93c e30f 1abd
000000b0: 74f4 c23c cf65 c53d 2e26 94bd 4045 bbbc
000000c0: 4bd5 aabd 0d90 a0bd 548c e33c 02e8 143d
000000d0: 40ea 68bc 8aca 04bd 50d0 8c3b 6848 403c
000000e0: 20ec f33b d0bd 62bc ec4a e13c 1afb 143d
000000f0: 9171 a33d 46c9 623d d709 2abd 026c 213d
00000100: 3701 3bbd 5282 013d 3e33 543d 84d2 f23c
00000110: ad54 bcbd 6c5e f73c 80ad 92bd e067 65bd
00000120: f3db 28bd 82f6 0e3d 52c8 7c3d 11fa a83d
00000130: 564f 1c3d 4040 0f3c 60ac 193b 31cf bd3d
00000140: 188b c4bd f1f2 ae3d e0c5 bf3c dc66 ff3c
00000150: e8c3 25bc faf6 543d 1207 333d a8bd a5bd
00000160: ae7a a8bd a84b a5bd ec00 b0bc 181f 6abc
00000170: ecff adbc 427a 7b3d 0cce 883c e179 b83d
00000180: d8d7 babc 4351 ba3d d81c 343c 8085 91bd
00000190: 8702 4ebd 7ec2 063d 4008 bc3c a0dc c23b
000001a0: 325d 2d3d 1a75 56bd 5ae9 1e3d c223 4e3d
000001b0: 6d32 b93d 53fa 92bd 1da5 74bd b0b3 75bc
000001c0: b36c bcbd 35db a9bd d71d 64bd 0075 793c
000001d0: ead9 343d 8d90 89bd 8e85 acbd 0069 66bd
000001e0: 47cb 41bd 0816 bfbd 40df 8c3c 664e a7bd
000001f0: d54b c7bd f93c c53d c46d 87bd e1bb 853d
00000200: c0f3 25bd ea7f 9fbd 91c9 953d 8756 70bd
00000210: d84e 953c f15d a03d 0a0f 70bd 6491 0abd
00000220: bcf9 00bd 9d9b 79bd 0a8f 343d bb78 b43d
00000230: a0ab 0bbd b9eb 9b3d ccc5 85bc 6037 04bb
00000240: 3aa9 423d 773a 33bd 5669 283d bd9c 8b3d
00000250: 2464 ea3c ab02 bc3d 5616 063d 2736 cc3d
00000260: ec7b a3bc d0de 233c 743c 83bd b22c 283d
00000270: b92e 863d ed27 ba3d 5191 9c3d f41f da3c
00000280: 5ad2 613d 343c 04bd 30e8 ffbb 04ba d23c
00000290: 5577 a03d ea89 14bd 7839 b93c 9355 37bd
000002a0: 7659 4f3d 440b 0bbd dbed a23d 0c96 88bd
000002b0: c692 7d3d 13f3 bfbd 28b2 873c 175f b8bd
000002c0: 9de8 ac3d 96b5 85bd 40b4 253c 75eb 83bd
000002d0: 1263 023d b6ce 563d 2b2c c4bd c896 bfbd
000002e0: 5c70 dd3c fd6f 9b3d 9e2d 4b3d dafd 9cbd
000002f0: 76f2 153d 18da 143c fa2a 103d cd9c bdbd
00000300: 526d 093d d2e1 183d 9fc5 8a3d 932e 9f3d
00000310: cdbf 4abd ccc3 13bd ea15 52bd f812 d0bc
00000320: b65d 4b3d f3e3 c9bd 756e b23d ec4e 9f3c
00000330: 1b1c cc3d 68ef c93c 1d2b 3fbd e0b2 a93b
00000340: 83da 46bd 6871 2ebc 9810 ccbd 1834 67bc
00000350: 3880 d0bc 8253 7f3d 0050 f53b 62f8 743d
00000360: b292 bfbd 6090 a3bd 5098 0abc c4e2 08bd
00000370: 5237 643d 9a56 673d 9afa 43bd 5301 2bbd
00000380: 824e 073d 28c6 22bc 2a4c 2bbd 9088 74bc
00000390: aacb 24bd d978 863d 0383 8b3d b923 813d
000003a0: 6390 a1bd b89b a8bd bfc1 833d 803e c9bb
000003b0: 2521 a83d 4251 1b3d f4bb f0bc 502e 3d3c
000003c0: c8c2 92bc 2a3c 5b3d f28b 9ebd 339b 3fbd
000003d0: f1bc ba3d e913 863d 5896 7cbc b084 c2bb
000003e0: c0d4 66bc 6664 15bd 74d8 dfbc cdf7 8e3d
000003f0: 13eb 2bbd ce10 aabd 0c31 0fbd 08ac 993c
0.07392066 0.07335863 0.07374466 0.0628572 0.06297883 0.033683725 -0.007415138 -0.02213198
0.093458585 0.00089012086 0.07475258 0.09861488 -0.097597 0.022764966 -0.035313234 -0.00036232173
0.031181596 -0.0009215623 -0.049208175 -0.0886837 -0.058539677 0.07703703 -0.031114414 0.015109703
0.05145181 0.009343758 0.08825981 0.079617284 0.09640627 0.015538655 -0.051760137 0.0927875
0.090646274 -0.09063145 -0.047402382 0.03486096 0.00057791173 0.05481822 -0.06666116 0.014826104
0.029432245 -0.035091892 0.022679165 -0.037612807 0.023798205 0.09638559 -0.07233845 -0.02286017
-0.08341464 -0.078399755 0.027776875 0.036354072 -0.014216006 -0.03241972 0.0042972937 0.011736013
0.00744392 -0.0138392 0.027501546 0.03637228 0.079806454 0.05536773 -0.04151329 0.039409645
-0.045655455 0.031618424 0.05180668 0.029641397 -0.09195838 0.030196391 -0.07161999 -0.056007266
-0.041225385 0.034903057 0.061714478 0.082508214 0.0381616 0.008743346 0.002344869 0.09268034
-0.095968425 0.08542431 0.023409784 0.031176977 -0.0101175085 0.051993348 0.043707915 -0.08092815
-0.08226524 -0.08071071 -0.021484815 -0.01428964 -0.021240197 0.06139589 0.016699813 0.090076216
-0.022808 0.09097531 0.010993205 -0.07105541 -0.05029538 0.032900326 0.022953153 0.0059467107
0.042325206 -0.05235777 0.03879676 0.05032707 0.09042821 -0.07176652 -0.059727777 -0.014996454
-0.0920042 -0.082937635 -0.05569252 0.015225649 0.04415313 -0.06717024 -0.08423911 -0.05625248
-0.047313 -0.09330374 0.017196298 -0.0816925 -0.09731261 0.0963077 -0.06612733 0.06529976
-0.04051566 -0.077880695 0.07313836 -0.05867627 0.018226072 0.07830418 -0.058608092 -0.03383006
-0.031488165 -0.06093942 0.044081725 0.0881209 -0.03409922 0.0761332 -0.016329668 -0.0020174608
0.04752467 -0.04375693 0.04111608 0.06817005 0.028612204 0.091801964 0.032736145 0.09971266
-0.019956551 0.010001853 -0.06408015 0.04105825 0.065518804 0.090896465 0.076449044 0.026626565
0.055132248 -0.032283977 -0.0078096613 0.025723465 0.07835261 -0.036264338 0.022610411 -0.044759344
0.050622426 -0.03394629 0.079555236 -0.06669244 0.061907552 -0.093725346 0.016564444 -0.09002512
0.08442805 -0.065287754 0.010113776 -0.06441394 0.031832762 0.05244323 -0.09578737 -0.09354931
0.027031116 0.075897194 0.04960405 -0.07665606 0.036608182 0.009085201 0.035197236 -0.09258423
0.03355152 0.037324734 0.067759745 0.07772555 -0.04949932 -0.0360754 -0.05129043 -0.02539967
0.049649917 -0.09857931 0.08712474 0.019446813 0.09966298 0.02465029 -0.046671975 0.0051787943
-0.048548233 -0.010647155 -0.099641025 -0.014111541 -0.025451764 0.0623355 0.0074863434 0.05980719
-0.09354152 -0.07986522 -0.008459166 -0.033419386 0.05571682 0.056479074 -0.047846414 -0.04174931
0.033033855 -0.009934939 -0.041820683 -0.014925137 -0.04023329 0.065660186 0.06812098 0.06305642
-0.07888868 -0.08232826 0.064334385 -0.006141484 0.08209447 0.03791929 -0.029386498 0.011546686
-0.017915145 0.053524174 -0.07741536 -0.04677887 0.09118069 0.06546766 -0.015416704 -0.0059362277
-0.0140888095 -0.0364727 -0.027324893 0.06980858 -0.04197223 -0.083039865 -0.034958884 0.018758789

_middle_linear.bias f4 [100]
00000000: aceb f5bc 982e 77bc 7e95 5f3d 129f 9fbd
00000010: cc01 893c 00c0 763c f81f 94bd e53e bcbd
00000020: 6b0c 933d efe8 953d 459e a0bd 0dcf 21bd
00000030: 63f4 43bd d04d 21bd 02ac 5b3d c494 ee3c
00000040: e87b 73bc 4dce 67bd b61c 583d 2821 23bc
00000050: 2796 b23d a08d 9c3b 8a9c 16bd ebfc b8bd
00000060: 28ed 703c 1391 ca3d 38f6 f2bc 0026 f43b
00000070: 702b 3fbd 9474 babc a01f 41bd 37c6 3abd
00000080: d0fd 07bd e98e c93d a0d8 c3bd 0c6b 17bd
00000090: a0ab 463b e02b c7bc 4235 073d cdc7 88bd
000000a0: f281 003d 9821 1d3c 4d22 42bd f4da f6bc
000000b0: 0dac 51bd 6866 eebc dddd b33d b8a6 8fbd
000000c0: e829 8d3c d0f1 dc3b 8d13 a03d b2d1 5a3d
000000d0: e0e7 a0bc 1a16 53bd f0eb 333c e0b7 3bbd
000000e0: bb2a a83d f784 24bd 1ae0 44bd a7fc b1bd
000000f0: e7fa 44bd d369 53bd e063 8abc 48d2 c33c
00000100: 80a6 f2bc f4cc f93c ba28 90bd 3505 99bd
00000110: 4751 44bd 4011 35bd 90b3 033c 005c 603c
00000120: 58a3 a2bc 064f a2bd aee7 523d 8dc0 babd
00000130: 5daf 9fbd 0634 293d f715 51bd 5601 6b3d
00000140: 7062 39bd 724a 5f3d 22f7 043d 0026 eebc
00000150: d07b c23b 91c2 8a3d ba9c 49bd 9d16 b23d
00000160: cd9a 92bd f9a5 a03d dd9a a43d 4317 5ebd
00000170: 60b5 81bd 532c 31bd f264 493d e8a6 3c3c
00000180: 114c b83d 12a6 4c3d 1893 173c dd60 5cbd
-0.030019604 -0.015086792 0.054585926 -0.07794012 0.01672449 0.015060425 -0.0723266 -0.09191684
0.07180103 0.07319819 -0.078426875 -0.0395041 -0.047840487 -0.03938085 0.053630836 0.029123671
-0.0148610845 -0.056593228 0.052761756 -0.009956636 0.087200455 0.004777625 -0.03677038 -0.09032615
0.01470498 0.09890952 -0.029658422 0.007450819 -0.046672285 -0.022760667 -0.0471493 -0.04559919
-0.03320104 0.09841711 -0.09562802 -0.036967322 0.0030314699 -0.024312913 0.033009775 -0.06678734
0.031373926 0.009590529 -0.047395993 -0.030133702 -0.05118947 -0.029101565 0.087825514 -0.07014221
0.017231897 0.0067426935 0.07816229 0.053422637 -0.019641817 -0.05153475 0.010981545 -0.045829654
0.08211275 -0.040165868 -0.048065282 -0.08690768 -0.04809084 -0.051614594 -0.016893327 0.02390398
-0.029620409 0.030493237 -0.07039018 -0.07471696 -0.047929075 -0.044205904 0.0080384165 0.0136938095
-0.019853279 -0.07925229 0.05149048 -0.091187574 -0.0779712 0.04130938 -0.051046338 0.05737432
-0.045259893 0.054514356 0.032462247 -0.029070854 0.0059351698 0.06775392 -0.04922173 0.086957194
-0.07158432 0.07844157 0.0803735 -0.054221403 -0.06333423 -0.04325516 0.049168535 0.011514403
0.089988835 0.049963064 0.0092513785 -0.053803314

_output_linear.weight f4 [5, 100]
00000000: efd3 8238 f298 bfb5 c0e4 62b5 0a56 9eb5
00000010: 2c07 7637 20c1 4b3a 30b8 9334 568a fe3d
00000020: fb31 c738 8209 38be 107b 18b7 c8d7 edb4
00000030: 1895 46bc 0a35 b63b 68f6 0bbd cf76 aaba
00000040: 7f5c 24bc bdd0 59ba e263 6cbb 095b 2f37
00000050: 8acd 26b6 96ec efb6 a823 e4b9 0642 e13d
00000060: b472 4937 77c4 0bb6 83ff 44bc 36f1 1b37
00000070: ffbb bab6 b784 d63d 5e8b ee36 26a7 293b
00000080: a5a8 8c3b 9302 c23b 3a4c bd37 94f6 b5bd
00000090: 9316 6e3c a78e 81bc 0e0f 32b8 ec49 8bbe
000000a0: 7c9c 02be dcd6 c336 37fa 3b3c 44b0 80b4
000000b0: ac85 dbba fe03 04bc 7899 54b6 8a3d 70bb
000000c0: 7e51 553a 684b 08ba 6b7c 1cbd 4a38 cc35
000000d0: bc40 c2b8 0679 be37 3062 033b b3c6 2e38
000000e0: e0df b134 cef2 dcb3 5595 a13d be49 2938
000000f0: 344e 433e d40a 74ba d070 f8b9 497f 5c3c
00000100: f057 67b9 81c1 49b7 499e fab6 9687 22be
00000110: f9d4 edbb fa62 5b39 337f a63d c576 c937
00000120: 4152 4eb6 ce27 5a3e e7c7 b3be ae69 e9b5
00000130: 8e74 d33d c462 933e 486e b436 e16b 8fb8
00000140: 3814 9835 7f1e c535 6bd2 0c39 42c4 c436
00000150: 24ae 0238 31c6 44b7 9e74 6db9 0987 8bbc
00000160: 3ded 4e3c 5890 1a38 7c0c 5a3c b857 273f
00000170: 8ef8 853c 79d3 8038 dbff 5aba 041b 28bc
00000180: 218e 8d3c f9ad 1fba 88d1 293f be21 7c3c
00000190: 1ca1 3337 6578 0eb7 9b34 3c37 6d73 1eb7
000001a0: 0318 8937 3eb1 413b 1f33 d636 07f7 cb3d
000001b0: 3121 df37 bd4f 74bd d5b6 8ab9 8b66 bbb7
000001c0: b300 f9bb 99e4 6cbc eb7a a8bc 77f9 6abb
000001d0: 502a dabb e099 6e37 6f03 6939 f9e8 a7b7
000001e0: 7d60 83b7 cc03 fdb6 3016 a13b 5973 273e
000001f0: 8196 23b8 74e6 24b6 eed6 ec3c 835d 86b7
00000200: 7ffe 20b7 b0fc d93c 4725 4138 78e9 503a
00000210: 8c7d 103c 7d53 cabb 2aa9 1c39 22ad d6bd
00000220: 7405 3dba 5285 05bc f68b 4639 ff56 b3be
00000230: 75e3 1fbe b03b 14b7 3ce5 083a 9453 57b5
00000240: 4e05 e93b 76e6 2dbd fedc 7138 743a bd3a
00000250: 1d09 c2b9 e980 8438 a967 fa3e 5839 6e35
00000260: cf53 ae3a b8e1 abb8 997a c4bc d9ae dfb9
00000270: d87f e1b8 f819 3935 e2fd eb3d abe3 e0b7
00000280: 1452 303e f2a9 c838 3c87 933c 3316 bfbb
00000290: 2248 9339 2d63 2cb8 3b6f 21b9 ce9a 36be
000002a0: 20bc 8ebc e9ab f93a 4d4c 9ebc be61 60b8
000002b0: f511 05b6 c99b 92bd f4aa cbbe daf4 5537
000002c0: 8fd0 e23d 5857 dc3a 145c c835 ae62 7d37
000002d0: 5826 b437 541b 0235 a11b 4fba 602a 77b7
000002e0: 2c9d 7e38 9746 0538 6366 023a b3b2 32bc
000002f0: 4665 e7bc 0e06 e238 cdec cebc cddf 4c3f
00000300: e3b0 843c 2154 b539 dae2 8bb9 18c7 e6bb
00000310: f4fc ac3c 9c96 343a 3d59 a4bd ec65 debc
00000320: a0e2 b436 b754 12b6 e379 13b7 9886 3d35
00000330: d7b0 8ab8 8c79 d4ba ede5 4637 0e02 ef3d
00000340: 2f54 9c38 e027 873f 6ed0 753a fea9 0ab8
00000350: 94d5 6d3c 7028 bc3a 7ed5 debc dc41 83ba
00000360: 4d20 9abb 69b9 cebb 1686 8eba 0de5 8237
00000370: 8c88 c2b6 d8a6 7837 5659 193c 41f0 bcbd
00000380: 36de c2b7 b066 78b6 b899 19bd 78bd c2b7
00000390: 0bff 72b7 3b6c 61bd ae08 ef37 2625 663a
000003a0: 7eea 193c 1b4f 42bd 78cd c9b6 ea56 d7bd
000003b0: 4844 35bb f24b f63b 134f bfba 99cf 2a3f
000003c0: 5cc7 a53c 4b15 01b7 acce a03c bc1c 48b5
000003d0: f282 073c b502 06bc 46e9 4438 6527 e33c
000003e0: 3060 8839 7116 8038 a8f1 d6ba 9de9 0eb7
000003f0: 11c9 c839 0943 19b9 efd4 85bc a582 413a
6.238359e-05 -1.4275122e-06 -8.4524436e-07 -1.1796958e-06 1.4664412e-05 0.00077726133 2.7514898e-07 0.12428729
9.498369e-05 -0.17972377 -9.088559e-06 -4.4301692e-07 -0.012120508 0.005560522 -0.03417054 -0.0013005378
-0.010031818 -0.00083089975 -0.0036070277 1.0452009e-05 -2.4855567e-06 -7.1502973e-06 -0.00043514115 0.10998921
1.200724e-05 -2.0826972e-06 -0.012023809 9.294881e-06 -5.5651176e-06 0.10474532 7.109177e-06 0.0025886982
0.004292565 0.005920717 2.2566051e-05 -0.08884922 0.014531749 -0.015815092 -4.2452528e-05 -0.27204835
-0.12755007 5.836466e-06 0.01147323 -2.3970108e-07 -0.0016748211 -0.008057592 -3.1679792e-06 -0.0036657774
0.00081374485 -0.00051992247 -0.03820459 1.5215567e-06 -9.2626986e-05 2.2706121e-05 0.0020047538 4.1669886e-05
3.313171e-07 -1.0288714e-07 0.07889811 4.0361418e-05 0.19072801 -0.0009309475 -0.00047386298 0.0134580815
-0.00022062636 -1.2025587e-05 -7.4690074e-06 -0.15872034 -0.0072580543 0.00020922339 0.0812973 2.4016374e-05
-3.074427e-06 0.21304247 -0.3511345 -1.739061e-06 0.103249654 0.2878629 5.3772565e-06 -6.8388654e-05
1.1330767e-06 1.4686519e-06 0.00013429827 5.8641026e-06 3.1156596e-05 -1.1728655e-05 -0.00022645525 -0.017032163
0.012629804 3.685089e-05 0.013308641 0.65368223 0.016353872 6.1429055e-05 -0.00083541655 -0.010260347
0.017279686 -0.00060912926 0.66335344 0.015388904 1.0706743e-05 -8.491891e-06 1.1217921e-05 -9.4444085e-06
1.6342854e-05 0.0029555107 6.3836483e-06 0.09959226 2.6599128e-05 -0.059646357 -0.00026457632 -2.2339887e-05
-0.0075989603 -0.014458799 -0.020566424 -0.003585426 -0.006657876 1.4221732e-05 0.0002222189 -2.0016438e-05
-1.5661348e-05 -7.5404296e-06 0.004915975 0.16352595 -3.9002396e-05 -2.4572046e-06 0.02891108 -1.601759e-05
-9.595998e-06 0.026609749 4.6049503e-05 0.000796936 0.008818995 -0.0061745034 0.00014940338 -0.10482241
-0.00072105904 -0.008149462 0.00018934891 -0.3502731 -0.15614112 -8.8353845e-06 0.0005222147 -8.0215364e-07
0.007111228 -0.042456113 5.7664693e-05 0.0014436976 -0.00037009353 6.318262e-05 0.4890721 8.8745355e-07
0.0013300123 -8.195959e-05 -0.02398424 -0.00042664146 -0.00010752649 6.895566e-07 0.11523034 -2.6808897e-05
0.1721881 9.568398e-05 0.01800882 -0.005831504 0.00028091768 -4.110036e-05 -0.00015395593 -0.17832491
-0.01742369 0.0019048426 -0.019323492 -5.349679e-05 -1.9828997e-06 -0.0715862 -0.39778864 1.2752798e-05
0.11074936 0.0016810698 1.492796e-06 1.5102951e-05 2.1475527e-05 4.846854e-07 -0.00079005404 -1.47322135e-05
6.0704697e-05 3.1775413e-05 0.0004974363 -0.010906863 -0.028246533 0.000107776475 -0.0252594 0.8002899
0.016197627 0.0003458569 -0.00026681164 -0.007042777 0.021116711 0.00068888976 -0.08024833 -0.02714821
5.3908007e-06 -2.1805006e-06 -8.790262e-06 7.0603846e-07 -6.613292e-05 -0.001621054 1.1855253e-05 0.11670314
7.45434e-05 1.0559044 0.0009377067 -3.306008e-05 0.014516253 0.0014355313 -0.02720141 -0.0010014134
-0.0047035576 -0.0063087237 -0.0010873701 1.5603868e-05 -5.7975467e-06 1.4820798e-05 0.009359678 -0.09225512
-2.3230077e-05 -3.7014652e-06 -0.037500113 -2.321483e-05 -1.4483706e-05 -0.055034857 2.8495062e-05 0.0008779339
0.009394286 -0.047438722 -6.0141865e-06 -0.105146244 -0.0027659107 0.0075163776 -0.001459571 0.6672302
0.020236664 -7.693957e-06 0.019629799 -7.454762e-07 0.008270966 -0.008179356 4.6947294e-05 0.027728746
0.00026011607 6.107696e-05 -0.0016398923 -8.518252e-06 0.0003829678 -0.0001461619 -0.016336886 0.0007381833

_output_linear.bias f4 [5]
00000000: e538 91be b574 59be dbd7 753e c0b0 29bd
00000010: 6e74 87bd
-0.2836372 -0.21235926 0.24008124 -0.041428328 -0.06614004
